Trained Autoencoders/best_autoencoder_bank_churn.pth (torch, 345938 bytes, 12 tensors)

encoder.0.weight f4 [256, 29]
000000 8a 19 a0 3e 20 1f 81 bd 5a 5e c6 bd 1c c9 76 3e
       0.31269485 -0.06304765 -0.09685965 0.24100155
000010 d6 cf 6f 3d 41 5c c4 3d b1 fb 05 3e 17 7a 47 bd
       0.058547817 0.095879085 0.13084294 -0.04870042
000020 a7 b1 e8 bd 6e 46 83 bc ad 28 95 bd 65 6b 9d bd
       -0.113620095 -0.016024794 -0.07283149 -0.076864995
000030 1f 02 1b 3d 3d 20 8c 3d 1d de a5 3d 80 f6 20 bb
       0.03784382 0.068420865 0.08099005 -0.0024560988
000040 10 a1 22 3d 18 25 27 3c f5 bd 52 bd bc 5a 31 be
       0.039704382 0.010201715 -0.05145069 -0.17319769
000050 72 30 69 bd 05 92 85 3b 28 38 05 3d ff e3 dd bd
       -0.056930967 0.004076245 0.032524258 -0.108345024
000060 fa 62 ec bd 0e 9d 8c 3d 38 c3 9d bd be da 02 be
       -0.11542316 0.06865893 -0.07703251 -0.12778756
000070 bf 7f 83 3d 19 95 34 3e 93 d6 d1 3d 72 87 01 3d
       0.0642085 0.17635001 0.10246005 0.03162331
000080 48 ec 0f bc 28 c7 90 3d 8c 30 18 3e 73 ae 8e bc
       -0.008784361 0.07069236 0.14862269 -0.017417168
000090 37 3a f3 3d 49 e9 06 be 78 35 fe bc fb f1 ec bd
       0.11876338 -0.13174929 -0.031031355 -0.115695916
0000a0 81 27 21 be aa 47 ac bc 5b d2 30 be 0a a6 18 be
       -0.15737726 -0.021030266 -0.17267744 -0.14907089
0000b0 09 98 c7 3c 95 f8 86 be 35 00 42 be 88 eb ab bc
       0.024364488 -0.26361528 -0.18945391 -0.020986333
0000c0 ce 99 79 3c 27 b5 01 bc f0 2d 33 be 23 6d 8b 3d
       0.015234424 -0.007916725 -0.17497993 0.068079256
0000d0 b8 d9 15 be 55 3a 6c bd 95 d3 b6 3d d4 34 07 bd
       -0.14633834 -0.057672817 0.08927075 -0.033009365
0000e0 ae 81 34 3e 85 1a 9f be 70 d3 82 3e 8f ee d8 bc
       0.17627594 -0.3107492 0.2555194 -0.026480941
0000f0 ad 00 35 be 24 1b d5 3d b7 68 87 3d 25 d7 cc 3d
       -0.17676039 0.10405567 0.0661177 0.10001973
000100 fd c6 c8 bc 3f a4 f8 bd 03 51 80 bd 66 fe 89 bd
       -0.024508948 -0.121407025 -0.06265452 -0.06737976
000110 7d 84 bc 3b e5 22 6d 3d fd b0 a9 bd b1 8a 88 bc
       0.0057530985 0.057894606 -0.08285711 -0.016667696
000120 f7 e6 b7 bc 95 67 55 bd 6c c7 17 be 96 5d b2 bd
       -0.022449 -0.052100737 -0.14822167 -0.08709256
000130 88 e5 83 bd 7e 3d 5f 3e d2 9f df bc 55 11 a3 3c
       -0.06440264 0.21800801 -0.027297888 0.019905725
000140 6e a8 33 be 40 73 93 3c 16 59 22 bc de 1e ee 3d
       -0.1754472 0.017999291 -0.009908935 0.11626981
000150 03 66 55 3c 65 79 6c bd f0 70 30 bc ed c8 d2 3d
       0.01302481 -0.05773296 -0.010769114 0.1029223
000160 a2 34 08 3e c2 76 0a 3e 7f 22 f6 3d 5d 13 e9 3d
       0.13301328 0.13521865 0.12018298 0.113806464
000170 08 e9 71 3d ec 63 58 3c fe 62 08 3d 53 67 31 3d
       0.059060127 0.013207417 0.03329753 0.04331143
000180 88 0c 7d 3e 11 92 c6 3c a4 6d 10 3d bd 1e 9e 3e
       0.24711812 0.024239572 0.03526081 0.30882826
000190 e7 77 03 be 04 85 aa 3c 5a e5 4b bb 7d 29 1a be
       -0.12838708 0.02081538 -0.0031112046 -0.15054889
0001a0 4c 59 41 be 12 35 86 bd 1c 1a 18 bd 6b 07 e8 3b
       -0.1888172 -0.06553091 -0.037134275 0.0070809624
0001b0 fe 85 84 3c 2a 2c d5 3c bd c5 8d bd 84 28 b4 bd
       0.016177174 0.026022036 -0.06922481 -0.0879679
0001c0 cb 6f 1a 3e 30 d6 15 be ba e0 4d bc 3e 2a 45 3d
       0.15081708 -0.14632487 -0.012565786 0.04813599
0001d0 b7 a4 2b bb 43 15 48 3e 12 34 94 3e ce 2a 07 3e
       -0.0026190707 0.1953936 0.28945976 0.13199922
0001e0 c8 b8 c7 3d 25 34 41 bd b1 99 a3 3d 26 38 0b bd
       0.09752041 -0.04716887 0.07988299 -0.033989094
0001f0 f6 b6 87 bd 6f a4 15 be f4 1b e6 bd 9a 72 6e 3d
       -0.06626694 -0.14613508 -0.112358004 0.05821476
000200 54 6b 05 3d d2 f8 3b bc 07 2d a1 bd be 71 f6 3c
       0.03257306 -0.011472898 -0.078699164 0.030083533
000210 98 5a 5b 3d 0d c0 03 3d 7b f5 5e bd ab 66 9b bc
       0.053553194 0.032165576 -0.054433327 -0.018969854
000220 34 e3 bb 3c c4 96 9b bd f4 f4 6e be 0a 4d cf 3e
       0.022935487 -0.07597116 -0.2333563 0.40488464
000230 06 85 52 3e 4b 91 fb bd de fb c1 bd f0 ac 55 3d
       0.20558557 -0.12283572 -0.09471868 0.05216688
000240 3d b0 fd 3c 6a 9d 95 be 70 6d c1 bd 77 47 b6 bd
       0.030967826 -0.2922166 -0.09444702 -0.089003496
000250 9a d0 28 3e f3 57 04 be 86 a7 a3 bd df bc 5b bc
       0.16485825 -0.12924175 -0.07990937 -0.01341173
000260 37 da e8 bc c9 d4 3f 3d 9b c6 2a be 04 45 05 3b
       -0.028424365 0.046833787 -0.16677324 0.0020335326
000270 97 5f 5e bc 6f e2 1c bd 2f 9f e9 bc 26 4c 9b 3c
       -0.013572595 -0.03830188 -0.028518287 0.018957209
000280 ea ca 3e 3a 47 b6 6d 3c 51 97 04 3e 57 75 a7 bc
       0.00072781614 0.01450879 0.12948348 -0.020441694
000290 94 33 b9 bd 9b e5 18 3b c3 d2 3f 3d 13 02 cf bd
       -0.09043041 0.0023330215 0.046831857 -0.101078175
0002a0 e5 87 1f 3e ef 9a 2d bd e5 26 10 3e 81 4b 83 bd
       0.15579183 -0.042384084 0.14077337 -0.064108856
0002b0 06 72 13 be 04 5f 7e bd bc 4b 71 39 ef e4 11 bd
       -0.14398965 -0.062102333 0.00023011764 -0.03561872
0002c0 fd 12 99 3c 26 fe 85 3d 65 77 88 bb 88 15 53 3d
       0.018685812 0.065426156 -0.0041646236 0.051534206
0002d0 0f 47 24 3e 18 0a 6b 3e 40 d6 9f be 0a 38 af bd
       0.16042732 0.22953069 -0.31218147 -0.085556105
0002e0 ed 79 18 bd a5 30 6f 3c 30 93 fa 3b ff 14 4f 3e
       -0.037225652 0.014599 0.0076469406 0.20222853
0002f0 d2 4d 2e bd 3f 3e 12 be 75 e2 d4 3c 16 e0 8c bc
       -0.042554684 -0.14281558 0.02598689 -0.017196696
000300 4a cb 65 3d 25 8b 82 3c de bb f9 bc 63 8f 2e 3d
       0.056102075 0.01593549 -0.03048509 0.042617213
000310 e8 5e 68 3d d8 03 88 be 43 8a 43 be 12 fb 35 bd
       0.056731135 -0.26565433 -0.19095711 -0.044428892
000320 2d 7b 4b 3d c1 95 05 be 31 62 3d 3e bf b8 36 bd
       0.049678016 -0.13045408 0.18494488 -0.04460978
000330 c1 25 41 be ba aa 09 3c 08 3f a0 be 1a 3b 87 3d
       -0.18862058 0.008402521 -0.3129809 0.066030696
000340 58 f8 16 3e 47 db 3c 3d c7 0d 88 bb 60 dd 84 bd
       0.14743173 0.046107557 -0.004152033 -0.064875364
000350 15 00 49 bd ca 28 b5 3d 30 85 87 bc 34 77 ed bc
       -0.049072344 0.088456705 -0.016543001 -0.028987505
000360 fa 90 ef bc a0 7b 1c 3e 12 2c 17 3e 17 fa 3b bd
       -0.029243935 0.15281534 0.14762905 -0.0458928
000370 9f ef 33 3d 98 b9 4b 3d f9 29 e6 3d 22 5d b5 bd
       0.043929692 0.049737543 0.112384744 -0.08855654
000380 2f b7 c3 bd f0 bf ed bd 3d 55 9f bd a9 7e bc bd
       -0.09556424 -0.11608875 -0.0777993 -0.09203846
000390 35 08 fc bd 4b 6b 16 bc a4 26 56 3d 79 32 c6 bc
       -0.12306253 -0.009180854 0.052282944 -0.02419399
0003a0 c2 a0 67 be a6 57 b1 3d 9d e0 00 3e 5a 1f 08 3e
       -0.22619918 0.08659296 0.12585683 0.1329321
0003b0 9e 84 55 3d 7b 95 c6 bc d7 49 c6 39 17 b8 c1 bc
       0.052128427 -0.0242412 0.00037820518 -0.023647351
0003c0 50 2f e0 bc f5 b9 39 3d 87 a8 09 bc 98 18 22 3e
       -0.02736631 0.045343358 -0.008401996 0.15829694
0003d0 22 4a 27 bd ea b5 e7 bd b8 a4 d7 bd 11 c0 a3 bd
       -0.040842183 -0.11313994 -0.105294645 -0.07995618
0003e0 27 3e 3e 3e c9 1a 37 bc bf 13 01 3e ac 48 ad 3d
       0.18578397 -0.01117582 0.12605189 0.08461127
0003f0 04 76 83 bd 80 64 87 3d 77 2c 5d 3d 97 61 63 3c
       -0.06418994 0.06610966 0.053997483 0.013878248

encoder.0.bias f4 [256]
000000 80 85 47 be 54 ee b4 3d 13 c9 fa 3c bc 82 55 bd
       -0.1948452 0.0883452 0.030613458 -0.05212663
000010 77 f4 59 3c 5e d8 d6 bd 26 c4 22 be dc c2 e8 bd
       0.013302914 -0.104904875 -0.15895137 -0.113652915
000020 6a 58 d6 bd b9 8e 73 bc 05 f7 28 be 79 a2 4f bc
       -0.104660824 -0.014865571 -0.1650048 -0.012673014
000030 88 f1 ce bc b4 58 b4 3c ab 83 e6 3d ef 0c d2 bd
       -0.025261655 0.022014953 0.112555824 -0.10256373
000040 13 f4 41 3d 38 29 97 3d 09 bb cf bb c8 61 0f 3d
       0.047351908 0.07380909 -0.006339435 0.03500536
000050 37 23 ce bd 4e 97 d0 bd fb e0 01 be 09 a5 09 3e
       -0.100653104 -0.10185109 -0.1268348 0.13441862
000060 81 bf 2b bc 18 83 cd 3d 08 e6 28 3b ad eb 85 bd
       -0.01048267 0.1003477 0.0025771875 -0.06539092
000070 64 fd 93 bd cf af 86 bd 08 bb eb bd 27 d9 b8 bd
       -0.07226065 -0.065765016 -0.11510283 -0.090257935
000080 67 54 1e be c8 3a 15 bd 4b 1e 02 3e b4 b8 c3 bd
       -0.15461884 -0.03643301 0.12706868 -0.09556714
000090 6d 5e a4 3c c0 22 a1 3d 67 7c d1 bd 32 a8 e5 bd
       0.020064557 0.07867956 -0.10228806 -0.11213721
0000a0 d3 7d 38 3d 41 b6 fb 3c 33 ee f5 bc c4 8f 4f 3d
       0.04504187 0.030726554 -0.030020809 0.050674215
0000b0 f4 38 dc bd a6 af ad bd 6d ab c4 3d 24 ee 58 bd
       -0.107530504 -0.08480768 0.096030094 -0.052961484
0000c0 59 af 18 bd 7f d4 02 3e a1 97 8b bd e5 38 8d bc
       -0.0372766 0.12776373 -0.0681603 -0.017239043
0000d0 ca 6b 0f be 77 15 7b 3d f5 86 de bd 03 8c 7d bd
       -0.14005962 0.061299767 -0.10865585 -0.061901104
0000e0 48 13 f1 bd 0a f7 08 3e 9b ae 41 3b fc 38 15 be
       -0.11771256 0.13375488 0.0029553536 -0.14572519
0000f0 0e bf 44 be aa 1a b2 bb bf 8f 20 3c a4 cc 40 3d
       -0.19213507 -0.0054353075 0.009799897 0.04707016
000100 a8 81 05 be 3d 50 90 bb dd 14 3e be ed f5 fd bb
       -0.13037741 -0.0044040964 -0.18562646 -0.007750264
000110 2a c2 d9 3d dd 85 02 be c8 f6 f3 3b c4 84 5f be
       0.10632737 -0.12746377 0.00744519 -0.2182799
000120 01 1c 3d be 30 55 b7 3d c4 7f 06 be 97 d4 06 3d
       -0.18467714 0.08951795 -0.13134676 0.032917585
000130 71 38 ca bd 10 d6 7f bd d3 45 13 bb b7 5f 6a 3d
       -0.098740466 -0.062460005 -0.0022472038 0.057220187
000140 d7 e6 83 3c bc 7e 9f bc 43 e4 2e be 49 3b b5 3d
       0.016101284 -0.019469611 -0.17079262 0.08849198
000150 f3 75 9e bd c5 17 3b be bf de 91 bd f9 51 01 be
       -0.07737341 -0.18270786 -0.071225636 -0.12628926
000160 1d 3a 81 3d e3 0d e1 3d af e0 b7 3d 28 b0 99 3b
       0.06309912 0.10988977 0.08978402 0.004690189
000170 f9 dd fd bc d4 83 02 3c 1e f1 50 be 90 ca 7d 3d
       -0.030989634 0.007966001 -0.20404479 0.061960757
000180 e1 c0 17 be 54 bf 37 be b9 ea 0b bc bc 24 c8 3c
       -0.14819671 -0.1794408 -0.008539849 0.024431579
000190 c6 d7 02 be 50 d6 96 3d 9e a4 85 bd 63 b7 b6 bc
       -0.12777624 0.073650956 -0.06525539 -0.022304242
0001a0 1a be 46 3d 5b d2 e8 3d 64 1f 13 be 48 cd 3f bd
       0.04852114 0.11368247 -0.14367443 -0.04682663
0001b0 17 70 a5 bc 4a a7 74 bd b8 ba 16 be 63 13 af bc
       -0.02019505 -0.05972985 -0.14719665 -0.021371549
0001c0 ac 61 e0 3c bc 02 9e bd 99 9c 11 3d 7b 40 0b be
       0.027390324 -0.07715365 0.035549734 -0.13598816
0001d0 fb 42 f1 ba f6 63 02 be 87 68 52 bd a8 46 46 be
       -0.0018406803 -0.12733445 -0.051369216 -0.1936289
0001e0 d2 6e 0f be fd bc cc bd 18 0c 81 3c 5c a4 09 3d
       -0.14007118 -0.09996984 0.015752837 0.03360401
0001f0 a3 47 26 be 5a 5b 0a be 71 90 7c 3d 6a 2e 68 be
       -0.16238265 -0.1351141 0.061661188 -0.22673956
000200 06 13 91 3c 4a 99 ea 3d f4 da 08 bb 7b da 14 be
       0.017709266 0.11455019 -0.002088246 -0.14536469
000210 e3 2e 98 bd ad 2c f7 bd 34 9d 2e 3d ed 3e 1f 3d
       -0.07430818 -0.12069068 0.04263039 0.03887837
000220 25 c3 a2 bd 46 cc 32 be e6 1f f0 3c bb ea 0c 3c
       -0.07947377 -0.17460737 0.029312085 0.008600886
000230 2a 31 07 3d 61 f1 c2 bb 61 9d 9c bd a2 1d 35 be
       0.03300587 -0.0059491848 -0.07647205 -0.17687085
000240 04 46 50 bd 31 cb e3 3d e3 b0 9b bd dd 2d c9 bd
       -0.050848022 0.1112274 -0.07602098 -0.09823201
000250 e4 fe 92 3c 9c eb 55 bd 37 2c e9 3d 64 79 60 3c
       0.017943807 -0.052226648 0.113853864 0.013700817
000260 05 9a 36 3d 1b f9 55 be d3 b1 b7 bc e4 00 17 be
       0.04458048 -0.20895807 -0.02242366 -0.14746433
000270 73 dc 2a be e2 60 67 be e7 64 33 be 0d 9c 30 3d
       -0.16685657 -0.22595552 -0.1751896 0.04311757
000280 7f 0c cb 3d 51 48 95 bc 33 96 5b bc 62 0a 58 be
       0.09914493 -0.01822296 -0.0134025095 -0.2109771
000290 54 50 2d be 6b 66 a1 3d 93 29 d5 bd f7 9c 08 3e
       -0.16925174 0.07880863 -0.1040832 0.13341127
0002a0 1b 56 2f bd de 3e 98 bd 4b 21 85 bd 87 7c 68 be
       -0.042806726 -0.07433866 -0.06500491 -0.22703753
0002b0 56 3f 3a be 42 07 f4 3b 09 e4 9e 3d 74 1e 82 bc
       -0.18188223 0.0074471543 0.07758338 -0.015883662
0002c0 87 46 99 bd fa cd 17 be 52 1b 02 be 80 a4 c9 3b
       -0.07484155 -0.14824668 -0.12705734 0.006153643
0002d0 4f fe dc 3d 66 ce 51 be f5 69 07 bd 2b 2c 02 3e
       0.10790693 -0.20488891 -0.033060033 0.12712161
0002e0 1e eb 1b be 77 19 dc 3c ca 16 18 be e3 10 72 3d
       -0.15226409 0.026867611 -0.14852443 0.059098136
0002f0 f9 40 a9 3d 4d c9 95 3d dd 01 09 3c 59 a5 11 bd
       0.08264346 0.07313786 0.008362261 -0.03555808
000300 2d 9b 90 bd ea 43 a1 bd d0 9d eb bd a1 04 a9 bd
       -0.070608474 -0.07874282 -0.1150471 -0.08252836
000310 32 10 90 bd b4 26 f6 3c a4 78 d4 bc 03 63 c4 bd
       -0.07034339 0.030047752 -0.025936432 -0.095891975
000320 b2 af 10 be 0e 49 b3 3d 58 d3 aa bd 6a c6 07 3d
       -0.14129522 0.087541685 -0.08341092 0.033148207
000330 96 74 0e 3e b9 b0 33 be 95 60 88 3c 89 19 ea 3b
       0.13911662 -0.17547883 0.016647616 0.0071441573
000340 9b 99 c0 bd ee b2 be bd e2 69 1a 3e 15 f4 10 bd
       -0.09404298 -0.09311472 0.15079454 -0.035389025
000350 c9 c3 e4 bd 6d 73 72 be 7d 86 c7 bb 8b a1 d7 bd
       -0.111701556 -0.23676844 -0.0060890303 -0.10528859
000360 22 75 83 bc 1f 56 11 3d 65 aa b2 bd ac 27 3e be
       -0.016047064 0.035482522 -0.087239064 -0.18569821
000370 e1 04 72 bd 82 e0 7e bd 16 1f 93 bd 83 73 8a 3d
       -0.059086684 -0.062225826 -0.071836635 0.06760313
000380 94 1d 16 be 4f 00 48 3b 41 fd c7 3d db 20 05 be
       -0.1465972 0.0030517762 0.09765101 -0.13000815
000390 a1 21 ff 3d 06 55 c8 bd f3 88 ea bd 00 e0 d6 bc
       0.12457586 -0.09781842 -0.11451902 -0.026229858
0003a0 b5 40 a9 bd 20 07 a6 bd 90 f7 45 bd a3 ca 4c 3d
       -0.08264295 -0.08106828 -0.048331797 0.049997937
0003b0 dc e6 ac bd d1 48 97 3d 3f 1b 8c bc ad aa ea 3b
       -0.084424704 0.073869355 -0.017102836 0.0071614594
0003c0 c2 c3 5d bd 88 3d 2c 3d ed 87 27 be 36 1f 83 3d
       -0.054141767 0.04205087 -0.16360445 0.064024374
0003d0 5d 27 8d 3d 36 4e cd 3d 36 3f 31 be ca ab 7f bd
       0.068922736 0.10024683 -0.1730927 -0.06241969
0003e0 2b 77 ad bd 28 14 38 bc bb 21 2c be dc ee 02 be
       -0.08469995 -0.011235274 -0.16809742 -0.1278643
0003f0 24 c3 aa bc 2e 09 08 be cc b4 0f be db 87 81 3c
       -0.020845003 -0.13284752 -0.14033812 0.015811851

encoder.3.weight f4 [128, 256]
000000 8e fb 38 3c 85 b2 ce bc 9d cc 9f bd df 31 9d bd
       0.011290444 -0.02523161 -0.07802699 -0.07675528
000010 58 84 45 bd f0 d6 0e 3d d6 f6 2e bc 49 28 53 bd
       -0.048221916 0.03487295 -0.010678967 -0.05155209
000020 4c 91 a2 bc e1 10 81 bc 6d c6 d2 bb c4 ba 71 bd
       -0.019844674 -0.015755119 -0.0064323456 -0.059016004
000030 a3 f4 39 3d ca 57 0a 3d 2f aa aa 3c 1f bc 6a bd
       0.04539932 0.03377513 0.020833103 -0.057308313
000040 7d a4 40 bc 10 2c f0 bb 39 07 a6 bc a2 2c 3e bd
       -0.011757967 -0.0073294714 -0.020267116 -0.046429284
000050 4d 53 18 3c 05 2a 8f b9 89 ee 96 bc 7b 17 b9 3c
       0.009297204 -0.00027306392 -0.01842429 0.022594204
000060 8b c0 56 3d 74 84 21 bd c3 63 26 3d 31 20 9a ba
       0.052429717 -0.039432958 0.040622484 -0.0011758861
000070 fd e4 79 bd b1 ff c7 bc 03 0a 31 bd 7b 45 6e bd
       -0.061009396 -0.024413915 -0.04322244 -0.05817173
000080 a5 fc 50 bd 99 ce 44 bd cc 40 71 bd c8 87 92 bd
       -0.05102219 -0.04804859 -0.058899686 -0.071548045
000090 56 64 ae 3b c1 bf 0e 3d 0b d8 9b bd 7a 74 ca bc
       0.0053220196 0.03485084 -0.07609566 -0.024713743
0000a0 31 e8 72 bb 1f 25 51 bd 0a 41 b9 bc 9b 43 03 ba
       -0.0037064666 -0.051060792 -0.02261402 -0.00050073274
0000b0 b1 c4 53 bd 18 71 78 bd 05 c7 9f bd b5 6c 49 bd
       -0.05170125 -0.06065473 -0.07801632 -0.049175937
0000c0 07 ab 60 bd 98 f9 89 bd 61 74 8e 3c 5f 43 07 3d
       -0.054850604 -0.06737059 0.017389478 0.033023234
0000d0 05 33 82 3c 34 40 26 3c ef 26 00 3c 2a a6 e0 3c
       0.015893469 0.010147143 0.0078217825 0.027422983
0000e0 28 a8 80 bd 86 93 5e 3d a5 8c a3 bb c7 12 0a bd
       -0.06282073 0.054339908 -0.0049911314 -0.033709314
0000f0 0f 04 4d bd 09 a9 07 bc e1 2b 9b bd aa 24 15 bd
       -0.0500527 -0.008280047 -0.075767286 -0.03641192
000100 29 de 9c 3c 15 a6 87 3c 30 a3 e2 bc 7b 75 1f bd
       0.019148903 0.016558686 -0.027665704 -0.038930397
000110 df 2f 1a bd b4 01 aa bc 17 d5 8e bd a4 82 99 3c
       -0.03764331 -0.020752765 -0.069742374 0.018739052
000120 74 65 cf 3c 74 5f 30 bc 13 5f ce 3c 34 1a 67 bc
       0.025316931 -0.010764945 0.02519182 -0.014105368
000130 3b f1 b9 3c c3 ac 1b bd ee 30 b5 bd 4e 10 9c bd
       0.022698035 -0.038006555 -0.08847223 -0.07620297
000140 7c 3b 65 3c 37 3b 7b bd b1 d0 09 3d cf 6e 52 bd
       0.013991233 -0.06133577 0.03364629 -0.051375207
000150 26 e4 5f 3c dd d7 cd 3c fe 13 f9 b9 7d 48 1d bd
       0.013665235 0.025127346 -0.00047507876 -0.03839921
000160 b3 22 44 3c 4b e6 4f bd 43 02 7d bd c1 8b 6b bc
       0.011971164 -0.050756734 -0.061769735 -0.014376582
000170 5c b5 a0 bd 41 2d ae bd 9a d6 3b bd a5 5c d3 bd
       -0.078470916 -0.08504725 -0.045858957 -0.10320405
000180 ba 30 20 3c 7e 0d 01 bd 06 f2 ba bc cb ad 29 3c
       0.009777242 -0.031507008 -0.022820484 0.010356377
000190 e3 35 ea bc 87 ce 09 bd 4c b8 89 bc b8 b3 d8 bb
       -0.028590148 -0.033644225 -0.016811512 -0.006613221
0001a0 51 2b 84 bd ef bc 1c bd 47 e2 81 bd 35 43 38 bc
       -0.064535744 -0.03826612 -0.06341987 -0.011246492
0001b0 5a 8e 00 bc 77 16 75 3c 4c ce a3 bd ca d0 56 bd
       -0.007846439 0.014958969 -0.079983324 -0.05244521
0001c0 fc 6c 07 3d 1c a9 df bd cb 87 70 bd a0 9e 5f bd
       0.03306292 -0.10920927 -0.058723252 -0.054594636
0001d0 3b 9b ce bc 0c 9c 6d bd 61 ac 90 bd 2d 42 aa bd
       -0.025220504 -0.058010146 -0.07064129 -0.08313403
0001e0 c2 f3 58 bc 4c c6 f5 bc 4a b9 ae 3c e1 0d 4d bb
       -0.01324171 -0.030001782 0.021328587 -0.003128879
0001f0 75 f0 31 bd 30 05 b3 bc 91 44 e4 bc fa 2e 87 bd
       -0.04344221 -0.02185306 -0.027864726 -0.06600757
000200 44 a3 ee bc 07 23 a5 bb 1e e8 08 ba 16 c0 56 bc
       -0.029130585 -0.005039576 -0.00052225764 -0.01310732
000210 ad 9a 60 bd 30 2d 8f bd 13 90 21 3c 58 03 c4 bd
       -0.05483501 -0.06991041 0.00986101 -0.0957095
000220 9a 8c 7f bc a1 d2 03 bd 5c d6 84 bc b2 df 9b bb
       -0.015597487 -0.032183293 -0.016215496 -0.004756891
000230 4d 79 f8 bc 4f 16 95 3c 2d 3a 2c bc a5 94 ef bc
       -0.030331278 0.018199114 -0.010511917 -0.029245684
000240 7a 40 91 bc 15 58 9e bd 0b c3 a2 39 1f c6 e1 3b
       -0.01773094 -0.07731644 0.00031044366 0.006890073
000250 af 6e 58 bd bb 70 88 bd b9 e5 f6 3c 1f 94 5d bc
       -0.05283993 -0.06662127 0.030138837 -0.013524084
000260 fb 11 f5 bc d0 a8 f5 bc f7 b8 d2 bb 79 7b 95 bd
       -0.0299158 -0.029987723 -0.006430741 -0.07298941
000270 64 9d aa bd 33 58 a7 bd e5 c6 9f bd c2 f7 24 bc
       -0.08330801 -0.081711195 -0.07801608 -0.010068836
000280 64 c8 db bc af 7b fb 3b be 4c 65 bd 0e d7 4e bd
       -0.026828952 0.0076746563 -0.05598139 -0.05049806
000290 c9 7e ad 3c d4 39 1e 3d a0 a5 ad b9 c3 eb 57 bc
       0.02117862 0.038629368 -0.00033120532 -0.013178769
0002a0 55 1e c5 3b 65 b2 3c 3d a5 95 04 bd 80 d3 07 bd
       0.0060155788 0.046068568 -0.032369275 -0.033160686
0002b0 82 ae ae bd 5c a0 9a bd f7 4b 67 bc c4 43 bf bd
       -0.085293785 -0.075501174 -0.0141172325 -0.09339097
0002c0 1b e9 ff 3b c5 40 9c bd 21 cf 4f bd a6 73 43 bd
       0.0078097708 -0.07629541 -0.050734643 -0.047717713
0002d0 5c 71 11 bc ef 49 93 bd 64 a1 55 bc 63 da df bc
       -0.008877125 -0.07191836 -0.013038967 -0.027325815
0002e0 73 2c 3f 3b ed ee 24 bc 0c 9f 70 bc 89 90 87 3c
       0.002917078 -0.01006673 -0.014686357 0.016548412
0002f0 ef 32 25 3d 3c 8f 66 3d 1e 33 84 bd 78 76 8e bc
       0.040331777 0.056288943 -0.06455062 -0.017390475
000300 ef 79 08 3d ed 7b 47 bc e6 a4 1f bd c3 54 0d 3d
       0.03331941 -0.012175542 -0.03897562 0.034504663
000310 38 cc b4 bc 98 58 b7 bd c7 66 04 bd 38 99 29 3d
       -0.022070035 -0.08952445 -0.03232458 0.041405886
000320 94 24 d4 3c a6 d4 aa bc 00 0c ca bc 24 92 4c bd
       0.025896348 -0.020853352 -0.024663925 -0.049944058
000330 ee 5e 39 3d 78 2b 9e bd 81 96 b1 bd 13 3b 42 bc
       0.045256548 -0.07723135 -0.086712845 -0.011854905
000340 8c 73 8a bd 19 79 64 bd 4b bc c3 bd a5 9e b4 bc
       -0.0676032 -0.05577955 -0.095573984 -0.022048304
000350 b6 f4 74 bd 25 58 f9 bc e6 59 03 bd 84 6d 45 bd
       -0.059803687 -0.030437538 -0.032068156 -0.048200145
000360 e8 5c 66 bd e5 32 df 3a 6e c5 98 3c 04 7f 1b bd
       -0.056240946 0.0017028718 0.01864883 -0.03796293
000370 fd 99 c8 bd 3d cd 01 bd aa 23 39 bc 93 bd 52 bc
       -0.09794996 -0.03168987 -0.011300007 -0.012862581
000380 86 b0 e1 bc 1d 4e 91 bd fa d2 93 3c 92 cb 7c bd
       -0.027549993 -0.07094977 0.018044937 -0.061717577
000390 51 03 d9 3c 82 9f bd bc 2e 1b e7 bc 4e d2 65 bb
       0.02649084 -0.023147348 -0.028211202 -0.0035067978
0003a0 2c c4 19 3d 9b 49 c2 bb aa 6b ed bc 28 7a 41 3c
       0.0375406 -0.0059291846 -0.028982002 0.0118089095
0003b0 4a a8 45 3c 31 fa ba bc c7 0b c9 bd 22 b7 5a bd
       0.012064049 -0.022824379 -0.098166995 -0.053397305
0003c0 ce 9c 98 bd 3e 1b f4 3c 75 f6 19 bd 9f a8 a0 bd
       -0.07451783 0.029798146 -0.037588555 -0.07844662
0003d0 a8 00 99 bd 12 78 52 3c 24 f2 23 3b f3 64 7f 3b
       -0.07470828 0.01284601 0.0025016153 0.0038970083
0003e0 25 c7 14 3d d0 40 a7 3c 26 6a 0b bd ab 39 93 3c
       0.03632273 0.020416647 -0.034036778 0.017971834
0003f0 e1 a5 5b 3a 6b 51 f9 bc 9c 97 47 ba 21 ec 62 bc
       0.0008378905 -0.03043433 -0.0007613839 -0.013850243

encoder.3.bias f4 [128]
000000 7c d1 7a bd bb b0 8c bd 6d 17 e4 3d 56 5d e5 3d
       -0.061234936 -0.06869646 0.111372806 0.11199443
000010 e5 1e d6 3c b4 36 41 3d 9f 86 16 3c 48 8e 82 3d
       0.026137779 0.04717131 0.00918737 0.06374794
000020 cc 66 3a bc d5 9b 19 bd a0 c8 ab bc 14 65 a1 bc
       -0.011377048 -0.03750213 -0.020969689 -0.019701518
000030 8b 8c 25 3d 86 ce 67 bd eb ed 51 3d 22 6d b0 3c
       0.040417235 -0.05659344 0.051252287 0.021536414
000040 7f 2f 30 bd bd f4 e6 bc cf 56 22 bd 9f 14 a3 3d
       -0.043014046 -0.028192872 -0.03963357 0.079629175
000050 f3 53 17 3d d9 1e bd 3d 09 87 13 3b 2d 8b 20 bb
       0.036945295 0.09234399 0.0022510907 -0.0024497018
000060 14 62 ba 3c 6b 6e b8 bc 28 5d 6f 3d 45 6e d4 3c
       0.022751845 -0.022513589 0.05843845 0.025931487
000070 99 06 bf 3c 70 89 5a 3d 6c ee 32 3d d2 77 a8 bd
       0.023318576 0.053353727 0.043684408 -0.08225979
000080 dc 0f 6c 3d a9 ee 07 3e 20 d6 66 bd 41 89 e8 3c
       0.057632312 0.13274635 -0.05635655 0.02838576
000090 49 83 d3 3d d7 dc 31 bc c8 22 d3 bb ca e5 42 bd
       0.10327775 -0.010855875 -0.006443355 -0.047582425
0000a0 9e a8 8f 3d 88 f6 46 bc 1d b3 c8 3b 6a 22 a0 3d
       0.07014583 -0.012143739 0.0061248676 0.07819064
0000b0 d7 9f 14 bd 27 2c cb bc 3e 18 88 ba 2f 16 34 bd
       -0.036285248 -0.024801327 -0.0010383201 -0.04396647
0000c0 7b e2 9c bd 8d 86 dc 3c f6 a6 99 bc ce e6 95 bd
       -0.07660385 0.026919628 -0.018756371 -0.07319413
0000d0 f3 aa 30 3d 40 9a ba bc 2c f5 3c bd ac 9b 84 bb
       0.04313178 -0.02277863 -0.04613225 -0.004046878
0000e0 02 b4 f8 ba 15 b0 0d 39 d8 09 d1 bc 93 cf 26 bd
       -0.0018974545 0.00013512404 -0.02551739 -0.040725302
0000f0 7e c1 a6 bd 50 99 9a bd 53 24 8c bc 56 40 0b 3c
       -0.081423745 -0.07548773 -0.017107164 0.008499226
000100 88 2a 14 bd 03 41 7d 3d d8 73 9e 3c 21 1c f9 bc
       -0.036173373 0.061829578 0.019342348 -0.03040892
000110 e7 7d a5 3d 29 f5 51 3d a8 1a 01 bd 38 dd 75 bd
       0.080806546 0.051259194 -0.031519562 -0.060025424
000120 ff d7 48 bd 0e 3e e9 bb 73 8d 95 bc 3b 51 53 3c
       -0.049034115 -0.007117993 -0.018255925 0.012897785
000130 a4 bc a5 bc 17 5f 1e bd 72 d1 29 3d cc ed af 3d
       -0.020231552 -0.038664903 0.04145951 0.08590278
000140 19 42 ef 3c 69 03 3f 3d 80 8a 05 be 5c a3 7b 3c
       0.029206323 0.04663411 -0.13041115 0.015358772
000150 87 a5 a7 3c 86 de 82 3d a2 74 80 3d 0c d9 d5 3d
       0.020464672 0.06390099 0.06272246 0.10441789
000160 13 0e 22 bd db b6 98 bd 78 00 4c 3d 1e 0c 77 3d
       -0.039564203 -0.07456752 0.049805135 0.06031429
000170 f2 81 df 3b 07 7f 98 bd c0 cb a2 ba 74 68 3b bd
       0.0068209106 -0.074461035 -0.0012420341 -0.04575391
000180 73 81 a7 bc e5 3c 69 3d a6 c5 f7 3c 3d 21 a8 bc
       -0.020447468 0.05694284 0.030245613 -0.020523662
000190 5c 38 90 bc 15 61 fd bc 88 63 a5 bd 51 40 c8 3c
       -0.017605 -0.030930081 -0.08075625 0.024444731
0001a0 15 d9 ee bc 2b c4 a1 3b 71 ea 5e bc 31 f1 90 3d
       -0.029156247 0.004936715 -0.0136057 0.070772536
0001b0 6e 09 85 3c 8a 14 db bd 59 fc 5e bc db da b1 3a
       0.016239848 -0.10697277 -0.013609969 0.0013569252
0001c0 65 84 80 3d e3 e9 85 bc 25 4b 83 3c a0 23 b9 bd
       0.06275252 -0.016346877 0.016027043 -0.09039998
0001d0 ac 21 9a bc 40 60 e8 3d 18 96 b3 3c f4 f0 79 3d
       -0.018814884 0.11346483 0.021922156 0.061020806
0001e0 1e 45 94 bd 0e f4 74 3b 5d 33 b0 3d a8 76 c4 bd
       -0.072397456 0.0037376913 0.08603547 -0.095929444
0001f0 02 f3 ca bd 93 87 9c 3d c7 9d 14 3d a6 65 fc 3c
       -0.09909631 0.07643046 0.03628328 0.030810189

encoder.6.weight f4 [16, 128]
000000 58 0b 59 3d c4 a3 24 3d c7 84 47 bd ab b0 08 be
       0.052989334 0.04019524 -0.04871061 -0.13348643
000010 a2 9a 17 bd 1c 43 40 bc fa 51 a2 3d 62 da a8 bd
       -0.037012704 -0.01173475 0.07925792 -0.08244778
000020 ab b5 e8 ba 5a f5 4c 3d 56 ec 4f bd 01 ef c6 3d
       -0.0017754337 0.050038673 -0.050762497 0.09713555
000030 61 14 b1 bc d4 d5 ac bd ea 15 12 bd 67 f6 4b 3c
       -0.021616163 -0.08439222 -0.03566543 0.012448884
000040 3c 37 34 3d af df 17 3e 01 25 1b bd 02 27 80 bc
       0.043997988 0.14831422 -0.037877087 -0.0156436
000050 be 89 98 bd b3 1f 9e bc 0c a3 44 3d de aa 0f be
       -0.07448147 -0.019302225 0.048007056 -0.14030024
000060 6b 89 13 bd 49 d5 43 bd 8e c5 4b 3b dd 58 e5 bd
       -0.036019724 -0.047810826 0.0031093094 -0.1119859
000070 50 45 72 bb 48 35 6a bd 9c b2 93 39 88 cf f7 3b
       -0.0036967583 -0.05717972 0.000281711 0.0075625814
000080 8c ae 66 3d be 88 8e bb 76 b1 bf bc 69 64 a0 bd
       0.056318805 -0.004349797 -0.02340005 -0.07831652
000090 c9 3a fe bc 0d 6a c9 bd 60 98 d9 bd 54 89 09 bd
       -0.03103389 -0.09834681 -0.10624766 -0.033578232
0000a0 72 dd 3e bd c0 ac bc 3d 77 87 99 3d ff 8d 25 bc
       -0.046597905 0.09212637 0.07496541 -0.010104655
0000b0 9f 05 6d 3d 63 44 dc 3d ac 24 af 3d 56 66 ff bd
       0.05786669 0.10755231 0.085519165 -0.12470691
0000c0 96 e4 4c 3d 0e 6b f9 bd bf 28 10 bd bc d3 dc 3d
       0.050022684 -0.12178622 -0.03519511 0.107825726
0000d0 46 a2 a8 bc 99 12 08 bd 30 0e 8f 3c cf bd 2b bd
       -0.02058519 -0.03322086 0.01746282 -0.041929062
0000e0 3c 09 6b 3c d8 75 08 bd 85 e1 c0 3c 60 89 dd 3c
       0.014345463 -0.03331551 0.023545036 0.027043045
0000f0 20 e2 af 3d b9 1a a9 3d 30 46 52 b9 59 76 45 3d
       0.08588052 0.0825705 -0.00020053308 0.04820857
000100 41 4b 04 3e 67 4e 4b bc 6f 6f 89 bd d7 6f 09 bc
       0.12919332 -0.012408829 -0.067107074 -0.008388481
000110 c3 f9 72 bd 15 07 a0 bc 09 5c 23 be e0 2f a9 3d
       -0.059320223 -0.019534627 -0.15953077 0.082610846
000120 ec 1f ee 3c 53 54 9e bd 5a 0f d4 3d 1d e4 b8 bd
       0.029067956 -0.07730927 0.103544906 -0.09027884
000130 8e bf 65 bc fd aa ea bd 00 60 81 bd d7 a5 0a bb
       -0.014022721 -0.11458395 -0.06317139 -0.0021155977
000140 fc 80 96 3c 83 62 ba bd 98 d1 de 3d 5f 99 77 3c
       0.018372051 -0.09100821 0.108798206 0.01511225
000150 57 59 c9 bd 5f 89 89 bd 2b 24 3a 3d 8f 99 4d bd
       -0.09831493 -0.067156546 0.04544465 -0.050195273
000160 35 a1 09 be 48 f4 26 bd c4 77 9e bd a6 d7 41 bd
       -0.13440402 -0.04076031 -0.07737687 -0.0473248
000170 04 72 50 bd 89 8c 26 3d 4a 5b 03 3d 71 69 01 3d
       -0.050889984 0.04066137 0.032069482 0.031594697
000180 28 89 4b 3d 1d f8 08 bb cf d2 05 bd 3b 39 b0 3b
       0.04969135 -0.002089984 -0.032671746 0.005377916
000190 e5 4f e4 3c d5 c9 c6 3d 1a ed bb 3d 35 7b 30 3c
       0.027870128 0.09706465 0.09176083 0.010771562
0001a0 e5 b4 03 be 26 7a f0 3b a0 a0 35 3c da 3d 41 bb
       -0.12861975 0.00733878 0.011085659 -0.002948633
0001b0 a1 24 10 bb 3d 3a e5 bd 5e 52 13 3c 2a 8d 83 3c
       -0.0021994489 -0.11192749 0.008991806 0.016058523
0001c0 9d be aa bb df 23 04 bc ae 52 9f bd 53 50 36 be
       -0.005210711 -0.008065193 -0.07779442 -0.17804079
0001d0 19 28 b2 3d e6 e5 85 bc 00 99 7a 3d 66 73 c9 bd
       0.08699054 -0.016344976 0.06118107 -0.09836464
0001e0 6a 48 ac 3d a4 21 c9 bd 02 65 74 bd ff d8 8a bd
       0.084122494 -0.098208696 -0.05966664 -0.0677967
0001f0 d7 4d 0d 3d b1 44 58 bd d2 28 25 bd 90 dc ad bd
       0.034498062 -0.052799884 -0.040322132 -0.084893346
000200 41 42 f0 bb 1a 69 13 bd 4d 50 05 3c c4 d9 b7 3c
       -0.007332117 -0.035988905 0.008136821 0.022442706
000210 53 8d cc 3c 92 38 d5 bc 45 a3 51 3d 5b 7a e1 bc
       0.024969732 -0.026027951 0.051181097 -0.027524164
000220 76 8a f9 3d 43 d7 06 3d e2 a5 ea 3d f2 02 eb 3c
       0.121846125 0.032920133 0.11457421 0.028687928
000230 76 6b 97 bd 4c bd e3 3d b8 ca 2c 3d ad 80 37 3d
       -0.073935434 0.1112009 0.042185515 0.04480045
000240 45 e7 c3 bd 41 fa f4 3c cd 17 32 bd aa 39 01 3c
       -0.095655955 0.029904487 -0.04347973 0.007887283
000250 76 a5 60 bd 5a ec e1 bd ae a5 fe bc a3 67 e3 3c
       -0.054845296 -0.110314086 -0.031084862 0.027759379
000260 f7 76 08 bd 54 d0 30 3d 6f ff ce 3d 25 e8 13 3e
       -0.03331658 0.043167427 0.10107314 0.14444025
000270 15 b3 83 bd 54 ed a0 3d 55 82 6c bc 4b f9 c4 3d
       -0.064306416 0.07857767 -0.01443537 0.09617861
000280 77 67 37 3d c8 df bd bd 77 f3 83 bd 21 12 b2 3c
       0.044776406 -0.092711985 -0.064429216 0.02173716
000290 f6 8d e1 bd 4d d3 81 3d 02 a9 c2 bd 92 f9 c6 bd
       -0.11013405 0.063391306 -0.09504892 -0.097155705
0002a0 3c 22 5b 39 3a f8 ec bd 17 78 81 bd 89 fe 37 3c
       0.00020898221 -0.11570783 -0.063217334 0.0112301195
0002b0 65 7f 70 3d 35 23 11 3b bb 07 7a bc 29 ff 71 bd
       0.058715243 0.002214623 -0.015260632 -0.05908123
0002c0 f4 2d 1d bd cc 7e b9 bc 6a 65 24 3e 1b 9e 83 3d
       -0.038373902 -0.02264347 0.16054311 0.064266406
0002d0 6b 3f e1 bd c6 83 dc bc 9d e0 6a bd 61 cc 08 bb
       -0.10998424 -0.026918303 -0.057343114 -0.0020873772
0002e0 a1 f8 0d bd de 8b c5 bd f0 97 67 bd 9a a2 07 3c
       -0.03466094 -0.09645818 -0.056541383 0.008278513
0002f0 3d 82 b5 bd 64 dd c7 bc ea c9 81 bd 9d e2 3a bc
       -0.088627316 -0.02439756 -0.0633734 -0.011406568
000300 3b be 89 bd 69 95 98 bc d5 d2 a9 3c 83 83 b2 3c
       -0.06725737 -0.018625932 0.020730415 0.021791225
000310 34 83 43 3d 7b fd 12 3e 74 dd 1f 3d 64 34 f0 3d
       0.047732547 0.14354508 0.039029554 0.11728743
000320 f0 bc 93 3d b6 5e e5 bd a4 99 ed bc e7 aa d4 bd
       0.07213771 -0.11199705 -0.029003926 -0.103841595
000330 3e 21 ce bd 23 87 55 bc db 79 11 be 05 c2 c8 bd
       -0.10064934 -0.013032707 -0.1420664 -0.09802631
000340 84 89 bd 3d ea a5 ca 3d ee 91 59 3d 68 3e 61 3d
       0.09254745 0.09894927 0.053117685 0.054991156
000350 5f 04 76 3c 4d 78 d9 bd dc 8a aa bd 09 d9 1d 3d
       0.015015691 -0.10618649 -0.083272666 0.03853706
000360 8a e2 20 3d 4f 31 bf 3a 2e 69 5d 3d 65 7c 3c 3c
       0.039278544 0.0014586839 0.054055385 0.011504267
000370 df 4d 0d bd eb bd fd 3d 9e 3e 7b bb 24 4f d1 ba
       -0.03449809 0.123897396 -0.0038336883 -0.001596902
000380 3e b1 a2 3d c7 4d d8 bd b7 0e fe 3d ee 3c 8d 3d
       0.079439625 -0.1056171 0.124051504 0.06896387
000390 2f 50 dc bd 74 7e 01 bd a0 38 24 3d c1 f9 ab 3a
       -0.10757481 -0.031614736 0.040093064 0.0013120697
0003a0 77 7d be 3b 8c 7d 77 3c b6 be 93 3d 53 f8 0c be
       0.0058132964 0.015105616 0.072141096 -0.13766603
0003b0 00 6d ce 3d 20 29 e5 3b 94 9d 13 3d 52 43 25 3d
       0.10079384 0.006993428 0.03603895 0.040347405
0003c0 d4 52 70 bd 04 2b 46 bd b5 e9 aa 3d 90 ce 39 bd
       -0.05867274 -0.048380867 0.08345357 -0.04536301
0003d0 40 24 9c bb 8c 8f c3 3b 9a 38 f3 bd 1f e6 33 3e
       -0.0047650635 0.00596804 -0.1187603 0.17568253
0003e0 27 51 41 bd f7 eb 15 be 8c 86 a9 3d 80 9c 03 3c
       -0.047196534 -0.14640795 0.08277616 0.008032918
0003f0 db 0c 2c 3d 77 ee 84 bc f1 3c c5 3d db fd f1 3c
       0.042004447 -0.01622699 0.09630764 0.029539993

encoder.6.bias f4 [16]
000000 ed cf 98 3d 82 d9 0e 3c 78 e5 eb bd 17 fa 08 be
       0.07461534 0.00871885 -0.11518377 -0.13376652
000010 73 3f e8 3c 23 1b 85 3d 12 51 dd 3d a3 77 ff 39
       0.028350567 0.064993165 0.108064786 0.00048726526
000020 87 d2 73 3e 4a 02 75 bd c6 55 f1 3d 61 eb 28 be
       0.23810779 -0.059816636 0.11783938 -0.1649604
000030 51 90 ae bd f5 e6 96 bc 5c 62 9e 3c 0a 0b 1d bd
       -0.0852362 -0.018420676 0.01933401 -0.038340606

decoder.0.weight f4 [128, 16]
000000 05 9d a2 be 9a 10 80 be 18 1c 11 3e 2b 36 5d 3d
       -0.3176042 -0.25012666 0.14170873 0.054006737
000010 01 56 f5 3d 0b 72 38 3e 44 d3 fc 3d bb f8 10 be
       0.119792946 0.18012254 0.12344983 -0.14157383
000020 88 ec 0f 3e 25 5a 11 be 57 7e 5c be 75 86 4f 3e
       0.14055073 -0.14194544 -0.2153257 0.20266135
000030 5a b8 40 be 18 53 94 bd d4 7d 2b 3d a8 f3 05 3e
       -0.18820325 -0.072424114 0.041868046 0.13081229
000040 4a 51 88 bd 31 08 22 be 93 54 8b be da 03 99 3c
       -0.0665613 -0.15823437 -0.27212963 0.018678594
000050 81 b9 bf bd 4c ea 0b 3d 90 fe bf 3e 19 67 41 bd
       -0.09361554 0.03415899 0.37498903 -0.047217462
000060 0e 54 f9 bd 9d ba 0c 3e 00 f4 e3 bd ca bc 8a be
       -0.12174235 0.13743062 -0.11130524 -0.2709716
000070 f8 d0 e9 bc 0c f7 72 3e 25 fe 93 ba 6b 4d d4 bd
       -0.028542027 0.23727053 -0.0011290951 -0.10366329
000080 54 26 52 bd 18 d4 10 bd 75 3e 6f bd 3c ea 39 be
       -0.051306084 -0.03535852 -0.058409173 -0.1815576
000090 ad 70 46 3e 30 d3 dc bd 90 f4 0a be 0d 3e 2c 3e
       0.1937892 -0.10782468 -0.13569856 0.16820545
0000a0 67 11 5a 3e 3f bf d3 bb 5f 06 d0 3d 06 3d 77 3d
       0.21295701 -0.0064620073 0.10157465 0.06036093
0000b0 6e 75 4c be d6 e5 7c 3d 39 3a a1 bc cf 5d 03 be
       -0.19966671 0.061742626 -0.019681083 -0.12828754
0000c0 09 b5 84 3c 86 ac 66 be 28 d0 30 be c2 de 2e be
       0.016199606 -0.2252675 -0.17266905 -0.17077163
0000d0 f7 6b 44 3e 99 77 71 bb 71 ae 54 bc a5 d5 00 be
       0.1918181 -0.0036844967 -0.012981043 -0.12581499
0000e0 d6 2f f8 3d e6 3b 88 be 1b 4b 89 3d c2 10 7a 3d
       0.12118499 -0.266082 0.06703778 0.061051138
0000f0 8a a7 0f 3e 0a 5a 5a bc 80 8d 79 3e 97 cc 72 be
       0.14028755 -0.013327131 0.24370384 -0.23710857
000100 3b 6a a0 bd 85 e8 15 be e3 c6 df 3d 77 00 cc 3d
       -0.07832762 -0.1463948 0.109266065 0.09961026
000110 cd 5d 59 3d 53 69 52 be 30 5c 1e be 9b 3a ac 3c
       0.05306797 -0.2054799 -0.15464854 0.021024039
000120 79 f7 87 3d 43 c4 4c be 5c 12 96 bd 39 cb 6c be
       0.066389985 -0.19996743 -0.073277205 -0.23124398
000130 53 d6 05 be 61 19 9c 3d 9c 88 4b 3c 85 e1 92 bd
       -0.1307004 0.07622028 0.012422707 -0.07171921
000140 a8 ee 7b 3e f0 94 a5 bd 36 ad c4 3b 87 65 32 be
       0.24602759 -0.08085048 0.0060020937 -0.17421542
000150 cd 79 09 3e 38 e3 84 3d e2 2a 0b 3e 34 e8 30 be
       0.1342537 0.06488651 0.13590577 -0.17276078
000160 28 87 16 bd 32 fd 2d be f2 db a6 3d e3 70 20 be
       -0.03674999 -0.16991118 0.0814742 -0.15668063
000170 42 18 f7 3d cd 68 1a be 3f c5 98 3c f5 93 75 3d
       0.12065174 -0.15079041 0.018648742 0.059955556
000180 54 d4 70 be 39 2f ab 3e ff 63 15 bd 72 24 86 be
       -0.23518497 0.33434466 -0.036472317 -0.2619968
000190 32 0f f8 bd 6a 37 1a be 10 89 7a 3e 29 86 90 bc
       -0.12112273 -0.15060201 0.24466348 -0.017642098
0001a0 d0 fe 28 3e 99 45 12 be 5b ea b7 be 9a c3 70 bd
       0.16503453 -0.14284362 -0.35920987 -0.05878029
0001b0 ae 9e 8c 3d d1 65 fb bd 68 e8 30 3d 77 7c 80 bd
       0.06866203 -0.12275279 0.04319039 -0.0627374
0001c0 42 1f 0a bd 96 d2 4c 3d 77 1b 33 be 6e 9b 56 bd
       -0.033721216 0.050005518 -0.17490946 -0.052394323
0001d0 72 31 a9 3d 55 1c 79 bd 69 da 33 be 12 39 d1 3d
       0.08261384 -0.060818035 -0.17563786 0.102159634
0001e0 f6 21 d6 bd 72 76 3a bd 6b 0c 67 3d b8 c1 e0 3d
       -0.10455696 -0.045523115 0.056408327 0.10974449
0001f0 c2 fd 71 be 64 40 45 be 77 17 af bd 4c 88 87 3c
       -0.23631957 -0.19262844 -0.085493974 0.016544484
000200 33 a7 d4 bd 40 bc bc 3d fb 3d ca 3d bd 5e 35 bd
       -0.10383453 0.09215593 0.09875103 -0.044279803
000210 f8 c3 42 be ee 35 2d 3e f1 db c4 3d e1 77 ba bd
       -0.19020069 0.16915104 0.09612263 -0.09104896
000220 3d a6 0c be ff fc 66 3d 45 d3 81 3e ab 89 0b 3d
       -0.1373529 0.05639362 0.25356498 0.034066837
000230 b8 e4 a8 3c 32 c1 01 3e 7b 2c 87 bd ac 8a 39 3c
       0.020616874 0.12671354 -0.06600281 0.011324566
000240 ab 01 9e 3d d3 9f e4 3d 5a b1 59 3e 9c af 8e 3c
       0.07715162 0.111632966 0.2125906 0.017417721
000250 55 49 df bc e9 ed ec 3d c3 f3 bf 3d b4 84 94 3e
       -0.027256647 0.11568815 0.09372666 0.29007494
000260 fe fa 37 3e 7b ad c3 3e 31 85 c0 bd b1 e2 23 be
       0.1796684 0.38218293 -0.09400404 -0.16004445
000270 5e be 68 be 0f 2f 90 be 7f af 43 bd 12 6d 88 3e
       -0.2272887 -0.28160903 -0.047774788 0.26645714
000280 ca 99 52 be af c8 da bd 1e ed 48 bd 52 f3 e1 bd
       -0.20566478 -0.106828086 -0.049054258 -0.11032738
000290 a3 0b 4f 3d 54 43 ca bd 35 84 37 3e f5 e2 e3 3d
       0.050548207 -0.09876123 0.17921527 0.11127273
0002a0 cb e8 4b 3d 72 ee 1e 3e f1 e1 1b 3e 44 f4 1b 3e
       0.049782556 0.15520647 0.15222909 0.15229899
0002b0 c1 79 d0 bc 39 7f 23 be a1 ca a4 3d 5f 5b 2a be
       -0.025448682 -0.159665 0.08046461 -0.16636418
0002c0 5c c1 b8 3b c9 c5 85 bd 2d 2c 2d 3d 23 0a 81 bd
       0.0056382846 -0.06531865 0.042278457 -0.063007616
0002d0 80 39 86 bb 17 77 51 3e 50 ee 1f 3d 3b 14 6b 3e
       -0.00409621 0.20455585 0.039045632 0.22956936
0002e0 6d 13 91 3e a7 56 92 3e c1 76 42 3d 87 0d 8c be
       0.28335133 0.28581735 0.047476534 -0.2735407
0002f0 ff 78 6d bd 5c 7d b3 be 36 bc 87 be fa 32 08 3e
       -0.05797672 -0.3505658 -0.2651078 0.13300696
000300 47 8c 22 3e 39 7c 50 3e 42 29 a0 bd 3b 0c 2a 3e
       0.15873824 0.20359887 -0.07820369 0.16606228
000310 30 22 12 3e 4b 78 b2 3c 46 a9 f9 bc aa dd be be
       0.14270854 0.021785876 -0.030476224 -0.3727849
000320 f5 e3 0b 3d 23 8c 87 3e b3 6a 0c be 74 53 24 3d
       0.034152944 0.26474103 -0.13712578 0.04011865
000330 99 d2 8e be c9 1f 10 be 47 14 65 3d d3 d6 88 be
       -0.27895048 -0.14074625 0.05592754 -0.26726398
000340 bb d9 95 3d 77 36 5c be 6e 10 09 3e d2 9e 10 3d
       0.073169194 -0.21505152 0.13385174 0.035307713
000350 25 60 4d 3d 9b 81 77 3d da 31 28 3e 9e c9 54 3c
       0.05014052 0.060426336 0.16425267 0.012987522
000360 75 e9 07 3e d3 6e 48 3e 75 cc 50 be ba 18 4a be
       0.1327265 0.19573526 -0.20390494 -0.19735995
000370 38 2c b5 3e cb a0 15 3e 4e 81 cc 3e 9d 2c ed 3c
       0.353853 0.14612119 0.39942402 0.028951937
000380 ea 9f 0f 3e 5d f1 05 bd 5a b4 82 be cf 44 7a bb
       0.14025846 -0.032700885 -0.25528222 -0.0038187986
000390 48 2b 12 be d7 7c 8d 3d d2 a7 95 3e 1d 48 8d bd
       -0.14274323 0.06908577 0.292296 -0.0689852
0003a0 e9 d4 33 be dd 01 54 3d a6 04 2c be e1 63 b6 bd
       -0.17561688 0.05175959 -0.16798648 -0.08905769
0003b0 02 64 28 be f3 01 fa 3d 93 8f b8 bc af 4a 50 bc
       -0.164444 0.12207403 -0.022529399 -0.012713118
0003c0 3d 0e 6e bd fa fb 8d 3d 83 c4 1b be 50 37 bc 3c
       -0.058119047 0.06932826 -0.15211682 0.022975594
0003d0 95 9f 27 be c0 2b f3 3d da 8a 98 be f5 cd 36 be
       -0.1636947 0.11873579 -0.29793435 -0.17852004
0003e0 bd b9 76 bd ba e1 1c bc 44 2f 87 bd 59 45 2d be
       -0.060235728 -0.009575302 -0.06600812 -0.16920985
0003f0 6e d8 c0 3c d0 45 f6 3d 8d ae 0a 3c 90 82 57 3e
       0.023540702 0.120250344 0.008464468 0.210459

decoder.0.bias f4 [128]
000000 e2 b3 db 3e 7f db 78 bc 37 4e 0a 3e f9 e2 cb bd
       0.42910677 -0.015189051 0.13506399 -0.09955401
000010 a8 00 21 be 14 c5 c4 3d f8 01 08 3d e8 98 c4 3d
       -0.15722907 0.09607902 0.033205003 0.09599477
000020 84 81 63 bd 89 77 0e bd b2 56 75 3c 68 6c 31 3c
       -0.055543438 -0.034781966 0.014974283 0.010829069
000030 b6 d9 de bd 40 55 ac 3d eb 8d bc 3b ac ab 69 3d
       -0.10881369 0.08414698 0.0057542226 0.057048485
000040 f4 84 c8 3d 4d cb 46 bd 50 76 b8 bc 13 69 af bd
       0.09790984 -0.048533726 -0.022517353 -0.08564963
000050 70 11 8a bd 11 eb 86 bc 74 06 5d 3e a6 29 bc 3d
       -0.06741607 -0.01646951 0.21584493 0.09187631
000060 28 aa 5f 3c 7a 26 01 3c 63 04 08 be 38 58 4b 3e
       0.013651408 0.007882709 -0.13282923 0.19857872
000070 9e f9 9d bd 99 53 a4 bd 6f 27 e4 3c b4 b8 30 3b
       -0.07713626 -0.080237575 0.027850835 0.002696556
000080 b0 ca 63 3e 14 8d 02 3e 40 11 7a 3d cb cf 04 be
       0.22245288 0.1274913 0.061051607 -0.12969892
000090 20 f3 29 3e 50 bd 16 be cf d3 12 3e 09 a9 3b 3e
       0.16596651 -0.14720654 0.14338611 0.183262
0000a0 e8 fd d1 3a 5f b6 46 bd f5 01 e1 bc 1b 16 da 3e
       0.0016021105 -0.048513766 -0.027466753 0.4259499
0000b0 4c e3 75 be ed 3b e3 3d 87 22 aa 3c 22 5b 0c 3e
       -0.24012488 0.11095414 0.020768417 0.1370664
0000c0 6e 42 02 be e8 cb 05 bd 50 d4 fb 3d 4d ba fe 3d
       -0.12720653 -0.032665163 0.12296355 0.12437878
0000d0 8b e9 ba 3b cf 06 b3 3d 18 98 f2 bd 0c 18 31 3e
       0.00570411 0.08741533 -0.11845416 0.1729433
0000e0 1c 04 18 3a 2d c0 2a be 07 d1 fd bd e8 a1 31 3c
       0.0005798952 -0.16674872 -0.123933844 0.010841824
0000f0 1f ee c7 bd f1 85 9e 3d cb b3 05 3e 27 e1 a4 3e
       -0.09762215 0.07740391 0.13056867 0.32203028
000100 6e bd ce 3d c7 3b cc 3c 30 fc 08 3e 19 1a ab 3c
       0.100947246 0.024930848 0.13377452 0.020886468
000110 2d c9 35 3e db ad 43 3d 1b bb 45 3e 3a b0 80 bd
       0.17752524 0.047773223 0.19309656 -0.062836125
000120 13 0e b7 bc ad dd be bd 69 a3 23 be 4e 82 0d be
       -0.022345578 -0.09319625 -0.15980305 -0.13819239
000130 92 a2 ce bd ee 8c 5a bc a4 66 02 be 78 d5 6e 3d
       -0.100896016 -0.013339264 -0.12734467 0.05830905
000140 8a cb 8f 3c 31 4c 45 be b0 b3 86 3d bc 3a 03 3c
       0.01755311 -0.19267346 0.065772414 0.008009609
000150 58 f8 82 3d af 1a 49 3e df 68 7c 3e 65 f3 c0 bd
       0.06395024 0.19639085 0.2464938 -0.09421424
000160 0c 24 d5 3d 87 b6 94 3d 22 27 94 bd b8 9a e6 3d
       0.10407266 0.07261377 -0.072340265 0.11259979
000170 21 4c 9b bc 4a ea fc 3d 62 17 2e 3e 03 ae 00 3e
       -0.0189572 0.123493746 0.17001107 0.1256638
000180 d1 49 4a be e1 f8 ba bb 0b a4 66 bd a0 9a 24 3d
       -0.19754721 -0.005705938 -0.056308787 0.040186524
000190 e9 de 0f be 3b 30 d8 3d 04 19 c7 bc 63 df b4 bd
       -0.14049877 0.10556074 -0.02430392 -0.0883167
0001a0 0e c6 ca 3d 26 e8 ad 3d af 0c f7 3d 1f 6e 98 3a
       0.09901057 0.084915444 0.12062966 0.0011629498
0001b0 51 4f 1d 3e 77 a6 0b 3e e4 55 33 bd ce c7 a4 3d
       0.15362288 0.1363772 -0.043783084 0.08045922
0001c0 7f 85 7c 3d 14 7a 8f 3d 84 97 aa 3d 19 83 ed bd
       0.06165075 0.070057064 0.083296806 -0.115972705
0001d0 99 d6 33 3e 9e 3c fe bc d1 b6 fb 3d e2 e9 94 bd
       0.17562331 -0.031034764 0.12290729 -0.07271172
0001e0 a4 10 f0 bd a0 1e a2 3d d3 c0 0c 3e 7b eb 41 be
       -0.11721924 0.079159975 0.13745432 -0.18937485
0001f0 e9 2c 82 3d 1b 30 0f 3e 94 ec 10 3b 8e cc 94 bc
       0.06356222 0.13983195 0.0022113668 -0.018163946

decoder.3.weight f4 [256, 128]
000000 b9 84 62 3b 52 27 f1 bc da 49 f5 bc 35 f4 d7 bc
       0.0034563972 -0.029437695 -0.029942442 -0.026361564
000010 4a ea 8f 3c 63 80 01 bc 45 eb 11 bc 87 9f aa 3c
       0.017567772 -0.007904145 -0.00890619 0.020828022
000020 ff e8 60 bc f2 23 42 bf 31 56 5a 3b 85 5a 14 bf
       -0.013727426 -0.758361 0.0033315534 -0.5795062
000030 d5 ca f4 3a 08 ea 69 bc 34 e5 bf 39 31 89 99 3c
       0.0018676171 -0.014276989 0.00036601129 0.018742176
000040 d4 23 94 bb 10 75 79 bc 21 a7 27 bb cc 46 ea 3c
       -0.0045208726 -0.015225664 -0.0025581794 0.028598212
000050 fd 83 02 3d d4 69 84 be bb 61 81 3b dc c6 e3 bb
       0.031864155 -0.2586199 0.003948418 -0.006951196
000060 c0 56 19 3d 7a 00 ee 3c 09 93 5a 3b 45 69 62 3c
       0.037436247 0.029052962 0.00333518 0.0138190435
000070 c4 ec 43 bd c2 d9 18 3c b9 13 03 bc 58 76 06 3d
       -0.04783322 0.009329261 -0.008000308 0.032827705
000080 67 c4 c9 3b 1d 38 f9 bb 9f 63 16 3d 30 fc 81 3c
       0.006157446 -0.007605566 0.0367161 0.015867323
000090 9b e1 03 bc 2c a6 97 bb 94 0c d1 3a d6 37 22 bc
       -0.008049394 -0.0046279635 0.0015949183 -0.009901008
0000a0 9c ce 81 3c 05 15 69 3c f0 60 12 bf 2f d9 35 bc
       0.01584559 0.014226203 -0.57179165 -0.011099144
0000b0 46 2a e1 bb 5b f3 65 bb a9 09 07 bc 91 f1 97 bc
       -0.0068714945 -0.0035087678 -0.008242049 -0.018547805
0000c0 1f c9 b8 bc 01 46 b6 3c 54 46 31 bc 07 8b e3 3b
       -0.02255684 0.022250177 -0.01081999 0.0069440636
0000d0 6e 02 e7 ba 3c 19 c9 b9 36 38 ea 3b 28 32 a1 bb
       -0.0017624625 -0.0003835651 0.007147814 -0.004919309
0000e0 d8 89 c0 3c 8c 99 b8 3a f4 f4 7e 3b 75 b6 ef 3b
       0.023503229 0.0014083846 0.0038903328 0.0073154517
0000f0 3b d0 bc 3c 5c 26 87 3c af 0c 10 3d a7 d2 5f 3c
       0.02304851 0.016497783 0.035168346 0.013661063
000100 73 d4 b1 3c f7 1a a0 3b 74 0e 39 3c d7 61 40 bc
       0.021707749 0.004886027 0.01129495 -0.011742077
000110 ee c6 f6 3a 8a 13 03 bc 5e 30 7c 39 73 cc 15 bf
       0.0018827596 -0.008000264 0.00024050611 -0.5851509
000120 a6 df ec 3b 88 87 4f bb e8 23 03 bc 6e f0 7c bb
       0.0072288094 -0.0031666476 -0.008004166 -0.0038595456
000130 40 cd aa 3c 88 8c bc be c1 77 f7 3b 52 f9 ca bc
       0.020849824 -0.36825967 0.0075521176 -0.024777088
000140 1c 23 4b 3c 82 aa 97 3c e7 b0 01 3c fd bd 9d bc
       0.012398507 0.018513922 0.007915712 -0.019255633
000150 90 4a b8 bb ef 10 73 bc ac b1 0b 3d 0b 20 fb 3b
       -0.005624123 -0.01483558 0.034104988 0.007663732
000160 53 a2 f7 3b fc 9d 3b 3c 2e e4 03 bc d6 9e 0b b9
       0.0075571924 0.011451241 -0.008050008 -0.00013315244
000170 2a 3f 6d bc 06 de 6d bb 02 e1 5d ba 71 02 13 3c
       -0.0144803915 -0.0036295666 -0.000846401 0.00897275
000180 cc 28 5a bc 5d 46 a4 bc 51 fb 53 bc 64 31 1f 3a
       -0.013315391 -0.020053083 -0.0129383365 0.00060727284
000190 0c d4 85 3b f1 29 4d 3b 0b 48 d1 bb 84 d1 16 bc
       0.004084116 0.0031305517 -0.006386762 -0.009205226
0001a0 bd ee f5 3b 45 3c 89 3c 73 76 4f bc 11 a1 aa bb
       0.0075052665 0.016752372 -0.012662518 -0.005207189
0001b0 a0 31 cc 39 59 6d b9 3b e4 d6 21 3c e2 6d 9f 3b
       0.00038946886 0.005658787 0.009877894 0.004865394
0001c0 55 47 3c bc 3f c3 0c bf 00 ce 43 3c 4b 61 6c 3c
       -0.011491616 -0.5498542 0.01195097 0.014427493
0001d0 99 a0 9b 3c 8f 3c 28 bd 66 43 2f 3c 56 95 93 ba
       0.018997477 -0.04107338 0.010697221 -0.0011259716
0001e0 ab 12 09 3c b4 b6 ec 3b 7b 4c a4 bb 6c d9 e9 3c
       0.008366267 0.0072239283 -0.005014 0.028546058
0001f0 f9 23 0c bf 9c 17 17 bc f2 63 1a 3c f5 9a d9 be
       -0.5474239 -0.0092219375 0.009423243 -0.42501035
000200 6e fe fb bc 64 85 01 bb 92 c2 48 3c 0f 36 7e bc
       -0.03076097 -0.0019763345 0.01225342 -0.015515818
000210 d1 1b d2 3c fe 4b 82 3c 66 3c 78 3b 31 56 15 3c
       0.02564803 0.015905377 0.0037877797 0.009114788
000220 d3 be b7 3c 10 42 ae 3c f4 c3 77 bc d0 1b dc bc
       0.02242986 0.021271735 -0.015122402 -0.02686873
000230 b6 c5 bb be 81 6a 3c bc 8a e9 08 bd e7 ea 02 3d
       -0.3667428 -0.011500002 -0.033425845 0.0319623
000240 4e 07 13 ba 3a e9 03 3d f3 4c 86 bb 44 82 77 bc
       -0.00056086935 0.032204844 -0.0040985285 -0.015106741
000250 21 2c 87 bc d9 de 27 bc e2 db 0f bd 22 73 36 bc
       -0.016500534 -0.010246002 -0.035121806 -0.011135848
000260 72 cb b8 bc 4c 1a 8e bc 12 d6 77 bd 2a 24 24 bd
       -0.022557948 -0.017346524 -0.060506888 -0.04007355
000270 d4 9b 7a bc 24 59 ec bc ce 30 86 bc 94 9c bb 3b
       -0.015295941 -0.0288511 -0.016380694 0.0057254527
000280 e4 2e e4 bc 46 ec e2 ba 87 ed c2 3a 95 95 51 bd
       -0.02785439 -0.0017312847 0.0014871814 -0.051168043
000290 c2 0f f7 bc 50 fa 5a 3c ef fd 6c bc 82 58 93 bc
       -0.030158881 0.013365343 -0.014464839 -0.01798654
0002a0 4b 05 3b bc 8a 56 b9 bb 73 f8 4b bb 6d e4 75 bc
       -0.011414836 -0.005656068 -0.003112343 -0.015008074
0002b0 79 a7 2e bb 7f b8 05 3b 5a 3d de bc c8 4b fe 3b
       -0.0026650114 0.0020404158 -0.027128864 0.0077604987
0002c0 a0 d5 78 bc e7 11 30 bc e6 4d 91 3c 22 ea 28 bd
       -0.015187651 -0.010746456 0.01773734 -0.04123891
0002d0 84 82 2d 3a 4e 76 7c bc 22 9e 4d bb a0 60 91 bc
       0.00066188746 -0.015409065 -0.0031374772 -0.01774627
0002e0 0e 54 63 3c 59 93 65 bc 1b 82 7c bb 0e 0a 8f bd
       0.013875021 -0.014012181 -0.0038529697 -0.0698434
0002f0 06 b5 1c bb 0c 61 75 3b a9 6e 9e bc 13 74 e8 bc
       -0.002391161 0.0037441878 -0.019339876 -0.028375661
000300 aa 9b 67 bb 29 59 8a 3c e0 55 98 bc 00 8b 4f bc
       -0.0035340586 0.016888218 -0.018595636 -0.0126674175
000310 78 82 b1 3b 4c 8f ac be 1f 80 b4 be 9e 00 1c bc
       0.0054171644 -0.33703077 -0.35254 -0.0095216315
000320 3b 94 0a bc 13 71 88 3b 3a 57 87 be 75 54 8c 3c
       -0.008458192 0.00416387 -0.26433736 0.017130116
000330 b4 40 05 3d c5 66 d8 3b 18 5e 83 3d 3e c5 04 3d
       0.03253241 0.006604048 0.06414431 0.032414667
000340 e6 57 8b bc d6 92 62 be 22 fb da bb 44 6f d8 bb
       -0.017009687 -0.22126326 -0.0066827694 -0.006605061
000350 e6 36 ce 3c 78 a8 48 b8 7d 99 eb bb de c1 8c bc
       0.025172662 -4.7840615e-05 -0.007189928 -0.017182287
000360 0c 55 7b bc 48 e1 42 bf dd 95 1f 3c bc e4 11 bf
       -0.015340101 -0.76125 0.00974032 -0.56989646
000370 ce f2 57 3c 14 10 3d 3b 59 24 9c bc 2c 24 c7 bc
       0.013180448 0.0028848695 -0.0190603 -0.02430924
000380 dd 43 93 3c 4a 28 f9 ba e2 a4 82 3c 75 62 d1 bc
       0.017976696 -0.00190092 0.015947763 -0.025559643
000390 62 47 84 be 99 30 09 bc 7d 53 f8 bc 84 7f 13 bd
       -0.2583571 -0.008373403 -0.030313248 -0.03601028
0003a0 d1 ef 0b bc e7 b7 c2 bc 7e 1f 92 bc 19 34 ec 3c
       -0.008541063 -0.023769332 -0.017837282 0.028833436
0003b0 3f 05 02 bd 32 fd 3b bb 05 1b ca 3c 59 86 8f bd
       -0.031743284 -0.0028684852 0.024671087 -0.07008047
0003c0 3a 05 a9 bb ec b7 4e bc 5a 40 82 3b a7 ab 9c 3b
       -0.0051580938 -0.012617093 0.0039749565 0.0047812047
0003d0 30 98 4c bf 7f b4 89 3c 71 4e ff bc 4f 19 1e 3c
       -0.7991972 0.0168097 -0.031165333 0.009649589
0003e0 a9 ae 92 bc 49 c7 a9 3c 0d 54 11 bc ae 77 fc bc
       -0.01790555 0.02072491 -0.008870137 -0.030818786
0003f0 42 41 89 bc 26 c1 ce bd 89 23 fb bb df fa ef bc
       -0.01675475 -0.10095434 -0.007664148 -0.02929443
