Trained Autoencoders/best_autoencoder_website_phishing.pth (torch, 354242 bytes, 12 tensors)

encoder.0.weight f4 [256, 25]
0.20615324 0.1429093 0.18283597 0.09344591 0.21151966 -0.006668647 -0.09442988 0.0668836
0.0064042 0.12012875 -0.13205038 -0.025202919 -0.07239771 -0.061700072 0.11103723 0.10665395
0.017397689 0.016056396 -0.12909071 0.19926168 0.08846034 -0.093359485 -0.05659966 0.10520516
0.13556962 0.009937191 0.21728338 0.16284133 0.17212367 -0.024192603 -0.02976872 -0.117903344
-0.056657903 0.25889906 0.015323507 -0.14305681 0.07148463 -0.090523124 -0.09490785 0.09486211
-0.05040522 0.06547948 0.010994047 -0.00593633 0.17238839 0.1386324 -0.11051626 -0.064677246
-0.10203971 0.061562594 0.026593365 -0.039512813 -0.03017757 0.1830978 -0.05826304 0.013010849
0.108399965 -0.12973589 0.020838741 -0.10335083 0.19564137 -0.07903214 -0.025408076 0.00870842
-0.030088639 -0.10179644 -0.03614935 0.111556396 0.20196904 0.0894286 -0.09807024 0.052004118
0.043625932 -0.014032686 0.11256341 -0.06557299 0.09949194 0.058654048 0.20250627 0.098701544
-0.01996782 -0.03497212 -0.037440702 -0.17800622 -0.094876446 -0.24210851 0.06953691 0.19929878
0.06527518 -0.1670204 0.06529913 -0.055993352 0.033000726 -0.050843403 -0.2117485 0.2071197
0.13722152 0.0733535 -0.17210144 0.13881078 -0.1337693 -0.034303483 0.1361519 -0.027452461
-0.17429636 -0.026017444 -0.18982011 0.08982063 0.11531452 0.15192495 0.07358646 0.044355016
0.14607926 0.01124679 -0.00973617 0.023232395 0.1613454 0.13949049 0.032799758 0.12241653
-0.22416545 0.17136085 0.023565777 -0.12848715 -0.1492138 -0.1326169 -0.0425403 -0.055217233
0.04366352 -0.009237739 0.055271957 -0.054332722 0.20799862 -0.02763969 -0.0831407 -0.11690379
-0.12825635 0.14674754 -0.050011225 0.075150356 0.13686493 0.20588319 0.07014152 0.19468336
-0.043290995 -0.11888474 -0.068101354 0.038643293 0.09738474 0.17098363 -0.1740726 -0.093529165
0.15951537 0.083091 0.04437574 -0.034210827 0.025812285 -0.16209869 0.1183514 0.027055152
0.006650843 -0.006652688 0.03351606 0.061788958 0.19291843 -0.088813834 0.013147473 0.15569985
0.08618207 0.14450707 -0.12452971 0.14492512 -0.11657493 0.105527766 0.028755601 -0.0073578935
0.04378425 0.11877173 -0.040435378 0.038202193 -0.083441675 -0.18647964 -0.12542947 0.14139983
0.02579517 0.031897273 0.047819223 0.024249975 -0.113561146 0.14046954 -0.16020341 0.055172663
0.18466026 0.017407868 0.19753623 -0.07499305 0.22211735 -0.014560837 -0.17244694 0.11244012
-0.090582415 -0.15788226 -0.24216016 -0.010808157 0.063250214 -0.06905718 0.10877808 -0.113119006
-0.15811534 -0.11711988 -0.08496119 0.06823557 -0.013123172 0.17395326 0.01497692 -0.13460505
0.17015153 -0.17502731 -0.030221567 -0.0755335 -0.04816259 0.094910845 0.0041500977 -0.17175499
0.13703588 0.027439028 0.01924434 -0.1014926 -0.1985776 0.0058165374 0.011798531 -0.1630588
-0.05662875 -0.09874234 0.05653359 0.13549934 0.18961103 -0.05853419 -0.07041244 -0.14518002
-0.09886012 -0.13908358 -0.07807765 0.18046771 0.16397037 0.07107113 -0.117751546 -0.18026066
0.013426676 -0.09163566 0.09579021 -0.16431382 0.044531986 0.070002906 -0.118527986 0.22932924
00000000: d619 533e d156 123e 5a39 3b3e 9260 bf3d
00000010: 9c98 583e aa84 dabb 7464 c1bd 45fa 883d
00000020: 53da d13b 1006 f63d 3738 07be 5a76 cebc
00000030: 4045 94bd 37b9 7cbd 7d67 e33d 636d da3d
00000040: 9985 8e3c b488 833c 5b30 04be 410b 4c3e
00000050: b22a b53d 4233 bfbd 0cd5 67bd ce75 d73d
00000060: c3d2 0a3e 9acf 223c 897f 5e3e e1bf 263e
00000070: 3041 303e 912f c6bc 88dd f3bc 4f77 f1bd
00000080: 1e12 68bd 6b8e 843e 720f 7b3c 7c7d 12be
00000090: 8966 923d 3064 b9bd 0c5f c2bd 1147 c23d
000000a0: b475 4ebd 1b1a 863d 6020 343c 8c85 c2bb
000000b0: 9586 303e a7f5 0d3e 5956 e2bd 8175 84bd
000000c0: 32fa d0bd 0f29 7c3d 54da d93c 30d8 21bd
000000d0: f436 f7bc fd7d 3b3e 3aa5 6ebd 752b 553c
000000e0: cd00 de3d 7cd9 04be 02b6 aa3c 9aa9 d3bd
000000f0: 3656 483e 9adb a1bd 9924 d0bc c3ad 0e3c
00000100: 737c f6bc a77a d0bd 5711 14bd ae77 e43d
00000110: f9d0 4e3e 5826 b73d 0dd9 c8bd 4502 553d
00000120: 1bb1 323d 5ae9 65bc a587 e63d 224b 86bd
00000130: 6ec2 cb3d 3a3f 703d ce5d 4f3e 0924 ca3d
00000140: 8e93 a3bc ed3e 0fbd 6c5b 19bd 4347 36be
00000150: 954e c2bd 4beb 77be 5e69 8e3d fb14 4c3e
00000160: feae 853d 6507 2bbe 8dbb 853d 4959 65bd
00000170: c52b 073d 2c41 50bd 99d4 58be 3017 543e
00000180: cc83 0c3e 5c3a 963d 5c3b 30be 6a24 0e3e
00000190: d2fa 08be cf81 0cbd 676b 0b3e fce3 e0bc
000001a0: bf7a 32be 8922 d5bc 3460 42be e1f3 b73d
000001b0: 052a ec3d 3792 1b3e 7fb4 963d 9bad 353d
000001c0: cd95 153e 7544 383c 7584 1fbc dd51 be3c
000001d0: bb37 253e 98d6 0e3e 0a59 063d 85b5 fa3d
000001e0: a18b 65be 3879 2f3e 040d c13c 2392 03be
000001f0: 81cb 18be bacc 07be bd3e 2ebd 772b 62bd
00000200: 85d8 323d e359 17bc d964 623d fd8b 5ebd
00000210: 97fd 543e a26c e2bc ac45 aabd 416b efbd
00000220: a255 03be fd44 163e 92d8 4cbd 6ee8 993d
00000230: 5226 0c3e 0bd3 523e 5ba6 8f3d 135b 473e
00000240: e651 31bd d879 f3bd b978 8bbd 6e48 1e3d
00000250: a771 c73d 5516 2f3e 1640 32be 388c bfbd
00000260: ff57 233e 9d2b aa3d 56c3 353d a720 0cbd
00000270: 4974 d33c 33fd 25be 3862 f23d c4a2 dd3c
00000280: 51ef d93b cbfe d9bb 2348 093d 6b16 7d3d
00000290: 698c 453e 07e4 b5bd 8068 573c c86f 1f3e
000002a0: 3a80 b03d a9f9 133e 6f09 ffbd 4067 143e
000002b0: d6be eebd f11e d83d de90 eb3c 7c1a f1bb
000002c0: 1d57 333d 983e f33d 919f 25bd e779 1c3d
000002d0: 78e3 aabd 85f4 3ebe 9570 00be 1ecb 103e
000002e0: 6450 d33c b7a6 023d 17de 433d e2a7 c63c
000002f0: bf92 e8bd 3fd7 0f3e 5d0c 24be bbfc 613d
00000300: 9417 3d3e f29a 8e3c f046 4a3e f595 99bd
00000310: bb72 633e 9490 6ebc ee95 30be 0147 e63d
00000320: 4683 b9bd e3ab 21be d5f8 77be b214 31bc
00000330: 5489 813d da6d 8dbd 0bc7 de3d f0aa e7bd
00000340: fde8 21be 8cdc efbd 2200 aebd 17bf 8b3d
00000350: 9302 57bc ce20 323e c161 753c e8d5 09be
00000360: 343c 2e3e 5c3a 33be 3893 f7bc 4fb1 9abd
00000370: 2346 45bd 9e60 c23d 8bfd 873b 8ae0 2fbe
00000380: 2253 0c3e d0c7 e03c 4ea6 9d3c 5adb cfbd
00000390: ed57 4bbe a798 be3b a04e 413c e3f8 26be
000003a0: 8cf3 67bd 6d39 cabd c48f 673d 57c0 0a3e
000003b0: 6529 423e 8cc1 6fbd 6634 90bd 12aa 14be
000003c0: 2d77 cabd ed6b 0ebe 2de7 9fbd 87cc 383e
000003d0: d9e7 273e be8d 913d b927 f1bd 4096 38be
000003e0: 90fb 5b3c 7aab bbbd a82d c43d e241 28be
000003f0: 2c67 363d af5d 8f3d cdbe f2bd 49d5 6a3e

encoder.0.bias f4 [256]
-0.16139476 0.049707238 -0.13012615 -0.08753475 0.18105039 -0.0028497858 0.012791896 -0.15216222
0.17896353 -0.14641638 0.044561468 0.036406424 0.06962768 -0.059378844 0.016631315 -0.06609449
-0.0035529688 -0.16635454 -0.18935911 -0.10896814 0.05927621 0.014747916 0.092081115 0.12850232
0.10806423 -0.10545601 0.20626496 0.028077867 -0.07620041 0.015874939 0.07347938 0.1211139
0.13336323 -0.026919944 0.025325073 0.19737332 0.01390051 -0.07226381 -0.09960669 0.14623939
0.1254471 0.015337702 -0.13602424 0.18208201 -0.11683163 0.1279721 -0.13899057 -0.14259484
0.114312105 0.15608954 0.14097194 -0.04397431 0.11674203 0.05162371 -0.043539185 0.060852267
-0.02968484 -0.042135064 0.06781878 0.06146623 0.05147778 0.062822476 -0.074340336 0.17785196
0.028302409 0.147283 -0.16296628 -0.0904232 -0.15515311 0.08989282 0.14980625 -0.13130872
-0.13878565 -0.07495364 0.054360703 0.08221624 -0.05170921 0.17837763 -0.13562211 0.07898228
-0.12407092 -0.12568049 -0.13929826 0.01446526 0.05824566 -0.065359876 -0.06906349 -0.05039334
-0.08850066 0.030934095 0.15116528 -0.1036072 -0.074858524 0.10564621 0.04873587 0.060240764
-0.16251443 -0.09588749 -0.21289864 0.021415263 -0.034991268 0.06332008 -0.015179372 -0.09806673
-0.105867155 0.015107077 -0.11061383 0.0019850712 -0.15111594 -0.13033773 0.07123816 -0.15984319
0.094935544 0.0666802 0.17173693 -0.12631568 0.020618275 -0.03894907 0.10559761 -0.054354798
-0.066715986 0.028859591 -0.05222883 -0.004780741 -0.033160724 -0.12469576 -0.022464655 -0.01374135
0.09568911 0.03168709 -0.043800533 0.02607959 -0.08645335 -0.19513574 -0.03904901 -0.07288361
0.014791588 0.15473148 -0.025082693 0.017853547 0.113178395 -0.003996872 -0.136624 0.010734581
-0.12676202 0.0064199353 0.015175725 -0.06722041 -0.015131072 0.050815117 0.10851793 -0.046943378
0.09833136 0.21351503 0.008415994 0.05281231 -0.122270755 0.017842676 0.10065536 -0.109255515
0.023839213 -0.04919035 0.016155327 -0.11083859 -0.037579782 0.026893487 0.087385565 -0.014130197
-0.15354857 -0.058212604 0.19591296 -0.08473287 -0.11045367 -0.009228705 -0.08900683 0.068778984
0.069937445 -0.1687285 0.11426102 -0.03267621 0.20014659 0.01806749 -0.1824486 0.06366506
-0.06211527 0.058588088 0.024611484 0.13028105 -0.01283584 0.14812133 0.07578091 -0.0066706124
-0.055823967 -0.16087681 0.024553116 0.19668995 0.17753679 0.14793602 0.13967375 -0.18054843
-0.048196513 -0.035110377 -0.09678778 0.0038825476 -0.0223181 -0.022334121 0.1888476 0.020702627
0.14054345 -0.16768366 -0.08979477 -0.15815426 -0.13161589 0.039118808 -0.11753229 -0.12139545
0.11589467 0.076406635 -0.14727621 0.08780322 -0.058036536 -0.052995484 -0.074694864 0.083123595
-0.05832048 -0.1568329 -0.07874128 -0.121317856 -0.02801711 0.120444395 -0.0005951043 0.10923631
0.14563061 0.18648614 -0.0755744 0.17976236 -0.074978955 -0.04298031 -0.010081738 0.14053209
-0.13870531 -0.08813977 0.15975375 -0.07371127 0.08283692 -0.06303091 -0.16116124 -0.05054669
-0.10643967 -0.14708625 0.01578693 -0.12740274 0.06627718 -0.11924505 0.16004165 0.093411304
00000000: ab44 25be d199 4b3d ca3f 05be 6b45 b3bd
00000010: 4665 393e 79c3 3abb 1a95 513c 6ad0 1bbe
00000020: 3742 373e 2dee 15be 1686 363d e71e 153d
00000030: f598 8e3d 3b37 73bd 653e 883c 8c5c 87bd
00000040: edd8 68bb d858 2abe 5be7 41be b02a dfbd
00000050: 9ccb 723d 3ea1 713c 0695 bc3d 1d96 033e
00000060: c750 dd3d 52f9 d7bd 1f37 533e 8e03 e63c
00000070: f60e 9cbd 290c 823c 5b7c 963d 900a f83d
00000080: 5f90 083e 3787 dcbc 8776 cf3c 3b1c 4a3e
00000090: f7be 633c 0cff 93bd 98fe cbbd c7bf 153e
000000a0: 3475 003e fc4a 7b3c f049 0bbe b573 3a3e
000000b0: 6c45 efbd 1e0b 033e 8b53 0ebe 6204 12be
000000c0: 771c ea3d f0d5 1f3e f35a 103e 681e 34bd
000000d0: 7216 ef3d 6273 533d 2556 32bd 3a40 793d
000000e0: 9f2d f3bc d195 2cbd 93e4 8a3d 03c4 7b3d
000000f0: 5dda 523d 12a9 803d bf3f 98bd d31e 363e
00000100: 74da e73c 5bd1 163e a2e0 26be cc2f b9bd
00000110: 75e0 1ebe ba19 b83d cf66 193e cb75 06be
00000120: d31d 0ebe 4b81 99bd 54a9 5e3d fd60 a83d
00000130: 09cd 53bd a0a8 363e 86e0 0abe 76c1 a13d
00000140: e518 febd 63b2 00be 34a4 0ebe b3ff 6c3c
00000150: 0093 6e3d 66db 85bd 2971 8dbd 3f69 4ebd
00000160: d63f b5bd 8069 fd3c 12cb 1a3e 0330 d4bd
00000170: 6d4f 99bd 0a5d d83d 439f 473d 05bf 763d
00000180: 2f6a 26be a960 c4bd 1a02 5abe 106f af3c
00000190: 0153 0fbd f5ad 813d e7b2 78bc 36d7 c8bd
000001a0: e1d0 d8bd ac83 773c 8189 e2bd f817 023b
000001b0: 23be 1abe 4177 05be 50e5 913d efad 23be
000001c0: 916d c23d a18f 883d cedb 2f3e e658 01be
000001d0: a8e7 a83c 0f89 1fbd 8f43 d83d 23a3 5ebd
000001e0: 64a2 88bd f36a ec3c e6ed 55bd c3a7 9cbb
000001f0: 8ad3 07bd 7e60 ffbd cc07 b8bc 6623 61bc
00000200: a7f8 c33d 52ca 013d 3068 33bd dda4 d53c
00000210: 740e b1bd aad1 47be dbf1 1fbd 0144 95bd
00000220: 6b58 723c ee71 1e3e 387a cdbc 9a41 923c
00000230: 13ca e73d 31f8 82bb 29e7 0bbe 19e0 2f3c
00000240: e7cd 01be 525e d23b 9ba3 783c dbaa 89bd
00000250: 51e8 77bc 8323 503d a63e de3d b347 40bd
00000260: f461 c93d afa3 5a3e 3de3 093c b951 583d
00000270: 1769 fabd ce2a 923c 6624 ce3d 5bc1 dfbd
00000280: 744a c33c d27b 49bd 2d58 843c 58ff e2bd
00000290: 42ed 19bd bb4f dc3c 34f7 b23d 5882 67bc
000002a0: d63b 1dbe 5770 6ebd 689d 483e 6d88 adbd
000002b0: 8935 e2bd ff33 17bc 3649 b6bd ffdb 8c3d
000002c0: 5d3b 8f3d 2ac7 2cbe af01 ea3d 7dd7 05bd
000002d0: 3af3 4c3e 4602 943c ced3 3abe d462 823d
000002e0: 956c 7ebd 10fa 6f3d 069e c93c 6568 053e
000002f0: 6a4d 52bc 1ead 173e 0633 9b3d 2795 dabb
00000300: aca7 64bd e4bc 24be 9e23 c93c 1769 493e
00000310: 34cc 353e 8a7c 173e a306 0f3e b0e1 38be
00000320: b569 45bd e6cf 0fbd ac38 c6bd 5772 7e3b
00000330: 73d4 b6bc 0cf6 b6bc 4461 413e 8e98 a93c
00000340: 9fea 0f3e 44b5 2bbe 52e6 b7bd 31f3 21be
00000350: 51c6 06be 0b3b 203d c5b4 f0bd 2d9e f8bd
00000360: 2f5a ed3d 157b 9c3d 93cf 16be 2dd2 b33d
00000370: b8b7 6dbd cb11 59bd 9ff9 98bd b43c aa3d
00000380: 75e1 6ebd ce98 20be 1c43 a1bd 7f75 f8bd
00000390: 2384 e5bc 8dab f63d c600 1cba 49b7 df3d
000003a0: 3120 153e 39f6 3e3e c0c6 9abd a013 383e
000003b0: 918e 99bd 1f0c 30bd e02d 25bc a5e7 0f3e
000003c0: c408 0ebe a082 b4bd 7d96 233e eff5 96bd
000003d0: 67a6 a93d 5a16 81bd 7407 25be 0c0a 4fbd
000003e0: 0bfd d9bd c79d 16be 9853 813c dd75 02be
000003f0: 55bc 873d c036 f4bd f5e1 233e 6d4e bf3d

encoder.3.weight f4 [128, 256]
-0.02318508 -0.045021717 -0.039838776 0.07449955 0.008895173 -0.070811905 0.026464403 0.07365396
-0.028708253 0.020850353 0.01999326 -0.010243643 0.008218717 0.051079363 0.09259085 0.04080078
-0.010468054 -0.01824106 -0.057136845 -0.056699153 0.10663388 0.021056151 -0.051692605 -0.020694137
-0.08028663 0.0054286746 -0.021525413 0.0683589 0.07177435 -0.054919004 0.012553642 -0.036337983
0.040689755 0.08357918 0.041505575 -0.006798512 -0.12578197 0.01833427 0.032882817 0.010710487
-0.009371443 -0.0146868015 0.0019247769 0.05070997 -0.06056081 -0.0012223463 0.037801895 -0.058027197
-0.0028843721 0.010960627 0.04724577 -0.02367167 0.0076373946 -0.06242085 -0.018155362 -0.052745823
-0.060733687 0.023995938 0.029360544 0.037513107 0.056465 0.00682278 -0.08288748 -0.010977403
0.030188473 -0.05932912 -0.025042903 -0.041358244 0.096283406 -0.09404095 -0.035590373 0.061813056
-0.04657561 0.08717172 -0.007443789 0.029156879 -0.040887225 0.053593203 0.021460835 -0.036635067
-0.035185624 -0.13222077 0.08368597 -0.044325985 -0.016614057 0.006388838 0.12273957 -0.03546504
0.052092616 -0.04404283 -0.021370513 0.0007166684 0.03134611 0.018321726 0.03463226 0.013105388
-0.0398038 0.017833468 -0.04820591 -0.0011766492 0.01804147 -0.013871511 -0.019707749 0.037819937
-0.037393235 -0.02158614 0.0994169 0.07015641 -0.00014114937 -0.071193494 0.009337076 -0.05391375
-0.055934973 -0.06859568 -0.024461452 0.08712195 0.004061208 0.0054482743 -0.0064099943 0.01711106
0.005277222 0.07680594 -0.13206576 0.0068525285 0.03087755 0.05544951 -0.03293733 -0.026363371
-0.012082406 -0.02468288 -0.052949883 0.01462249 0.008210165 0.024305161 0.057864733 0.015042085
0.016944554 -0.021127105 0.07069494 0.059258986 0.037645884 0.0711645 -0.03303444 -0.0069426093
0.04352232 -0.0981546 -0.04696999 0.01812729 -0.055121575 0.0708819 -0.0080377245 0.03362016
-0.05215275 -0.034690276 -0.084952295 0.080225416 0.013468084 -0.050660223 0.0020552236 0.03519844
-0.016925275 -0.032274302 0.016235102 -0.019134713 -0.02072141 -0.008941578 0.04347308 -0.010515127
-0.00053153717 -0.013244303 -0.035576098 0.045739632 -0.10416722 0.062465847 0.022509886 0.01702944
-0.09014563 -0.026219117 0.09440921 -0.013070401 -0.044477943 -0.008581609 0.058638535 0.054232094
0.028965877 0.038532395 0.0041762325 0.030657098 -0.00694476 0.055058055 0.076800756 0.011314573
-0.022229554 0.03816732 0.06568989 0.012533927 -0.004054865 0.028352052 -0.043167792 -0.05446464
-0.0020368844 -0.0075045666 -0.113324404 -0.03275722 0.008865823 0.025495687 -0.00267343 0.030327672
0.047980778 -0.038469423 0.055008087 -0.0014023054 -0.006172428 0.06072042 0.009450631 0.07829171
0.03697586 0.06606118 -0.015909044 -0.047227394 0.04857105 -0.015693909 -0.01744481 0.026675554
-0.017556792 -0.030483957 -0.009179844 -0.026556063 0.0042098584 -0.10076794 -0.03394198 0.01569731
-0.054113 0.06480456 0.025244256 -0.026621902 -0.03337453 0.04518218 -0.007296376 -0.034943387
0.0332758 0.0145363705 0.02526136 0.05247395 -0.015941262 0.036397852 0.025691161 0.033319585
-0.0043780953 0.008675387 -0.014290715 -0.05795415 0.01635747 -0.066787645 0.06780502 0.037814282
00000000: a3ee bdbc b168 38bd fc2d 23bd 3893 983d
00000010: 0fbd 113c d505 91bd e0cb d83c e3d7 963d
00000020: 922d ebbc 5cce aa3c e8c8 a33c f4d4 27bc
00000030: cca7 063c 9838 513d 46a0 bd3d b81e 273d
00000040: 3382 2bbc 476e 95bc 5308 6abd 5f3d 68bd
00000050: dd62 da3d f37d ac3c a0bb 53bd c086 a9bc
00000060: 516d a4bd 06e3 b13b 1056 b0bc c0ff 8b3d
00000070: 6efe 923d c0f2 60bd caad 4d3c 23d7 14bd
00000080: 4daa 263d 902b ab3d c001 2a3d 0dc6 debb
00000090: fdcc 00be c031 963c 22b0 063d 0a7b 2f3c
000000a0: ae8a 19bc e9a0 70bc cc48 fc3a 42b5 4f3d
000000b0: 9d0e 78bd 2337 a0ba 29d6 1a3d edad 6dbd
000000c0: bc07 3dbb 3494 333c c884 413d 17eb c1bc
000000d0: 1c43 fa3b 01ad 7fbd 8eba 94bc 010c 58bd
000000e0: e3c3 78bd 2193 c43c 8685 f03c 58a7 193d
000000f0: d847 673d a091 df3b e9c0 a9bd 91da 33bc
00000100: d14d f73c 1703 73bd c626 cdbc 4367 29bd
00000110: 3c30 c53d 8b98 c0bd 36c7 11bd b02f 7d3d
00000120: 11c6 3ebd 1687 b23d 07eb f3bb 68da ee3c
00000130: 5d79 27bd 8c84 5b3d a2ce af3c a70e 16bd
00000140: cd1e 10bd e264 07be 8d63 ab3d 2a8f 35bd
00000150: 341a 88bc 7559 d13b e25e fb3d ca43 11bd
00000160: 115f 553d 4166 34bd 3711 afbc cdde 3b3a
00000170: c764 003d 7217 963c 8fda 0d3d fbb7 563c
00000180: 4f09 23bd 7e17 923c 8f73 45bd cc39 9aba
00000190: b4cb 933c 5645 63bc 2572 a1bc 14e9 1a3d
000001a0: a629 19bd 6bd5 b0bc 169b cb3d 2aae 8f3d
000001b0: 7f01 14b9 e5cd 91bd 89fa 183c aad4 5cbd
000001c0: 121c 65bd e47b 8cbd 6263 c8bc fe6c b23d
000001d0: e213 853b 7087 b23b ee0a d2bb 7e2c 8c3c
000001e0: 8cec ac3b 6f4c 9d3d 3f3c 07be 2d8b e03b
000001f0: eaf2 fc3c 071f 633d 4be9 06bd fff7 d7bc
00000200: 49f5 45bc c033 cabc fae1 58bd 2b93 6f3c
00000210: ee83 063c 9e1b c73c 9203 6d3d 1473 763c
00000220: 4ecf 8a3c c012 adbc 82c8 903d 8db9 723d
00000230: 9232 1a3d b2be 913d 1f4f 07bd d47e e3bb
00000240: 7644 323d 4705 c9bd 9b63 40bd af7f 943c
00000250: 29c7 61bd 882a 913d a9b0 03bc 4bb5 093d
00000260: 1f9e 55bd 6417 0ebd 78fb adbd 394d a43d
00000270: 3da9 5c3c 1881 4fbd eeb0 063b 3d2c 103d
00000280: e0a6 8abc 0f32 04bd 7aff 843c 67c0 9cbc
00000290: f2bf a9bc b27f 12bc d410 323d a447 2cbc
000002a0: db56 0bba a2fe 58bc 3eb8 11bd 7b59 3b3d
000002b0: a055 d5bd 30dc 7f3d a766 b83c 5381 8b3c
000002c0: 469e b8bd 79c9 d6bc 9e59 c13d 3c25 56bc
000002d0: 812e 36bd e199 0cbc f62e 703d 7922 5e3d
000002e0: d949 ed3c 25d4 1d3d c7d8 883b 9824 fb3c
000002f0: df90 e3bb 8e84 613d b749 9d3d c260 393c
00000300: c11a b6bc 5655 1c3d 6c88 863d 1a5b 4d3c
00000310: acde 84bb 9042 e83c b6d0 30bd 5016 5fbd
00000320: 407d 05bb dee8 f5bb a016 e8bd 6f2c 06bd
00000330: f541 113c 55dc d03c b634 2fbb bd71 f83c
00000340: 7e87 443d 1d92 1dbd 2950 613d 90cd b7ba
00000350: 1442 cabb fab5 783d d2d6 1a3c 6757 a03d
00000360: 0074 173d 154b 873d af53 82bc 8371 41bd
00000370: 70f2 463d 8390 80bc 6be8 8ebc b186 da3c
00000380: 43d3 8fbc 7eb9 f9bc 0e67 16bc 1a8c d9bc
00000390: daf2 893b 6c5f cebd bf06 0bbd a597 803c
000003a0: 98a5 5dbd 41b8 843d 0bcd ce3c 2d16 dabc
000003b0: bbb3 08bd f310 393d 7016 efbb cc20 0fbd
000003c0: 354c 083d f529 6e3c e9f0 ce3c edee 563d
000003d0: 4097 82bc ea15 153d 4576 d23c 1e7a 083d
000003e0: 2076 8fbb 3623 0e3c 9a23 6abc 5561 6dbd
000003f0: 1a00 863c f6c7 88bd 5cdd 8a3d 26e3 1a3d

encoder.3.bias f4 [128]
-0.010298274 9.0080575e-05 0.022401378 0.021863611 -0.03345851 -0.057711065 0.013894457 0.04246403
0.03220829 0.06910637 -0.045033276 0.023588404 -0.013826051 0.001955837 0.014068827 0.05801986
0.0376109 0.009783277 -0.024146378 -0.031010887 0.00010294012 -0.020340877 0.038089078 -0.00040998252
0.020715194 0.042941518 0.0049255006 -0.020329911 0.045915708 0.06956865 -0.024769034 0.044762783
0.042115834 0.024052398 0.05610754 -0.040993586 -0.0041287695 0.0017161466 0.023721341 0.06640836
-0.05015059 0.05573755 0.025072858 0.030749895 -0.00019958774 0.013910389 0.06949394 -0.070683464
0.009348965 -0.0460593 0.00827063 0.001772803 -0.014633517 -0.069348276 0.017578552 0.060939215
-0.019615965 0.021617593 -0.032194395 -0.018473899 0.026382837 0.06843625 0.06021656 -0.059546907
-0.017035823 0.045590267 0.045921687 -0.019302212 0.024488809 0.03637314 0.008952312 -0.022116616
0.06598625 -0.05360188 0.014613251 0.03581202 -0.0694853 -0.010852117 -0.024565246 -0.031424224
0.015562883 0.03921731 -0.04135539 0.0108564515 0.0027307249 -0.043468278 -0.041287087 -0.03970282
-0.017209828 0.023208829 -0.07173259 -0.011270516 0.028156675 0.059510987 -0.049527023 0.02629589
0.047663145 -0.054946482 0.036372192 -0.0054517 0.008108058 -0.05073852 0.011999641 0.018388938
-0.01595122 0.050651517 -0.052831717 -0.010407018 0.039325435 0.055863895 0.05922193 0.03762935
0.006852014 -0.010443625 0.06727586 0.06311376 -0.03377141 0.038553186 0.067705825 -0.03751724
0.03198877 -0.01838653 0.003654951 0.03388632 0.024881763 0.050198242 -0.01842962 -0.050618086
00000000: 18ba 28bc a4e9 bc38 1883 b73c 511b b33c
00000010: ca0b 09bd 7062 6cbd 94a5 633c c3ee 2d3d
00000020: d7ec 033d a487 8d3d d074 38bd 783c c13c
00000030: a986 62bc 802d 003b f080 663c 3ca6 6d3d
00000040: e30d 1a3d 0a4a 203c a0ce c5bc 8b0a febc
00000050: 8ee1 d738 e9a1 a6bc 4b03 1c3d ecf2 d6b9
00000060: e9b2 a93c 72e3 2f3d 1866 a13b ea8a a6bc
00000070: 1c12 3c3d 027a 8e3d 6ee8 cabc 2e59 373d
00000080: a781 2c3d 8909 c53c 05d1 653d e4e8 27bd
00000090: a14a 87bb 53f0 e03a 4253 c23c 1b01 883d
000000a0: b46a 4dbd 0f4d 643d 9865 cd3c 34e7 fb3c
000000b0: 6d48 51b9 66e8 633c d752 8e3d 7ec2 90bd
000000c0: 672c 193c ada8 3cbd 8981 073c 665d e83a
000000d0: 6bc1 6fbc 7806 8ebd e500 903c 669b 793d
000000e0: a9b1 a0bc 6117 b13c 45de 03bd 9356 97bc
000000f0: d220 d83c 4e28 8c3d a4a5 763d 75e7 73bd
00000100: b68e 8bbc dcbc 3a3d 6118 3c3d ac1f 9ebc
00000110: c19c c83c 00fc 143d b8ac 123c e82d b5bc
00000120: cd23 873d a58d 5bbd 6b6c 6f3c a0af 123d
00000130: 4f4e 8ebd 14cd 31bc 0e3d c9bc b0b6 00bd
00000140: 76fb 7e3c 54a2 203d 4564 29bd 42df 313c
00000150: f6f5 323b cb0b 32bd a61c 29bd 6d9f 22bd
00000160: a0fb 8cbc 7120 be3c 89e8 92bd f8a7 38bc
00000170: d4a8 e63c cbc1 733d d9dc 4abd 7a6a d73c
00000180: 6e3a 433d 900f 61bd 02fb 143d 2da4 b2bb
00000190: a9d7 043c 32d3 4fbd 249a 443c 66a4 963c
000001a0: 22ac 82bc f777 4f3d 1266 58bd 3282 2abc
000001b0: b513 213d 8ad1 643d b292 723d 3c21 1a3d
000001c0: dc86 e03b bd1b 2bbc edc7 893d c941 813d
000001d0: e453 0abd f2e9 1d3d 5aa9 8a3d adab 19bd
000001e0: a806 033d 599f 96bc e787 6f3b 62cc 0a3d
000001f0: d7d4 cb3c ac9c 4d3d b7f9 96bc e954 4fbd

encoder.6.weight f4 [32, 128]
0.006016053 0.02736531 -0.04180151 -0.051290184 -0.057008173 0.11634592 -0.090032466 0.06541233
0.023485417 -0.009608633 0.026265278 0.057093173 -0.0018590431 0.019839063 0.026652295 -0.010958452
0.054833353 0.1585742 -0.06032495 -0.07794606 0.09633412 0.11075862 0.053726327 -0.019046782
-0.017914569 -0.043015953 -0.0052837925 0.039621383 -0.048280314 -0.042571854 -0.108164355 -0.00514693
0.10480864 -0.03495687 0.12465973 0.07662413 -0.076171964 -0.041332845 -0.002210672 -0.09652036
0.048632886 0.062177896 -0.06503634 -0.07050749 -0.071599804 -0.09149911 0.02910219 -0.026597796
-0.07364618 -0.05332203 0.09379854 0.047197655 0.03234406 -0.004250027 0.050535847 0.03402934
0.022796165 -0.06428712 0.0719657 -0.040681824 0.012710456 -0.028085863 0.06150395 0.05108749
-0.06288688 -0.038183954 -0.056897707 -0.08678931 0.09550552 0.02797644 -0.07050712 -0.069491416
0.027015254 -0.031075923 -0.044215847 -0.078544475 0.03580632 -0.04963908 -0.07469277 -0.012141036
0.015160487 0.014072064 -0.03562748 0.019704364 -0.0002240662 0.076487 -0.049400266 0.070356525
0.019143913 -0.048028678 0.07873446 -0.06313837 0.050794214 0.011573024 0.06811195 0.0636138
-0.078500375 -0.009756596 -0.010367697 -0.10357862 0.007885352 0.061412334 -0.07273305 -0.056783542
0.07699865 -0.02871291 -0.08894426 -0.059427805 0.061996672 0.09948136 0.08474091 -0.023526957
0.043300405 -0.063748546 -0.04834517 0.043556187 0.041295264 -0.115554176 0.0010362559 -0.023557475
0.020212289 -0.033678766 -0.04816618 -0.06290573 0.059865586 0.030469703 0.06418482 -0.025803667
-0.10715935 0.07052983 -0.09553009 0.06289321 -6.3881875e-05 0.018504785 0.050282672 -0.01891155
0.02900801 0.086829744 0.0031522133 0.02814124 0.060783118 -0.041816574 -0.031242618 -0.023781622
0.013161255 0.08536905 0.088882506 -0.05880811 0.021632476 0.012134188 -0.026660815 0.032209538
-0.0019420498 -0.036339387 -0.011164657 0.0881826 -0.018061182 -0.05445198 0.03392282 -0.1335579
0.013606822 -0.056159195 0.021590915 -0.043777604 0.07043608 -0.035843875 -0.07556036 -0.0975768
0.038196236 -0.027050521 0.062364995 0.06864437 0.09734925 -0.09819785 0.008712061 -0.08134763
0.09309377 -0.05985895 -0.05304205 0.026668191 0.06170453 -0.060473535 0.029284252 0.13335474
-0.083195545 -0.100843035 0.11262888 0.0016076321 0.061139464 -0.0613506 0.009500265 -0.0011785846
0.099380895 -0.13239916 0.01393257 0.043929797 0.0017004813 -0.08267294 0.045901023 0.0966313
-0.017359456 -0.045954745 -0.07502198 0.08036244 0.007164689 -0.12726724 -0.08436677 0.007146504
-0.0707636 0.07901375 -0.0077597545 -0.03873267 -0.05820442 0.05052028 0.11538137 -0.032241452
-0.07963208 0.06335283 0.010984673 0.098283775 -0.14740667 0.07554288 0.007682443 0.018172313
-0.012746385 -0.0570477 0.09451345 0.078477554 0.012082777 0.08957623 -0.07781183 0.05636364
0.053462 0.02376077 0.074688435 -0.016569238 -0.09332253 0.07165483 -0.054910567 0.14030653
-0.0055739693 -0.12770627 0.09056323 0.089823335 0.023405934 0.026335362 -0.048371125 -0.104574926
0.0066452147 -0.09105075 -0.08061068 -0.08341454 -0.05444 -0.08251017 -0.11337717 0.08196106
00000000: 4f22 c53b 372d e03c 0f38 2bbd a815 52bd
00000010: 6781 69bd c546 ee3d f162 b8bd e6f6 853d
00000020: 7d64 c03c 876d 1dbc 482a d73c 88da 693d
00000030: 23ab f3ba 8885 a23c ea55 da3c 148b 33bc
00000040: f098 603d 4661 223e 4b17 77bd 2fa2 9fbd
00000050: d34a c53d 6ad5 e23d 2310 5c3d ff07 9cbc
00000060: 93c1 92bc 7f31 30bd aa23 adbb 084a 223d
00000070: 94c1 45bd d35f 2ebd 4685 ddbd 94a7 a8bb
00000080: eaa5 d63d ef2e 0fbd 9a4d ff3d 1ded 9c3d
00000090: 0c00 9cbd a14c 29bd ece0 10bb 77ac c5bd
000000a0: 4733 473d 40ae 7e3d c631 85bd 3b66 90bd
000000b0: eba2 92bd e363 bbbd b767 ee3c 9fe3 d9bc
000000c0: cfd3 96bd 3368 5abd 7319 c03d 5452 413d
000000d0: 347b 043d cf43 8bbb adfe 4e3d 5962 0b3d
000000e0: 06bf ba3c f7a8 83bd c162 933d fca1 26bd
000000f0: 843f 503c 5314 e6bc 91eb 7b3d 1e41 513d
00000100: d6ca 80bd c766 1cbd 920d 69bd 98be b1bd
00000110: 6698 c33d d92e e53c 0966 90bd 8451 8ebd
00000120: 184f dd3c ef92 febc ad1b 35bd eddb a0bd
00000130: a6a9 123d 5952 4bbd 86f8 98bd 32eb 46bc
00000140: b163 783c 848e 663c 1fee 11bd 0c6b a13c
00000150: 50f3 6ab9 37a5 9c3d ef57 4abd 1517 903d
00000160: b2d3 9c3c b8b9 44bd 883f a13d b14e 81bd
00000170: 980d 503d c89c 3d3c 477e 8b3d f447 823d
00000180: cec4 a0bd 21da 1fbc 46dd 29bc 0721 d4bd
00000190: 9031 013c 808b 7b3d 11f5 94bd dc95 68bd
000001a0: 78b1 9d3d 5637 ebbc 6828 b6bd 926a 73bd
000001b0: 39f0 7d3d e2bc cb3d a48c ad3d 9bbb c0bc
000001c0: c45b 313d 998e 82bd 9605 46bd f967 323d
000001d0: 3925 293d aba7 ecbd fad2 873a 9bfb c0bc
000001e0: 3e94 a53c bff2 09bd e649 45bd b8d4 80bd
000001f0: 9e35 753d 999b f93c 5573 833d 3662 d3bc
00000200: 5c76 dbbd f271 903d 48a5 c3bd 28ce 803d
00000210: 52f8 85b8 5997 973c 34f5 4d3d 65ec 9abc
00000220: 35a2 ed3c cbd3 b13d 5d95 4e3b 7588 e63c
00000230: b8f7 783d db47 2bbd 85f0 ffbc add1 c2bc
00000240: 4ea2 573c f8d5 ae3d 0808 b63d c6e0 70bd
00000250: 9736 b13c 79ce 463c c867 dabc 26ee 033d
00000260: 618c feba 9cd8 14bd f7eb 36bc 1499 b43d
00000270: 0bf5 93bc 0a09 5fbd a8f2 0a3d 67c3 08be
00000280: 26ef 5e3c 2f07 66bd 6edf b03c 2550 33bd
00000290: cb40 903d 07d1 12bd 64bf 9abd 58d6 c7bd
000002a0: a873 1c3d 0e99 ddbc 7072 7f3d 6b95 8c3d
000002b0: 0b5f c73d f41b c9bd 08bd 0e3c 9699 a6bd
000002c0: f2a7 be3d a92e 75bd 9f42 59bd 4077 da3c
000002d0: e4bd 7c3d 19b3 77bd 87e5 ef3c 258e 083e
000002e0: 6d62 aabd cb86 cebd f8a9 e63d 2fb7 d23a
000002f0: 606d 7a3d c44a 7bbd 00a7 1b3c bd7a 9aba
00000300: 3688 cb3d a593 07be 6f45 643c bbef 333d
00000310: afe2 de3a 6e50 a9bd b602 3c3d a2e6 c53d
00000320: 6b35 8ebc 0b3b 3cbd 20a5 99bd 1095 a43d
00000330: c4c5 ea3b 5852 02be 7cc8 acbd 382d ea3b
00000340: 82ec 90bd f6d1 a13d 8a45 febb 26a6 1ebd
00000350: c267 6ebd 5aee 4e3d 114d ec3d 9d0f 04bd
00000360: 2516 a3bd 21bf 813d 0ff9 333c 0149 c93d
00000370: c6f1 16be 3ab6 9a3d 01bd fb3b 1ade 943c
00000380: 37d6 50bc d9aa 69bd 4590 c13d d7b8 a03d
00000390: d7f6 453c be73 b73d cf5b 9fbd 8fdd 663d
000003a0: f8fa 5a3d f2a5 c23c 40f6 983d 36bc 87bc
000003b0: e21f bfbd c4bf 923d e7e9 60bd 84ac 0f3e
000003c0: d8a5 b6bb 6fc5 02be 3779 b93d 4cf5 b73d
000003d0: cdbd bf3c 42bd d73c cd20 46bd 612b d6bd
000003e0: 1ac0 d93b d178 babd 3617 a5bd 3ed5 aabd
000003f0: 7afc 5ebd 18fb a8bd 4a32 e8bd 33db a73d

encoder.6.bias f4 [32]
0.022036526 -0.030575197 0.018913258 0.061497994 0.08306822 -0.036155116 -0.06795124 -0.02247193
0.0052799024 0.03446523 -0.05507312 -0.07820865 0.1136376 -0.10666348 0.0062281154 0.07323832
-0.022203622 -0.044018045 0.034492843 -0.036806025 -0.020247791 -0.088767864 0.041080605 0.041970085
0.0060565216 -0.0347145 0.032431763 0.060627468 0.01895227 -0.06499181 -0.045296554 0.035578333
00000000: f285 b43c d678 fabc faef 9a3c 52e5 7b3d
00000010: ac1f aa3d 6317 14bd 052a 8bbd 0e17 b8bc
00000020: 0803 ad3b 6a2b 0d3d 5a94 61bd db2b a0bd
00000030: d4ba e83d 6272 dabd 3815 cc3b f9fd 953d
00000040: 5fe4 b5bc 444c 34bd 5e48 0d3d eac1 16bd
00000050: b2de a5bc edcb b5bd 2344 283d d3e8 2b3d
00000060: c975 c63b cb30 0ebd 2bd7 043d 8254 783d
00000070: ca41 9b3c 6d1a 85bd e188 39bd 96ba 113d

decoder.0.weight f4 [128, 32]
0.0004693703 -0.09268812 -0.08592246 0.111172885 -0.063795224 -0.18518993 0.11963641 0.19005407
-0.07837631 -0.093351625 -0.1900862 -0.036211014 0.1475129 -0.021576585 -0.05284658 0.034878157
0.009494576 -0.07715196 -0.0145724155 -0.085696965 -0.16508786 4.7993177e-05 0.12883748 0.17278817
0.03655152 0.034650482 -0.16869538 0.1048234 0.04626701 -0.20329733 -0.19696207 -0.061054435
-0.101018034 -0.18145025 0.17062694 -0.11669289 0.037574448 -0.08790539 0.1575823 0.10510812
0.14745508 -0.16030602 0.12999749 0.14248583 -0.09698553 -0.08133452 0.08855608 -0.014319185
-0.02810124 0.037825607 -0.0772674 0.0034685323 0.037761923 0.099140756 -0.13500448 0.12806408
0.0538067 -0.06620056 0.08273976 -0.0712399 -0.14357735 0.15525387 -0.04682126 0.19670588
0.08455424 -0.10190206 0.102436736 0.09775178 0.047510076 0.042397533 0.19710712 -0.06940134
-0.037132543 -0.20861034 0.02980372 -0.1451623 -0.03109731 0.14028753 -0.11072088 -0.032367297
0.049995836 0.10764652 0.024796056 -0.012840657 -0.025641987 0.11368066 0.080220066 -0.06808113
0.14612398 -0.092063054 0.11660726 0.025371348 0.065308705 0.119874455 -0.14524952 -0.05398164
-0.11591459 0.024571884 0.16584866 -0.046144232 0.081535324 -0.17691511 0.11067284 -0.057731368
-0.1451511 0.008495439 -0.106747255 -0.17632481 -0.014674372 0.21249337 0.15825294 0.20266828
0.016314212 0.077248506 0.008726178 -0.104193725 0.14401825 -0.22760747 -0.16612525 -0.08608343
0.20526394 0.03359796 -0.10877195 -0.095152944 0.15990676 -0.12795816 0.057766017 0.047819722
-0.038312588 0.09834019 -0.0009512382 0.17793874 0.17159024 0.08482554 0.16915336 -0.031571228
0.0141779715 -0.12486304 -0.03842679 -0.06564474 -0.05891266 -0.11563467 0.0056632375 -0.013571709
0.09678609 0.15982457 -0.12107743 -0.051309098 0.035635665 0.20710932 -0.09171038 0.09103266
-0.015637187 0.03356965 0.054094188 0.11678819 0.10843197 -0.118108675 -0.06514623 -0.1007219
0.1384335 0.13641255 -0.12596275 -0.068359725 0.0101968385 -0.006151202 -0.20666175 0.03460338
0.030125597 0.0867731 0.018309591 0.08359701 0.16393827 0.09505397 -0.20204633 0.08106263
-0.021441672 0.04971164 0.21296579 -0.037071537 0.13926524 -0.11411693 0.03975992 -0.041131545
-0.14565958 0.18389015 -0.034196258 0.017538916 -0.086864665 -0.12642626 0.057045463 0.150196
-0.023100512 -0.16572206 -0.048300646 -0.012698005 -0.03276141 0.13211843 0.15983307 0.07847708
-0.12470626 0.17190056 -0.062327705 -0.12934072 0.12419031 0.14319263 0.20051648 -0.019367967
0.087288894 0.12948692 -0.072997615 0.118529916 -0.18900071 -0.014922999 0.117175736 -0.07012285
-0.1321229 0.14440052 0.10534463 0.12449351 0.12299311 -0.082997434 0.060992982 0.09722548
-0.03327637 -0.11500245 0.14017314 -0.095631965 0.026258942 0.08480041 -0.09790013 0.12828013
0.10181528 0.11699443 -0.17631257 0.10623479 -0.15541692 0.1135315 0.16744618 0.1474284
-0.17527118 -0.12723304 0.11389969 -0.060991857 0.13346645 0.04989043 -0.007974047 -0.07923655
0.13018292 -0.118651904 0.17089754 0.1294357 -0.13669443 0.1392355 -0.16348977 -0.109963186
00000000: d115 f639 45d3 bdbd 1df8 afbd 9cae e33d
00000010: 12a7 82bd 6ea2 3dbe ef03 f53d 899d 423e
00000020: c283 a0bd 232f bfbd f5a5 42be 0052 14bd
00000030: 9f0d 173e 61c1 b0bc a875 58bd 66dc 0e3d
00000040: 238f 1b3c d901 9ebd 24c1 6ebc e481 afbd
00000050: cb0c 29be 484c 4938 f9ed 033e 62ef 303e
00000060: 0cb7 153d aaed 0d3d 7bbe 2cbe a7ad d63d
00000070: 7a82 3d3d 2d2d 50be 6db0 49be 3714 7abd
00000080: 8be2 cebd 18ce 39be d4b8 2e3e affc eebd
00000090: aae7 193d be07 b4bd 415d 213e ed42 d73d
000000a0: 77fe 163e 4327 24be 101e 053e cee7 113e
000000b0: 59a0 c6bd b692 a6bd e45c b53d 049b 6abc
000000c0: 9234 e6bc 06ef 1a3d 5f3e 9ebd 5150 633b
000000d0: 3fac 1a3d 4f0a cb3d 9d3e 0abe 3b23 033e
000000e0: 6a64 5c3d 2994 87bd 7773 a93d 3ae6 91bd
000000f0: f105 13be dffa 1e3e a6c7 3fbd 446d 493e
00000100: c62a ad3d 07b2 d0bd 5aca d13d 1632 c83d
00000110: ed99 423d 09a9 2d3d 73d6 493e 4a22 8ebd
00000120: 4b18 18bd f39d 55be ee26 f43c 6da5 14be
00000130: c9bf febc 89a7 0f3e a1c1 e2bd 9293 04bd
00000140: 6fc8 4c3d c775 dc3d 1921 cb3c 9e61 52bc
00000150: 250f d2bc 68d1 e83d 6b4a a43d 1f6e 8bbd
00000160: 86a1 153e 8e8b bcbd cacf ee3d 93d7 cf3c
00000170: 92c0 853d bd80 f53d 4abc 14be da1b 5dbd
00000180: a164 edbd fa4a c93c 3bd4 293e bc01 3dbd
00000190: fefb a63d 3c29 35be 71a8 e23d ba77 6cbd
000001a0: 7da2 14be 7430 0b3c 4e9e dabd 7e8e 34be
000001b0: c76c 70bc dd97 593e 0f0d 223e 4688 4f3e
000001c0: 62a5 853c 7734 9e3d 3ef8 0e3c 8563 d5bd
000001d0: 8579 133e ef11 69be bd1c 2abe 824c b0bd
000001e0: b630 523e 049e 093d d4c3 debd 8cdf c2bd
000001f0: 99be 233e 7707 03be 0f9c 6c3d 9dde 433d
00000200: a9ed 1cbd 9566 c93d 845c 79ba 9335 363e
00000210: 5ab5 2f3e 03b9 ad3d 8a36 2d3e d550 01bd
00000220: b94a 683c 32b8 ffbd 6965 1dbd c070 86bd
00000230: 674e 71bd dfd1 ecbd ae92 b93b e05b 5ebc
00000240: c937 c63d 0da9 233e 72f7 f7bd 7d29 52bd
00000250: b4f6 113d 7714 543e a7d2 bbbd 556f ba3d
00000260: 8f19 80bc 5480 093d de91 5d3d a62e ef3d
00000270: 9511 de3d f6e2 f1bd 636b 85bd 4947 cebd
00000280: 83c1 0d3e bbaf 0b3e 61fc 00be 2f00 8cbd
00000290: a410 273c 0690 c9bb 239f 53be 46bc 0d3d
000002a0: f5c9 f63c 18b6 b13d fffd 953c e934 ab3d
000002b0: 6fdf 273e a8ab c23d 3ce5 4ebe 2a04 a63d
000002c0: 72a6 afbc 6f9e 4b3d b413 5a3e 53d8 17bd
000002d0: 8c9b 0e3e 23b6 e9bd 4cdb 223d 8d79 28bd
000002e0: c927 15be b34d 3c3e 6011 0cbd c6ad 8f3c
000002f0: 1ae6 b1bd e375 01be 81a8 693d fbcc 193e
00000300: 493d bdbc 0bb3 29be e6d6 45bd 4b0b 50bc
00000310: d430 06bd 0e4a 073e 48ab 233e 97b8 a03d
00000320: ff65 ffbd b306 303e 564b 7fbd e571 04be
00000330: 7d57 fe3d 17a1 123e 3154 4d3e 92a9 9ebc
00000340: 85c4 b23d 3898 043e c67f 95bd d0bf f23d
00000350: 6789 41be 987f 74bc d5f9 ef3d 929c 8fbd
00000360: 3a4b 07be bbdd 133e edbe d73d 74f6 fe3d
00000370: d0e3 fb3d 8ffa a9bd c7d3 793d 271e c73d
00000380: ce4c 08bd 6886 ebbd 8c89 0f3e b1da c3bd
00000390: fe1c d73c d6ab ad3d dd7f c8bd de5b 033e
000003a0: 8884 d03d c79a ef3d 488b 34be a091 d93d
000003b0: 9d25 1fbe 3483 e83d 0377 2b3e 78f7 163e
000003c0: 4a7a 33be 6149 02be 3e44 e93d 99d2 79bd
000003d0: 6eab 083e e859 4c3d 94a5 02bc c646 a2bd
000003e0: ac4e 053e c5ff f2bd c4ff 2e3e cb8a 043e
000003f0: a0f9 0bbe c093 0e3e dd69 27be 6134 e1bd

decoder.0.bias f4 [128]
-0.026304366 0.12086136 -0.012343175 -0.02227768 -0.020690858 0.037942473 0.19441763 -0.004448822
0.024819879 0.070124455 -0.07883367 0.04653185 -0.13848957 0.058584556 0.11804926 -0.005038238
0.19360054 0.1050122 0.00940351 0.047900226 -0.09403735 -0.08251751 0.15384613 0.10245371
0.12729338 0.14613834 0.06864881 -0.055628866 0.060186286 -0.024473682 0.096462876 -0.11581552
-0.01095858 0.09229913 -0.07488553 0.15779638 0.10695038 -0.04509962 0.10320668 0.010110451
-0.06312472 -0.11247727 -0.06796165 0.09735008 0.13055097 -0.065477714 0.13094088 -0.0833217
0.13555609 0.03469854 0.13587211 -0.0846044 -0.09139881 -0.09518798 -0.05393724 0.099062644
-0.01896335 0.059232596 0.014561179 0.032910213 0.07136552 -0.008998716 0.19036599 -0.1098114
0.04805812 -0.07818937 0.058506425 0.003121081 0.17791052 0.12268549 0.16691141 -0.12643483
-0.035707023 0.037989844 0.024391059 0.07046384 -0.023094647 -0.0009947314 -0.025600897 -0.025745763
0.1560694 -0.04141002 -0.097700775 -0.009920764 0.013196986 -0.10303725 0.042641215 0.16678107
0.0027816999 -0.11411354 -0.011062469 -0.11519623 -0.09643619 -0.05738924 -0.11047931 -0.039539997
-0.07088661 0.11716333 -0.046891823 -0.05890299 0.11335257 -0.0028185036 -0.024665713 0.0045703384
-0.05625836 -0.052522503 -0.07334529 -0.08584565 -0.033734836 0.16927324 0.09939899 -0.08906138
0.03658402 -0.1152513 0.09295777 0.059949677 -0.101051554 -0.094468206 -0.10649017 -0.02680914
0.04747017 0.11571919 0.032172352 0.014754154 0.08946283 0.037709575 -0.0138171585 0.004584527
00000000: 417c d7bc 2986 f73d 073b 4abc ae7f b6bc
00000010: e07f a9bc 9169 1b3d 6a15 473e 6cc7 91bb
00000020: 0f53 cb3c 699d 8f3d 8c73 a1bd 2e98 3e3d
00000030: 36d0 0dbe 5cf6 6f3d cfc3 f13d ce17 a5bb
00000040: 383f 463e a310 d73d 2e11 1a3c 0733 443d
00000050: a796 c0bd f1fe a8bd d789 1d3e 40d3 d13d
00000060: 3259 023e 4aa5 153e bf97 8c3d 18db 63bd
00000070: e585 763d 087d c8bc 548e c53d b030 edbd
00000080: 9e8b 33bc 5407 bd3d 965d 99bd 6095 213e
00000090: cd08 db3d 61ba 38bd 065e d33d 4ea6 253c
000000a0: 8847 81bd 7c5a e6bd 7a2f 8bbd 7b5f c73d
000000b0: 27af 053e 2e19 86bd 5e15 063e 91a4 aabd
000000c0: 37cf 0a3e 0e20 0e3d 0f22 0b3e 1245 adbd
000000d0: 4d2f bbbd eaf1 c2bd 4ced 5cbd 5be1 ca3d
000000e0: 0759 9bbc e19d 723d 0392 6e3c dccc 063d
000000f0: 1628 923d 5a6f 13bc 4def 423e cde4 e0bd
00000100: 97d8 443d c021 a0bd 6fa4 6f3d 0d8b 4c3b
00000110: 2d2e 363e 8842 fb3d d3ea 2a3e 2278 01be
00000120: 8741 12bd 3d9b 1b3d c2cf c73c 594f 903d
00000130: fc30 bdbc a661 82ba f9b8 d1bc c7e8 d2bc
00000140: a8d0 1f3e 8e9d 29bd 5817 c8bd b38a 22bc
00000150: 2c38 583c 3205 d3bd 8ea8 2e3d a8c8 2a3e
00000160: 2e4d 363b 5cb4 e9bd 5c3f 35bc 00ec ebbd
00000170: 5680 c5bd fb10 6bbd fa42 e2bd b1f4 21bd
00000180: 002d 91bd 54f3 ef3d a411 40bd 4344 71bd
00000190: 6425 e83d a5b6 38bb c00f cabc c7c2 953b
000001a0: 2b6f 66bd d621 57bd 0e36 96bd d8cf afbd
000001b0: 8a2d 0abd f755 2d3e b391 cb3d d065 b6bd
000001c0: 20d9 153d e008 ecbd a560 be3d cb8d 753d
000001d0: 1ef4 cebd 8c78 c1bd 8517 dabd d79e dbbc
000001e0: 1570 423d 2ffe ec3d 28c7 033d 68bb 713c
000001f0: 4a38 b73d 5b75 1a3d 5d61 62bc cd39 963b

decoder.3.weight f4 [256, 128]
-0.0120560285 0.11979622 -0.036308676 -0.027625415 -0.032508098 -0.05394686 -0.06646573 0.055658616
0.06254676 0.09221133 0.039000876 -0.0016438344 -0.017296942 -0.07729746 0.101296164 0.10975213
-0.058343697 0.0704099 -0.055401575 0.06547816 -0.03456898 0.038415674 0.016539164 -0.06933062
0.008309298 0.047830176 -0.13795641 0.07010206 0.015134572 -0.100840315 0.02815329 -0.091233544
-0.0015394744 0.10270493 -0.04893862 0.023245862 0.0385892 -0.11504146 -0.042021077 -0.09719572
-0.057236254 -0.07061827 -0.04884278 -0.01628123 0.015048687 -0.05568851 0.065535106 0.06574634
0.042000957 -0.02374066 -0.049581256 -0.045828924 -0.057224628 -0.07899535 -0.061685562 -0.05460076
-0.11496934 -0.02963159 -0.08367848 0.011462147 0.053843055 -0.07177657 -0.038076192 -0.13288839
0.048592325 0.09765027 0.058120146 -0.008823358 -0.035997126 0.055779576 -0.07659385 0.023873953
-0.01668746 0.111418486 0.025838004 -0.020370938 0.025251951 -0.025134107 -0.13133441 0.050468028
-0.057143394 0.0674041 0.07763695 0.09545383 0.068897925 -0.047320627 -0.036089126 0.06512289
0.08455199 -0.04777664 0.06783809 -0.08087084 -0.02745738 0.038887206 0.00076102396 0.039646123
0.09376169 0.023061497 -0.0052816845 0.026064757 -0.03927105 -0.025388557 -0.0015689987 0.07147904
0.049004536 -0.036909726 -0.020930761 -0.005329945 0.04832811 0.061045792 0.0901744 -0.05968484
0.036866166 -0.037637226 0.07499117 -0.057688784 -0.031849656 -0.046253376 -0.06350206 0.0014348967
-0.09192045 -0.041669518 0.041035056 0.015065995 -0.022255436 0.06986045 -0.05718009 0.06053211
-0.0029063954 0.046822567 0.005276682 0.0073012775 -0.055357583 -0.06998371 -0.013030276 0.10003052
-0.064409986 -0.04526696 0.077223286 -0.037274607 0.011845058 -0.05639126 -0.024406169 0.028907798
0.03567353 0.074180044 -0.067543976 -0.03463207 -0.008134569 -0.017714191 0.021848097 0.042097285
0.049330905 -0.090195075 -0.10636707 -0.006143871 0.07996438 0.07049853 0.020303663 0.10425937
0.065459 0.0377807 0.008964526 -0.044418193 0.024796087 0.08792274 -0.006209391 0.04685535
-0.034324262 -0.004673868 -0.051215343 -0.12699339 -0.06118112 0.07360896 0.021602409 -0.05817215
0.0049727564 0.04275606 0.06257102 0.018003173 -0.005427159 -0.05512143 -0.040598445 -0.025180092
-0.04552437 -0.015620507 -0.0049695033 0.069564775 -0.091047905 0.025772156 -0.040892564 0.0054660174
0.036019307 -0.032371737 0.0698174 0.058289822 0.010766045 0.07166279 0.020631284 0.06752456
0.02053173 0.029132113 -0.08338067 0.05494651 -0.0045377486 -0.047202226 0.008296303 0.052220903
-0.037300233 -0.14706355 -0.057185106 -0.007975634 -0.009825865 0.00070830097 0.043965723 0.009757276
-0.0409533 -0.041336417 0.11121092 -0.03176975 -0.12550059 0.060084652 -0.08936291 0.090741605
-0.032302275 0.032587588 -0.043096635 0.029852523 -0.0059397924 0.09666596 -0.08015947 0.038235255
0.008964401 -0.014354061 -0.0084711565 0.053352375 0.08557488 -0.078455076 0.015846595 -0.04287539
0.025824264 0.07236916 -0.112398446 -0.034016285 0.07429055 -0.072074614 -0.05779166 0.02689486
-0.05071477 0.046991505 -0.022921283 0.06027273 0.04439412 0.047317278 -0.0214031 -0.12064743
00000000: a686 45bc b857 f53d 68b8 14bd b24e e2bc
00000010: 3627 05bd 62f7 5cbd 2f1f 88bd 4afa 633d
00000020: 8418 803d 4bd9 bc3d 62bf 1f3d ee75 d7ba
00000030: 51b2 8dbc 214e 9ebd 5d74 cf3d bac5 e03d
00000040: cdf9 6ebd 1133 903d c3ec 62bd 6a19 863d
00000050: 3498 0dbd c159 1d3d 247d 873c 36fd 8dbd
00000060: b923 083c 93e9 433d 7244 0dbe ab91 8f3d
00000070: fff6 773c 5e85 cebd baa1 e63c a7d8 babd
00000080: 30c8 c9ba f656 d23d dd73 48bd 1b6e be3c
00000090: b50f 1e3d db9a ebbd 4b1e 2cbd 8d0e c7bd
000000a0: 9070 6abd 50a0 90bd 5e0f 48bd 3760 85bc
000000b0: c58e 763c a319 64bd 4537 863d 04a6 863d
000000c0: 3209 2c3d c67b c2bc b715 4bbd 1cb7 3bbd
000000d0: 5f64 6abd 50c8 a1bd 00aa 7cbd 0ca5 5fbd
000000e0: 0c75 ebbd f3bd f2bc 9f5f abbd bbcb 3b3c
000000f0: 898a 5c3d 98ff 92bd c8f5 1bbd e513 08be
00000100: bf08 473d ddfc c73d 640f 6e3d d98f 10bc
00000110: b971 13bd 2079 643d 3ddd 9cbd 4f93 c33c
00000120: 24b4 88bc 602f e43d 39aa d33c f4e0 a6bc
00000130: 2edd ce3c 0be6 cdbc 877c 06be 90b7 4e3d
00000140: 310f 6abd 290b 8a3d 1f00 9f3d 4c7d c33d
00000150: 5b1a 8d3d 46d3 41bd 31d2 13bd 265f 853d
00000160: 9829 ad3d 70b1 43bd b2ee 8a3d 9c9f a5bd
00000170: 4dee e0bc 3148 1f3d 747f 473a f963 223d
00000180: 2106 c03d 77eb bc3c fb11 adbb c285 d53c
00000190: aeda 20bd aafb cfbc dca6 cdba 9a63 923d
000001a0: fbb8 483d a72e 17bd fd76 abbc d2a6 aebb
000001b0: b2f3 453d 270b 7a3d 5bad b83d 1778 74bd
000001c0: fa00 173d 7e29 1abd f894 993d 134b 6cbd
000001d0: c974 02bd 2e74 3dbd 5e0d 82bd 2513 bc3a
000001e0: ca40 bcbd a8ad 2abd 6014 283d 5dd7 763c
000001f0: 0851 b6bc ff12 8f3d ac35 6abd 85f0 773d
00000200: 3979 3ebb 05c9 3f3d 04e8 ac3b 8e3f ef3b
00000210: a2be 62bd 9f53 8fbd f07c 55bc cddc cc3d
00000220: 62e9 83bd d969 39bd 3e27 9e3d 42ad 18bd
00000230: c611 423c 86fa 66bd 72ef c7bc 0cd0 ec3c
00000240: 681e 123d b5eb 973d 7f54 8abd 5cda 0dbd
00000250: db46 05bc 5a1d 91bc c8fa b23c 346e 2c3d
00000260: 340f 4a3d 32b8 b8bd fad6 d9bd 8752 c9bb
00000270: 5dc4 a33d 8961 903d de53 a63c f085 d53d
00000280: 5e0f 863d efbf 1a3d f2df 123c daef 35bd
00000290: 2a21 cb3c d610 b43d 2678 cbbb 65eb 3f3d
000002a0: 9997 0cbd 3f27 99bb 2ec7 51bd 8e0a 02be
000002b0: 0e99 7abd 4bc0 963d 89f7 b03c ec45 6ebd
000002c0: 81f2 a23b fa20 2f3d 3c25 803d 647b 933c
000002d0: 4fd6 b1bb 02c7 61bd 8e4a 26bd 7b46 cebc
000002e0: c377 3abd 28ed 7fbc 37d7 a2bb fa77 8e3d
000002f0: 5377 babd 2120 d33c f67e 27bd 471c b33b
00000300: fb88 133d 3a98 04bd 6dfc 8e3d 4fc1 6e3d
00000310: 1164 303c f1c3 923d f002 a93c 514a 8a3d
00000320: 2932 a83c 78a6 ee3c 7cc3 aabd 970f 613d
00000330: 65b1 94bb 1f57 41bd 38ed 073c 96e5 553d
00000340: 21c8 18bd d497 16be ee3a 6abd 3cac 02bc
00000350: aafc 20bc 46ad 393a 6715 343d fbdc 1f3c
00000360: a6be 27bd 6050 29bd 8dc2 e33d ff20 02bd
00000370: 3a83 00be 531b 763d e703 b7bd bcd6 b93d
00000380: 644f 04bd 907a 053d 1986 30bd 478d f43c
00000390: 97a2 c2bb cef8 c53d a62a a4bd 929c 1c3d
000003a0: 6cdf 123c 4c2d 6bbc 9bca 0abc 0588 5a3d
000003b0: e241 af3d 0ead a0bd b8d0 813c 1b9e 2fbd
000003c0: 688d d33c 4836 943d 2831 e6bd a954 0bbd
000003d0: a525 983d db9b 93bd f3b6 6cbd 9c52 dc3c
000003e0: 4aba 4fbd 2a7a 403d 6ac5 bbbc 8ae0 763d
000003f0: 9cd6 353d c3cf 413d 8e55 afbc 0016 f7bd
