Trained Autoencoders/best_autoencoder_weights_default_of_credit_card_clients.pth (torch, 560094 bytes, 40 tensors)

encoder.0.weight f4 [256, 89]
-0.014347442 0.06264058 0.039107796 0.109399736 0.14676805 -0.12095393 0.093281075 -0.060068913
0.14936087 -0.0038158025 0.10640293 0.0439608 -0.021947738 -0.018279 0.00028913334 0.08085609
0.02755979 -0.06853628 0.013755865 -0.03352221 0.028653432 -0.06704355 0.021921752 -0.07580799
-0.0050303005 -0.031283543 -0.042149767 0.019341595 0.030040769 0.005168157 -0.015879668 0.00384623
-0.03986146 0.054996412 -0.039625056 -0.014292321 -0.000648584 0.015091433 0.028754087 -0.004284918
-0.00062592234 0.06146537 -0.03912547 -0.04015725 -0.03411854 -0.0054118917 0.06518708 -0.038256895
-0.009233453 -0.03494227 -0.0029116818 0.06294176 -0.056929044 -0.058644507 0.040048003 0.006760698
0.040100176 8.9519046e-05 0.028322192 -0.03713005 0.041504815 0.027428912 0.029023109 0.04081065
0.014556644 -0.014174276 -0.0830646 0.027619742 0.0014003487 -0.031188007 -0.03901208 -0.07317186
-0.041920338 -0.027041037 0.00641435 -0.04259691 -0.064556114 0.05895032 0.0074379677 0.002568113
0.025134375 0.031050326 0.02889004 0.036362097 0.06896917 -0.009582265 -0.05513555 0.07727132
-0.029382193 -0.09979667 0.07366239 0.01736145 -0.10049148 -0.16481006 0.059844412 0.12494562
0.038400237 0.036276285 0.008834943 -0.13015163 0.001155409 -0.04322137 0.069317006 -0.05416815
0.076703236 -0.033617556 -0.09267446 -0.025407031 -0.06413779 0.017047703 -0.031617835 -0.041178748
-0.075862676 -0.010979315 -0.07916263 -0.04318465 0.0014066853 -0.008259788 -0.07129874 -0.01837651
0.017362995 0.04939114 -0.002992795 -0.04491623 -0.016398866 -0.008576455 0.018341102 -0.015578526
0.06788386 -0.07747356 0.0072518312 -0.058200747 -0.043222487 0.03003079 -0.012775751 -0.013884536
0.020774914 0.017615428 -0.0409296 -0.038178954 0.0039963825 0.040022913 0.051787194 0.023135046
-0.07143661 0.055405885 0.030504419 0.046524312 0.054234482 0.032101713 -0.0141702825 0.060692824
0.03862131 0.038757857 -0.0018622655 -0.06256206 0.031202806 0.008300314 0.023743246 0.028057106
-0.04081937 0.03611192 0.072453395 0.010613544 0.03327287 -0.02268089 0.0964768 0.059883267
-0.0022514393 0.0052675535 0.015393952 -0.0025318395 0.009301803 -0.05174822 0.037740033 0.062736765
0.03999575 0.043205153 0.16353157 -0.14380516 -0.044981245 -0.015257841 0.055343978 0.03492674
-0.11780569 -0.029629067 -0.116702616 -0.046481505 -0.13424264 0.08370847 0.06635441 -0.0065278886
-0.084581666 0.15163088 0.024959058 -0.016826538 0.06685607 0.061115943 -0.037686653 -0.051149115
-0.04180499 0.07805418 -0.010152542 -0.012768103 0.0037803797 0.061688423 0.0006625097 0.0132812215
0.0062085763 0.022214115 0.033315532 0.0039711283 0.04474848 -0.012135598 0.0057708845 0.07751727
0.00972451 0.014070527 0.0433471 -0.022687329 0.08642761 0.1041108 0.11713973 -0.020247074
0.035906628 -0.02908998 -0.01388613 -0.029036786 -0.025861448 0.019083528 0.0176019 -0.015107026
-0.03219647 -0.023408143 0.069011524 0.027643261 0.014910924 -0.038929008 -0.043880265 0.029575491
-0.026218332 0.030106064 -0.032597214 0.039241605 -0.05528059 -0.020530425 0.0017397832 0.021714047
0.029062232 0.0456075 0.0441529 -0.031596787 0.020666247 -0.05631115 -0.026609505 -0.018506682
00000000: 8911 6bbc b449 803d 7f2f 203d f80c e03d
00000010: 5d4a 163e b2b6 f7bd 260a bf3d d20a 76bd
00000020: 0ef2 183e 8b12 7abb c8e9 d93d 3d10 343d
00000030: becb b3bc d7bd 95bc d296 9739 e197 a53d
00000040: 12c5 e13c c05c 8cbd 4860 613c 964e 09bd
00000050: 9aba ea3c 214e 89bd 3f95 b33c 3841 9bbd
00000060: 38d5 a4bb 2c23 00bd 3ca5 2cbd 4472 9e3c
00000070: 0f18 f63c a559 a93b 1416 82bc 0811 7c3b
00000080: c545 23bd eb43 613d e24d 22bd 572a 6abc
00000090: bc05 2aba 0f42 773c b18d eb3c 7f68 8cbb
000000a0: f014 24ba 1dc3 7b3d 0742 20bd ee7b 24bd
000000b0: e2bf 0bbd 3d56 b1bb ce80 853d 43b3 1cbd
000000c0: e947 17bc a01f 0fbd ead1 3ebb 9ce7 803d
000000d0: 6e2e 69bd 3935 70bd 6009 243d d888 dd3b
000000e0: 1540 243d 2cbc bb38 f103 e83c ae15 18bd
000000f0: f400 2a3d 99b2 e03c dfc1 ed3c 1129 273d
00000100: fd7e 6e3c 393b 68bc c61d aabd cc42 e23c
00000110: e88b b73a fe7d ffbc 21cb 1fbd 21db 95bd
00000120: a9b4 2bbd 2a85 ddbc 782f d23b 197a 2ebd
00000130: ff35 84bd e475 713d 32ba f33b c94d 283b
00000140: 9be6 cd3c 415d fe3c ceaa ec3c 6cf0 143d
00000150: b53f 8d3d effe 1cbc d1d5 61bd 6d40 9e3d
00000160: edb2 f0bc 3262 ccbd 4fdc 963d 9939 8e3c
00000170: 7ace cdbd f8c3 28be 6a1f 753d 7de3 ff3d
00000180: 9149 1d3d 7196 143d 70c0 103c 7846 05be
00000190: 1871 973a e408 31bd 13f6 8d3d 6cdf 5dbd
000001a0: 9616 9d3d 90b2 09bd 1bcc bdbd 6822 d0bc
000001b0: ac5a 83bd a0a7 8b3c b481 01bd 0cab 28bd
000001c0: e45d 9bbd 96e2 33bc 0420 a2bd 63e2 30bd
000001d0: 8760 b83a 1054 07bc 1305 92bd 568a 96bc
000001e0: d73c 8e3c 5d4e 4a3d c522 44bb 15fa 37bd
000001f0: ea56 86bc 4284 0cbc 1440 963c 133d 7fbc
00000200: b106 8b3d 75aa 9ebd c5a0 ed3b e863 6ebd
00000210: 100a 31bd 2203 f63c 6251 51bc f77b 63bc
00000220: 2730 aa3c 3b4e 903c cca5 27bd 8961 1cbd
00000230: 16f4 823b 11ef 233d cf1e 543d b585 bd3c
00000240: 5b4d 92bd 48f1 623d 67e4 f93c 4790 3e3d
00000250: fa24 5e3d 167d 033d 792a 68bc 0a99 783d
00000260: 6131 1e3d 8fc0 1e3d 4317 f4ba 8a20 80bd
00000270: 079d ff3c 0afe 073c 3281 c23c 04d8 e53c
00000280: 3632 27bd 18ea 133d 7262 943d 6ee4 2d3c
00000290: 2249 083d 46cd b9bc a195 c53d 2848 753d
000002a0: e28c 13bb 719b ac3b ea36 7c3c 38ed 25bb
000002b0: 9766 183c f1f5 53bd 4b95 1a3d 227c 803d
000002c0: 95d2 233d e3f7 303d d274 273e a941 13be
000002d0: 413e 38bd 06fc 79bc 5eb0 623d 570f 0f3d
000002e0: 1c44 f1bd a8b8 f2bc c801 efbd 6463 3ebd
000002f0: e776 09be 596f ab3d d2e4 873d e6e7 d5bb
00000300: 2739 adbd 2045 1b3e f076 cc3c cfd7 89bc
00000310: d6eb 883d b654 7a3d 525d 1abd bc81 51bd
00000320: b63b 2bbd dfda 9f3d d956 26bc 4e31 51bc
00000330: 3fc0 773b 00ad 7c3d 46ac 2d3a 7b99 593c
00000340: 5071 cb3b 60fa b53c de75 083d 3d20 823b
00000350: 2f4a 373d 63d4 46bc b019 bd3b 60c1 9e3d
00000360: 8d53 1f3c 1188 663c bb8c 313d c7da b9bc
00000370: f500 b13d 0b38 d53d f4e6 ef3d 31dd a5bc
00000380: d412 133d 1c4e eebc a782 63bc 8ede edbc
00000390: 63db d3bc 0f55 9c3c dc31 903c 7683 77bc
000003a0: 72e0 03bd 6fc2 bfbc ea55 8d3d 1f74 e23c
000003b0: f34c 743c 0674 1fbd cbbb 33bd 4d48 f23c
000003c0: d4c7 d6bc fea0 f63c a884 05bd cebb 203d
000003d0: e66d 62bd 6c2f a8bc 7009 e43a a8e1 b13c
000003e0: eb13 ee3c eece 3a3d acd9 343d a26b 01bd
000003f0: 434c a93c 85a6 66bd 2dfc d9bc 539b 97bc

encoder.0.bias f4 [256]
-0.08304498 0.1015334 0.066845186 -0.06042131 -0.104058065 0.047935728 0.066190116 -0.08508818
-0.07372056 0.09425619 0.04255834 -0.09755252 -0.10542462 -0.088086575 0.07795157 -0.004357516
0.041731365 0.002735378 0.09198876 -0.09834141 -0.043148756 0.0032439653 0.033675414 -0.092822045
-0.059598308 0.0012346075 0.101871096 -0.0028093427 0.0046792966 -0.06477374 0.0075712893 -0.10347791
0.09662792 -0.05557738 -0.08708849 -0.07395203 0.09011617 0.10413931 0.102225766 0.08037697
-0.0796341 -0.034186818 0.03822655 0.020534825 -0.08027064 -0.04924357 0.09925636 0.053946383
0.058246713 0.09827212 -0.021535072 -0.028937858 0.05354216 -0.0259315 -0.09124627 -0.104965866
-0.03493723 -0.037126828 -0.006710128 -0.053928815 -0.012432907 -0.03890523 -0.10103169 0.06008043
0.055241667 0.1010997 0.089313634 -0.04120566 0.03573045 -0.04024202 -0.105541624 -0.026763665
-0.09570359 0.061074212 -0.03346536 0.0067029367 -0.081137516 -0.08598896 0.013376808 -0.02066631
-0.016228113 0.036220644 0.058148615 -0.023265488 0.074570864 -0.01694057 -0.032607734 0.039263718
-0.053046357 0.033168778 -0.10385129 -0.0849844 -0.060284685 0.09765209 0.08201251 0.09113469
-0.05992688 -0.09992166 0.04087612 0.01616501 0.050343417 0.08490417 0.10536246 -0.061289735
0.005381798 -0.05579489 0.029335285 -0.08012381 -0.059322692 0.011648778 0.07498884 0.07200012
0.057177987 0.07280922 0.009146883 0.0071722777 0.063693054 0.09094558 -0.015776088 0.07018641
-0.0012351987 0.018667364 -0.08955539 -0.03787227 0.05591079 0.10443961 0.10105246 0.0021249529
-0.015478606 0.03514062 0.034211073 0.085253544 -0.035656516 -0.06772188 -0.038978044 0.009379513
0.02462067 0.008434708 -0.025685402 0.046168994 -0.061488625 -0.057192873 -0.0438216 0.014670092
-0.008403711 -0.08686188 0.03183018 0.0056186877 -0.05646835 0.056343663 0.01795346 0.0893303
0.09398059 0.07974143 -0.022843147 0.013869422 0.025355764 0.031452 0.10362216 -0.057049748
-0.042772327 0.004310956 -0.100971945 0.0063945903 -0.08324812 -0.016932962 0.012013781 -0.082769394
-0.10045781 0.08359873 -0.014363806 -0.06373272 -0.0761316 0.047151547 0.07589315 -0.081063844
-0.074180104 -0.033215825 0.026936412 -0.0007670107 0.09834502 -0.078182966 0.05686343 0.0040775933
-0.08949473 -0.011984881 0.02153183 0.0403968 0.10254224 0.08574926 -0.05740733 -0.10347876
-0.034557626 0.028289786 0.088286854 -0.041362267 -0.09106359 -0.08741742 0.061023228 -0.040030096
-0.022109685 -0.036944795 0.025798488 0.0039265533 -0.04708899 0.047229458 -0.08756034 -0.03686597
-0.083189584 0.01278503 0.01099687 -0.09756665 0.08644705 0.1008391 -0.014163748 0.08615278
0.086939014 0.07955884 -0.04672967 -0.033523086 0.10421972 0.04412441 -0.057679288 0.10345853
-0.00020252445 0.08951558 -0.04793012 -0.065852806 0.04981969 -0.0050517847 0.017858045 -0.074289605
-0.103112034 0.04483002 -0.09385552 -0.021326281 0.06142925 0.05611108 -0.02131155 -0.046072897
0.004788437 -0.054593742 -0.027782021 0.10593535 0.07289841 0.014701502 0.023998626 0.09366775
-0.009400729 -0.05256523 0.09875219 0.10467141 0.04112826 0.04249179 -0.09452342 0.03493156
00000000: 7d13 aabd bef0 cf3d 21e6 883d 567c 77bd
00000010: 651c d5bd 4158 443d af8e 873d b642 aebd
00000020: cefa 96bd 6409 c13d a751 2e3d 9ec9 c7bd
00000030: dde8 d7bd bc66 b4bd 13a5 9f3d 7ec9 8ebb
00000040: 82ee 2a3d 0744 333b 9a64 bc3d 3967 c9bd
00000050: c0bc 30bd b598 543b 3bef 093d 7c19 bebd
00000060: 5b1d 74bd 8ed2 a13a cba1 d03d f31c 38bb
00000070: c954 993b 18a8 84bd 9418 f83b 3aec d3bd
00000080: dce4 c53d 1ba5 63bd 735b b2bd 2974 97bd
00000090: d48e b83d fe46 d53d be5b d13d ae9c a43d
000000a0: 3417 a3bd 7a07 0cbd 7193 1c3d a638 a83c
000000b0: ef64 a4bd a0b3 49bd eb46 cb3d e2f6 5c3d
000000c0: 1b94 6e3d e542 c93d 526a b0bc 160f edbc
000000d0: 064f 5b3d 4c6e d4bc 53df babd 58f8 d6bd
000000e0: 571a 0fbd 4d12 18bd a2e0 dbbb 76e4 5cbd
000000f0: 64b3 4bbc 175b 1fbd b4e9 cebd e616 763d
00000100: 1645 623d 5c0d cf3d 11ea b63d 44c7 28bd
00000110: 185a 123d d1d4 24bd 3526 d8bd 793f dbbc
00000120: 3e00 c4bd f428 7a3d f912 09bd 4fa4 db3b
00000130: 6d2b a6bd fb1a b0bd 662a 5b3c 654c a9bc
00000140: d2f0 84bc 195c 143d 3e2d 6e3d 4497 bebc
00000150: 9cb8 983d f3c6 8abc b08f 05bd fed2 203d
00000160: 2347 59bd fcdb 073d fcaf d4bd 4d0c aebd
00000170: 13ed 76bd d2fd c73d 2df6 a73d d3a4 ba3d
00000180: e375 75bd baa3 ccbd b86d 273d 7c6c 843c
00000190: e634 4e3d 3de2 ad3d 46c8 d73d f20a 7bbd
000001a0: cb59 b03b 2f89 64bd 8d50 f03c f417 a4bd
000001b0: 5afc 72bd 84da 3e3c c093 993d cd74 933d
000001c0: 7733 6a3d 001d 953d cfdc 153c 6d05 eb3b
000001d0: 8171 823d ad41 ba3d db3c 81bc e4bd 8f3d
000001e0: 64e6 a1ba 4dec 983c d168 b7bd f41f 1bbd
000001f0: b602 653d 6fe4 d53d 98f4 ce3d cb42 0b3b
00000200: fb99 7dbc 9cef 0f3d e920 0c3d 6999 ae3d
00000210: 910c 12bd c5b1 8abd 71a7 1fbd 87ac 193c
00000220: 4ab1 c93c bb31 0a3c 316a d2bc b31b 3d3d
00000230: 7fdb 7bbd 1343 6abd 477e 33bd d35a 703c
00000240: b8af 09bc a4e4 b1bd 5d60 023d f81c b83b
00000250: 5b4b 67bd 9dc8 663d 2213 933c cef2 b63d
00000260: e578 c03d 7a4f a33d 8d21 bbbc 923c 633c
00000270: e4b6 cf3c d0d3 003d db37 d43d ffac 69bd
00000280: 0932 2fbd ec42 8d3b 61ca cebd b689 d13b
00000290: fe7d aabd ffb6 8abc 73d5 443c 0083 a9bd
000002a0: d3bc cdbd d035 ab3d 2b56 6bbc 4d86 82bd
000002b0: e2ea 9bbd fb21 413d de6d 9b3d cd04 a6bd
000002c0: bdeb 97bd 510d 08bd c0a9 dc3c 3711 49ba
000002d0: 1d69 c93d 641e a0bd a1e9 683d 559d 853b
000002e0: 0349 b7bd 3c5c 44bc 8563 b03c 1d77 253d
000002f0: aa01 d23d 4f9d af3d f323 6bbd acec d3bd
00000300: 4c8c 0dbd fbbf e73c bdcf b43d 7b6b 29bd
00000310: 8c7f babd e807 b3bd 7ef3 793d 99f6 23bd
00000320: 5f1f b5bc 6d53 17bd 5a57 d33c 51aa 803b
00000330: 63e0 40bd ad73 413d d652 b3bd c500 17bd
00000340: 4d5f aabd 4d78 513c 372c 343c 06d1 c7bd
00000350: 270b b13d bb84 ce3d 110f 68bc de70 b03d
00000360: 150d b23d bfef a23d 9c67 3fbd 814f 09bd
00000370: 2671 d53d ccbb 343d 1e41 6cbd 11e2 d33d
00000380: be5c 54b9 f253 b73d 6052 44bd d6dd 86bd
00000390: bb0f 4c3d 7189 a5bb 094b 923c 2625 98bd
000003a0: 672c d3bd af9f 373d 5337 c0bd 74b4 aebc
000003b0: 3d9d 7b3d bbd4 653d 8f95 aebc efb6 3cbd
000003c0: 52e8 9c3b b09d 5fbd 1f97 e3bc a2f4 d83d
000003d0: c34b 953d 92de 703c c498 c43c e1d4 bf3d
000003e0: 8405 1abc a34e 57bd 973e ca3d f75d d63d
000003f0: 1b76 283d df0b 2e3d 7f95 c1bd 6514 0f3d

encoder.1.weight f4 [256]
1.0045987 1.0102034 0.9899637 0.9775723 1.0036536 0.9773376 0.9771406 1.0050831
0.99962825 0.98317474 1.015533 1.01784 1.0105608 0.9991704 1.0011603 0.97753453
0.9906893 1.0063909 0.9925565 0.9901927 0.982208 1.0100209 1.0061593 1.0114188
0.9708513 0.97901016 1.012845 0.99581134 0.9839417 0.9775837 0.9995129 0.9623064
0.98830116 1.0084898 0.97577477 1.0024152 0.9914104 0.9996417 1.0068221 1.0338993
0.97011477 1.0063783 0.9751831 1.0084318 0.98385483 0.97291315 0.9877763 0.9747819
1.0068363 1.0069472 0.97946167 0.990512 0.9815709 0.997085 0.99401647 0.9997521
0.9791467 0.9896553 1.0186689 0.9862657 0.99878246 1.0274956 1.0192513 1.009952
0.9899453 0.98347294 1.0024718 1.001231 1.0107465 0.9850596 1.0254682 1.0350342
0.97082 0.9923417 0.99434817 1.0043641 1.0263177 0.9867258 0.99345165 0.9976537
0.9888058 0.9865262 0.9738882 0.99186057 0.99665457 0.9818528 0.9798446 0.96540916
0.9956077 0.95594305 1.0224098 1.0168793 0.9939763 0.9870513 1.0082265 0.9844667
0.9955836 1.0144163 1.005438 0.98517627 1.0057793 0.9826878 0.9903165 1.0253742
1.0007728 1.0244157 1.0342617 0.97036767 0.98033375 1.0284839 1.0149486 0.98331404
1.0138965 0.9728625 0.9925827 0.9888768 1.017219 1.0187263 0.9990912 0.990766
0.9946048 0.9860913 1.0096511 1.0078229 0.9697849 1.0096247 0.99628407 1.0063424
0.9831451 1.0058798 1.011363 1.0007004 0.99217355 1.0239979 1.018349 0.9894339
0.99417955 0.97949255 1.0108994 1.0086529 1.0039024 1.0044391 1.0082632 1.0036557
1.0091488 0.99056756 0.9929505 1.0060672 1.0029742 1.006412 0.9963529 1.030926
0.9970884 1.0030636 0.98306 0.9905549 0.97960085 1.0110791 1.0012449 0.96413803
1.0285903 0.98668087 1.0080974 0.9854658 0.9880354 0.99455565 0.9813916 0.97054183
1.0014998 0.96963215 1.0039418 0.9765806 1.0013069 1.0071605 1.0121715 1.0141791
1.0092529 0.9916776 0.9809006 1.004612 0.99025244 0.99189365 0.96031564 0.9798191
1.0061859 0.9899872 0.9828434 1.0120896 0.9806024 0.97767586 0.98185164 0.98610806
0.9946246 1.0030216 0.9887725 0.9985281 0.9930217 1.0003475 0.98364013 0.9964645
0.99365187 0.9846972 1.0029147 1.0064559 1.0272388 0.99082124 0.9946176 0.9945942
0.98345 0.97773385 0.98430073 0.99916154 1.0128794 0.98195 0.9894167 0.95955324
1.0057703 0.97378564 1.0037138 1.0077103 0.99857134 0.99628496 0.9699182 0.95053506
1.0104529 1.016682 1.0045376 0.997791 1.0027485 0.98040974 0.983782 0.99055624
1.008616 0.97149795 1.0105524 1.0130726 1.0063404 0.9857549 1.0185736 1.0157841
1.0179299 1.0086 0.9932934 1.0058706 0.9808294 1.0017195 1.0129052 0.9973798
0.9792643 0.98880637 0.99647665 1.0012826 1.0230925 1.0124635 0.9912114 1.0091404
00000000: b196 803f 584e 813f 436e 7d3f 2e42 7a3f
00000010: b977 803f cc32 7a3f e325 7a3f 90a6 803f
00000020: a3e7 7f3f 57b1 7b3f fcfc 813f 9548 823f
00000030: 0e5a 813f a2c9 7f3f 0526 803f b43f 7a3f
00000040: d09d 7d3f 6bd1 803f 2f18 7e3f 457d 7d3f
00000050: fc71 7b3f 5d48 813f d4c9 803f 2c76 813f
00000060: b689 783f 69a0 7a3f e8a4 813f 7eed 7e3f
00000070: 9ae3 7b3f ed42 7a3f 14e0 7f3f b659 763f
00000080: 4e01 7d3f 3216 813f 60cc 793f 244f 803f
00000090: 12cd 7d3f 85e8 7f3f 8cdf 803f d056 843f
000000a0: 7159 783f 01d1 803f 9aa5 793f 4b14 813f
000000b0: e9dd 7b3f d610 793f e8de 7c3f 4e8b 793f
000000c0: 03e0 803f a5e3 803f 00be 7a3f 3292 7d3f
000000d0: 3b48 7b3f f640 7f3f dd77 7e3f c1ef 7f3f
000000e0: 5ca9 7a3f 0d5a 7d3f be63 823f e97b 7c3f
000000f0: 35b0 7f3f fa84 833f d476 823f 1b46 813f
00000100: 0e6d 7d3f e2c4 7b3f ff50 803f 5628 803f
00000110: 2460 813f de2c 7c3f 8b42 833f 007c 843f
00000120: a987 783f 1b0a 7e3f 9a8d 7e3f 018f 803f
00000130: 615e 833f 109a 7c3f d952 7e3f 3c66 7f3f
00000140: 6022 7d3f fb8c 7c3f bd50 793f 93ea 7d3f
00000150: c124 7f3f b55a 7b3f 19d7 7a3f 0e25 773f
00000160: 25e0 7e3f afb8 743f 53de 823f 1a29 823f
00000170: 3b75 7e3f 65af 7c3f 910d 813f 0206 7c3f
00000180: 91de 7e3f 65d8 813f 31b2 803f 8334 7c3f
00000190: 60bd 803f 6d91 7b3f 6285 7d3f 763f 833f
000001a0: 5319 803f 0e20 833f b062 843f 046a 783f
000001b0: 27f7 7a3f 5ca5 833f d6e9 813f 78ba 7b3f
000001c0: 5cc7 813f 840d 793f e619 7e3f 0827 7d3f
000001d0: 3b34 823f a065 823f 71c4 7f3f d7a2 7d3f
000001e0: 6c9e 7e3f 7b70 7c3f 3f3c 813f 5700 813f
000001f0: d343 783f 623b 813f 790c 7f3f d4cf 803f
00000200: 66af 7b3f abc0 803f 5874 813f f316 803f
00000210: 16ff 7d3f 5d12 833f 4359 823f 8a4b 7d3f
00000220: 8d82 7e3f 06c0 7a3f 2765 813f 8a1b 813f
00000230: e07f 803f 7691 803f c50e 813f ca77 803f
00000240: ca2b 813f d695 7d3f 0132 7e3f cfc6 803f
00000250: 7561 803f 1cd2 803f fc10 7f3f 62f5 833f
00000260: 2f41 7f3f 6364 803f d2a9 7b3f 0295 7d3f
00000270: 1fc7 7a3f 0a6b 813f cb28 803f c0d1 763f
00000280: d9a8 833f 1e97 7c3f 5609 813f 7d47 7c3f
00000290: e3ef 7c3f 339b 7e3f 7b3c 7b3f 6e75 783f
000002a0: 2531 803f d039 783f 2a81 803f 3001 7a3f
000002b0: d32a 803f a3ea 803f d68e 813f 9fd0 813f
000002c0: 332f 813f 95de 7d3f 4d1c 7b3f 2097 803f
000002d0: 2f81 7d3f beec 7d3f 3fd7 753f 6dd5 7a3f
000002e0: b3ca 803f cd6f 7d3f a09b 7b3f 278c 813f
000002f0: c208 7b3f f748 7a3f a15a 7b3f 9471 7c3f
00000300: b89f 7e3f 0363 803f 3220 7d3f 8a9f 7f3f
00000310: ac36 7e3f 630b 803f d7cf 7b3f 4c18 7f3f
00000320: f85f 7e3f 1e15 7c3f 825f 803f 8cd3 803f
00000330: 907c 833f 76a6 7d3f 429f 7e3f ba9d 7e3f
00000340: 61c3 7b3f c44c 7a3f 22fb 7b3f 0dc9 7f3f
00000350: 08a6 813f 1361 7b3f 6a4a 7d3f 48a5 753f
00000360: 15bd 803f 044a 793f b279 803f a7fc 803f
00000370: 5fa2 7f3f 880c 7f3f 8f4c 783f 4456 733f
00000380: 8556 813f a322 823f b094 803f 3b6f 7f3f
00000390: 105a 803f 22fc 7a3f 23d9 7b3f 1895 7d3f
000003a0: 541a 813f 17b4 783f c859 813f 5dac 813f
000003b0: c3cf 803f 6f5a 7c3f 9f60 823f 3705 823f
000003c0: 874b 823f ce19 813f 7a48 7e3f 5ec0 803f
000003d0: a317 7b3f 5838 803f e1a6 813f 4854 7f3f
000003e0: 11b1 7a3f 6a22 7d3f 1819 7f3f 072a 803f
000003f0: b2f4 823f 6798 813f 08c0 7d3f 832b 813f

encoder.1.bias f4 [256]
-0.13004857 -0.103425354 -0.09712434 -0.07724344 -0.0860804 -0.073014505 -0.0833815 -0.0911193
-0.0919355 -0.070637435 -0.090731695 -0.1387788 -0.13578692 -0.11683881 -0.075311586 -0.0998515
-0.11991717 -0.08801713 -0.1316334 -0.14023742 -0.099982716 -0.106434405 -0.09580807 -0.13155581
-0.09878303 -0.13589896 -0.10130444 -0.08996148 -0.10371639 -0.11258826 -0.10264676 -0.082383744
-0.118638374 -0.09027401 -0.13648507 -0.09390752 -0.10328644 -0.07413662 -0.08873493 -0.12157307
-0.13758671 -0.11263592 -0.1154067 -0.15517844 -0.09148034 -0.1136868 -0.14913483 -0.10625546
-0.121752076 -0.1346128 -0.12119864 -0.073142126 -0.07339381 -0.117187314 -0.13941441 -0.09847547
-0.093678854 -0.11849489 -0.11407225 -0.09104086 -0.09097874 -0.12508932 -0.15399916 -0.0855549
-0.12464731 -0.13479452 -0.05221968 -0.14124602 -0.13872102 -0.08537822 -0.07655577 -0.12944297
-0.068847105 -0.101393916 -0.052671783 -0.066552594 -0.12313448 -0.1390968 -0.11161488 -0.10685861
-0.11876295 -0.08109929 -0.110246584 -0.0883457 -0.12911163 -0.10795798 -0.13086961 -0.092204414
-0.07744969 -0.06255389 -0.08836665 -0.06706434 -0.12276503 -0.11052634 -0.06936738 -0.1253595
-0.1465753 -0.123881176 -0.0899304 -0.10654546 -0.1530369 -0.08723878 -0.08787706 -0.09968365
-0.115370825 -0.07868051 -0.11106945 -0.1142183 -0.116815224 -0.1312176 -0.09513906 -0.08472449
-0.08137344 -0.10136119 -0.113501295 -0.1337131 -0.06888611 -0.1152092 -0.1129284 -0.13038142
-0.12728617 -0.10735987 -0.10390228 -0.13485824 -0.12001599 -0.12335823 -0.13025688 -0.12006655
-0.1163849 -0.074487634 -0.09704278 -0.1064349 -0.13630539 -0.10016074 -0.06997937 -0.12006555
-0.11360817 -0.0498004 -0.10456204 -0.14543515 -0.14727494 -0.121655 -0.13980813 -0.13478658
-0.14102696 -0.13160138 -0.026871443 -0.090910286 -0.09630058 -0.09818085 -0.13431545 -0.12594926
-0.11488802 -0.1104536 -0.0826799 -0.11202908 -0.13193958 -0.050758656 -0.13163659 -0.13660982
-0.08584953 -0.1143362 -0.09819278 -0.08884136 -0.13624151 -0.090579204 -0.10840078 -0.094683595
-0.08190218 -0.15625945 -0.054452945 -0.111875236 -0.11496451 -0.092882834 -0.12898733 -0.106592
-0.105125226 -0.114361495 -0.10626483 -0.09758918 -0.1339009 -0.11354965 -0.09602389 -0.09847688
-0.1203987 -0.10808304 -0.11570333 -0.10507139 -0.10195804 -0.09794988 -0.10519763 -0.08970687
-0.10643758 -0.119572215 -0.112249725 -0.09827607 -0.08565336 -0.10287349 -0.09041225 -0.1051701
-0.0911194 -0.10022039 -0.101576075 -0.118366465 -0.14225201 -0.08228913 -0.07895236 -0.092947714
-0.09522391 -0.10681843 -0.10676343 -0.14796092 -0.13737626 -0.15758075 -0.10215238 -0.104765415
-0.109360345 -0.10856353 -0.075722344 -0.043319065 -0.14586471 -0.081220075 -0.084494166 -0.08987042
-0.10022162 -0.07669453 -0.099198096 -0.101897456 -0.10710668 -0.0880863 -0.100990705 -0.110433206
-0.11229157 -0.07110036 -0.08280005 -0.10350802 -0.13957174 -0.07602222 -0.06725638 -0.13793544
-0.087950334 -0.10907872 -0.10215084 -0.1175378 -0.10665511 -0.08036408 -0.14084248 -0.089108706
-0.10406455 -0.12468463 -0.11465782 -0.12632819 -0.09722077 -0.098587014 -0.059089493 -0.1223363
00000000: 742b 05be acd0 d3bd 20e9 c6bd cf31 9ebd
00000010: ec4a b0bd a188 95bd ebc3 aabd c19c babd
00000020: ae48 bcbd 5caa 90bd 8ad1 b9bd 081c 0ebe
00000030: ba0b 0bbe 3049 efbd f63c 9abd f17e ccbd
00000040: 2297 f5bd 5342 b4bd e8ca 06be 669a 0fbe
00000050: bdc3 ccbd 48fa d9bd 0537 c4bd 91b6 06be
00000060: c24e cabd 1929 0bbe b478 cfbd b93d b8bd
00000070: 4269 d4bd ac94 e6bd 7738 d2bd cfb8 a8bd
00000080: adf8 f2bd 95e1 b8bd bec2 0bbe 9652 c0bd
00000090: d787 d3bd f1d4 97bd a9ba b5bd 4dfb f8bd
000000a0: 88e3 0cbe a9ad e6bd 595a ecbd 19e7 1ebe
000000b0: 0b5a bbbd a0d4 e8bd cdb6 18be 769c d9bd
000000c0: 2759 f9bd f0d7 09be fe36 f8bd 8acb 95bd
000000d0: 7e4f 96bd e7ff efbd a7c2 0ebe 82ad c9bd
000000e0: b3da bfbd 73ad f2bd b69e e9bd a173 babd
000000f0: 1053 babd 6a17 00be f5b1 1dbe 6837 afbd
00000100: 1747 ffbd 9307 0abe 4ee4 55bd cca2 10be
00000110: e20c 0ebe c7da aebd 46c9 9cbd b38c 04be
00000120: b6ff 8cbd 9da7 cfbd 5ebe 57bd ba4c 88bd
00000130: ee2d fcbd 646f 0ebe 5896 e4bd b0d8 dabd
00000140: fd39 f3bd 6217 a6bd f6c8 e1bd 97ee b4bd
00000150: d735 04be 1319 ddbd af02 06be abd5 bcbd
00000160: f19d 9ebd 411c 80bd 93f9 b4bd 0759 89bd
00000170: 3b6c fbbd a25b e2bd 7c10 8ebd 3e5e 00be
00000180: d617 16be 6ab5 fdbd 6e2d b8bd 8234 dabd
00000190: b5b5 1cbe 3faa b2bd e3f8 b3bd f126 ccbd
000001a0: 8a47 ecbd 3f23 a1bd 6178 e3bd 49eb e9bd
000001b0: d23c efbd e85d 06be 44d8 c2bd 0984 adbd
000001c0: 1ea7 a6bd 7596 cfbd 5e73 e8bd 16ec 08be
000001d0: 2914 8dbd cdf2 ebbd 0147 e7bd b582 05be
000001e0: 4e57 02be 7edf dbbd b8ca d4bd 4718 0abe
000001f0: f2ca f5bd 3da3 fcbd 0f62 05be 74e5 f5bd
00000200: 355b eebd f98c 98bd 5dbe c6bd 8afa d9bd
00000210: a493 0bbe 1321 cdbd 5851 8fbd ede4 f5bd
00000220: 66ab e8bd 81fb 4bbd 9f24 d6bd f4ec 14be
00000230: 3ecf 16be 4226 f9bd dd29 0fbe 7e05 0abe
00000240: 5f69 10be 83c2 06be 8021 dcbc 2c2f babd
00000250: 3d39 c5bd 0b13 c9bd fd89 09be d8f8 00be
00000260: 694a ebbd 7f35 e2bd 1454 a9bd 816f e5bd
00000270: 2b1b 07be 4fe8 4fbd becb 06be 72e3 0bbe
00000280: e1d1 afbd 1929 eabd 4c19 c9bd 75f2 b5bd
00000290: e582 0bbe 9781 b9bd 3a01 debd 79e9 c1bd
000002a0: 55bc a7bd 7a02 20be 0d0a 5fbd d81e e5bd
000002b0: 8372 ebbd 5b39 bebd 4115 04be e84c dabd
000002c0: e54b d7bd 5c36 eabd 60a1 d9bd d6dc c7bd
000002d0: 511d 09be b88c e8bd 2ca8 c4bd 3fae c9bd
000002e0: 9893 f6bd a45a ddbd def5 ecbd ab2f d7bd
000002f0: 60cf d0bd f299 c8bd db71 d7bd 3cb8 b7bd
00000300: f2fb d9bd 47e2 f4bd 2fe3 e5bd f744 c9bd
00000310: 076b afbd 56af d2bd 0f2a b9bd 6c63 d7bd
00000320: cf9c babd 5940 cdbd 1e07 d0bd 1e6a f2bd
00000330: 83aa 11be 3487 a8bd c6b1 a1bd 5f5b bebd
00000340: c104 c3bd 9fc3 dabd c9a6 dabd 1183 17be
00000350: 5dac 0cbe d95c 21be 4435 d1bd 408f d6bd
00000360: 51f8 dfbd 8e56 debd 5114 9bbd 556f 31bd
00000370: 8f5d 15be b656 a6bd 470b adbd fc0d b8bd
00000380: fe40 cdbd 0612 9dbd 5f28 cbbd 9daf d0bd
00000390: bf5a dbbd 9766 b4bd 37d4 cebd ce2a e2bd
000003a0: 1ff9 e5bd 119d 91bd 1393 a9bd 03fc d3bd
000003b0: e5eb 0ebe 8ab1 9bbd b7bd 89bd f33e 0dbe
000003c0: 4e1f b4bd aa64 dfbd 7634 d1bd a8b7 f0bd
000003d0: ff6d dabd ec95 a4bd 0339 10be a07e b6bd
000003e0: cb1f d5bd a85a ffbd b8d1 eabd 2d5c 01be
000003f0: af1b c7bd fde7 c9bd d307 72bd 748b fabd

encoder.1.running_mean f4 [256]
-0.10484292 0.06439957 0.111199655 0.034881517 -0.05491735 0.09451632 -0.08203316 -0.023398967
-0.08156936 0.089315146 0.025540615 -0.20852324 -0.18870763 -0.17863053 0.006310347 -0.043147434
0.16445032 -0.033138815 0.12625483 -0.16725378 -0.13609107 -0.0054225433 -0.08864051 -0.03901658
-0.18744162 0.041734684 0.1878556 0.17848286 0.04798283 -0.07716809 -0.0029017464 -0.0050013214
0.11401893 -0.13732338 -0.057056434 -0.049895745 0.055090394 0.20349798 0.051937193 0.20196363
-0.15389545 0.006018094 -0.028310115 0.047980495 -0.13309546 0.017285641 0.11643542 0.17570876
0.102439426 -0.045173645 0.082296744 -0.22167797 0.052590895 -0.0070494455 -0.19627906 -0.08757109
-0.068059884 -0.0014908256 -0.22701897 0.021411266 -0.14489567 -0.1435123 0.017210897 0.17021339
0.12578604 0.20140031 0.056366663 -0.08955003 0.19299379 0.026469419 -0.08238902 0.14053148
0.018479176 -0.01162283 0.03220585 0.20045939 -0.11771185 -0.24978097 0.1536226 0.07469711
-0.07483748 0.120548055 -0.035228506 -0.06284542 0.0963602 -0.09370312 0.041979674 -0.051847182
0.023783214 0.16084267 -0.12240843 -0.17380199 -0.17406695 0.08620755 0.22874396 0.013879394
-0.11698152 0.0004036976 0.06126972 -0.052750356 0.26297817 0.07174446 0.17108954 0.022495823
0.08949125 -0.090922706 0.09433562 0.04965079 -0.0713955 -0.035595845 0.098400116 0.11030328
0.19575876 0.21728356 0.008438456 -0.041289136 0.19894496 -0.014574533 0.02806939 0.095539525
0.050693326 0.15294541 -0.19701856 0.08051533 0.0020237574 0.10844409 0.081385106 0.07289379
-0.043078765 0.2402586 0.01912039 0.09459514 -0.10071443 -0.056575377 -0.002024547 0.22321475
-0.046694413 -0.015323264 0.20445162 0.11769921 -0.0070069656 0.041054137 0.066355355 0.19546154
0.18656257 -0.09920588 -0.00969699 -0.08618144 -0.096185826 0.11844223 0.15449202 0.0311605
0.07312145 0.14119413 -0.090224154 -0.020979488 0.032115556 0.1581773 0.029334836 -0.13675691
-0.029541072 -0.029397205 -0.07855478 -0.0075678397 -0.119570166 -0.09650482 -0.01389203 -0.087347016
-0.06293122 0.1556414 -0.07143663 -0.20928994 -0.020075992 -0.06457644 -0.06862341 -0.00088198134
-0.06341173 -0.09549517 -0.024025772 -0.102691025 0.09629498 0.050636243 0.16467282 -0.099653445
-0.08482927 0.12792945 0.067010984 0.009352164 0.030730166 -0.05377787 0.048205204 -0.18084222
-0.1869721 -0.035459902 0.055760674 -0.034549702 -0.06933792 -0.12952508 0.16846527 -0.008532815
0.03357865 0.11879113 -0.03922054 0.014371495 -0.14627756 0.17302021 -0.0057326546 0.05179111
-0.18467183 0.085880786 0.059833042 -0.24692278 0.043043967 0.024266891 -0.081497036 0.13011314
-0.020595973 0.15425625 -0.060848683 -0.030966012 0.1639123 0.05189384 -0.046066817 0.08244719
0.08316007 0.19954157 -0.2113807 -0.116636366 0.10530067 -0.054087695 0.047784675 -0.069067605
-0.1036806 0.14450505 -0.0433237 -0.045383476 0.1518294 0.08590638 -0.03979126 0.18159384
-0.044972576 0.07338637 -0.090835094 0.0786111 -0.018888077 -0.0064646713 -0.015610995 0.08718828
-0.12273515 -0.083156824 -0.041029252 0.04419427 0.089162454 0.14244527 0.03835696 0.1004218
00000000: e3b7 d6bd ece3 833d a5bc e33d ecdf 0e3d
00000010: 04f1 60bd c691 c13d 0001 a8bd 31af bfbc
00000020: d60d a7bd dcea b63d 8d3a d13c 1e87 55be
00000030: 933c 41be ecea 36be 07c7 ce3b 5dbb 30bd
00000040: aa65 283e 91bc 07bd f248 013e 9344 2bbe
00000050: 755b 0bbe 97af b1bb 2889 b5bd d9cf 1fbd
00000060: b2f0 3fbe fdf1 2a3d 385d 403e 36c4 363e
00000070: a589 443d 4e0a 9ebd 3a2b 3ebb 20e2 a3bb
00000080: c282 e93d 809e 0cbe 02b4 69bd 7b5f 4cbd
00000090: 77a6 613d c661 503e 18bc 543d 8ecf 4e3e
000000a0: c596 1dbe 6e33 c53b 9dea e7bc 3287 443d
000000b0: 2d4a 08be 9e9a 8d3c b275 ee3d ffec 333e
000000c0: c3cb d13d 0008 39bd 328b a83d 8dff 62be
000000d0: 8d69 573d 09ff e6bb 61fd 48be 7958 b3bd
000000e0: fb62 8bbd ce67 c3ba a977 68be ae66 af3c
000000f0: 885f 14be e3f4 12be defd 8c3c 6b4c 2e3e
00000100: 0ece 003e e23b 4e3e bbe0 663d 0266 b7bd
00000110: 2aa0 453e 65d6 d83c 93bb a8bd 7ce7 0f3e
00000120: a461 973c af6d 3ebc 48ea 033d 3a45 4d3e
00000130: e912 f1bd 95c6 7fbe 3e4f 1d3e ccfa 983d
00000140: 6544 99bd e6e1 f63d c44b 10bd 19b5 80bd
00000150: 7f58 c53d 6ce7 bfbd e1f2 2b3d b65d 54bd
00000160: 04d5 c23c f1b3 243e 45b1 fabd 26f9 31be
00000170: 9b3e 32be 958d b03d db3b 6a3e 6666 633c
00000180: 0294 efbd 60a7 d339 f5f5 7a3d c210 58bd
00000190: 13a5 863e c2ee 923d 1932 2f3e 2949 b83c
000001a0: 3047 b73d af35 babd 0933 c13d a05e 4b3d
000001b0: ce37 92bd f3cc 11bd 0086 c93d b0e6 e13d
000001c0: fc74 483e 957f 5e3e 7341 0a3c cc1e 29bd
000001d0: 3ab8 4b3e 06ca 6ebc c7f1 e53c 3aaa c33d
000001e0: cea3 4f3d b99d 1c3e 3cbf 49be 39e5 a43d
000001f0: 04a1 043b ef17 de3d 3cad a63d 5749 953d
00000200: 5c73 30bd 5a06 763e 5da2 9c3c 19bb c13d
00000210: 5e43 cebd 95bb 67bd 43ae 04bb 6892 643e
00000220: a442 3fbd 6d0e 7bbc c45b 513e 490c f13d
00000230: b09a e5bb 6228 283d 51e5 873d 1227 483e
00000240: 420a 3f3e 742c cbbd 20e0 1ebc e57f b0bd
00000250: 13fd c4bd d791 f23d 2833 1e3e 4e44 ff3c
00000260: b3c0 953d 3295 103e 71c7 b8bd 2ddd abbc
00000270: 9a8b 033d 3bf9 213e 9c4f f03c 010a 0cbe
00000280: 1e00 f2bc 68d2 f0bc 54e1 a0bd a4fb f7bb
00000290: 34e1 f4bd 52a4 c5bd 669b 63bc fee2 b2bd
000002a0: 15e2 80bd 7660 1f3e 5e4d 92bd 1a50 56be
000002b0: 6876 a4bc a740 84bd 6e8a 8cbd c434 67ba
000002c0: 02de 81bd f992 c3bd b2d1 c4bc ac4f d2bd
000002d0: 4d36 c53d f367 4f3d fe9f 283e 1b17 ccbd
000002e0: f8ba adbd f0ff 023e 0e3d 893d d239 193c
000002f0: d4bd fb3c 2f46 5cbd d272 453d b42e 39be
00000300: 9d75 3fbe 673e 11bd 4e65 643d fd83 0dbd
00000310: 0a01 8ebd 39a2 04be 2982 2c3e 38cd 0bbc
00000320: c489 093d c448 f33d b8a5 20bd 6b76 6b3c
00000330: c9c9 15be 362c 313e fed8 bbbb ea22 543d
00000340: 9d1a 3dbe 44e2 af3d 7e13 753d 53d9 7cbe
00000350: df4e 303d 5ccb c63c ebe7 a6bd 613c 053e
00000360: e3b8 a8bc 5af5 1d3e 783c 79bd 6fac fdbc
00000370: a0d8 273e a38e 543d 8fb0 3cbd 13da a83d
00000380: d44f aa3d a054 4c3e 2f74 58be 0cdf eebd
00000390: e1a7 d73d 0f8b 5dbd ddb9 433d 5173 8dbd
000003a0: 7f56 d4bd 22f9 133e 3174 31bd 06e4 39bd
000003b0: 2b79 1b3e afef af3d 29fc 22bd bcf3 393e
000003c0: 2a35 38bd 984b 963d c007 babd dbfe a03d
000003d0: 2bbb 9abc 98d5 d3bb 42c5 7fbc c58f b23d
000003e0: 915c fbbd 204e aabd 4a0e 28bd 0d05 353d
000003f0: ce9a b63d 2cdd 113e 301c 1d3d f2a9 cd3d

encoder.1.running_var f4 [256]
0.10952165 0.10809543 0.12872581 0.11439417 0.12853467 0.1109278 0.13562831 0.13430367
0.11555406 0.08660662 0.102395035 0.12944628 0.15139839 0.13143505 0.15296307 0.116121024
0.12169826 0.12874548 0.13351302 0.09740799 0.11204238 0.11597151 0.13854684 0.12508245
0.12465419 0.11455539 0.12915678 0.12369353 0.12593065 0.12272547 0.106644474 0.12742524
0.11523861 0.13700944 0.13466094 0.13732551 0.12327752 0.13375282 0.13676141 0.13967413
0.12508857 0.09527588 0.10464532 0.09963449 0.11907852 0.13724717 0.14973801 0.11739451
0.11230649 0.11160534 0.11021503 0.13366863 0.11922615 0.120241806 0.13616972 0.09106853
0.11735358 0.13952504 0.11697642 0.11902415 0.09433476 0.12669298 0.14357518 0.10780579
0.10472811 0.13122919 0.10175916 0.13800111 0.115034066 0.10933658 0.13011307 0.10796177
0.13692813 0.120871715 0.11906103 0.11355261 0.12563165 0.15213484 0.121325694 0.12280663
0.15294355 0.12345612 0.14043209 0.12541433 0.097712755 0.107364036 0.13547502 0.12737596
0.11494123 0.118612155 0.11466729 0.11991165 0.11813663 0.11527088 0.13219234 0.11194475
0.11457924 0.10630122 0.12718435 0.11481277 0.10480311 0.07877469 0.11263494 0.10787716
0.11615926 0.119822755 0.101699375 0.10781326 0.123432755 0.10280506 0.12723176 0.11370148
0.10648569 0.13271238 0.12610926 0.13239802 0.1040541 0.12114988 0.11049062 0.13262151
0.10862396 0.15928462 0.10711361 0.13354953 0.11676425 0.11605935 0.14283139 0.103621796
0.11789193 0.11335354 0.13200575 0.11449025 0.13682792 0.14917032 0.12828715 0.11089509
0.101437755 0.103545144 0.12060467 0.10242609 0.12181235 0.12023997 0.12665123 0.13205288
0.122940496 0.12623404 0.10986837 0.100015864 0.1296916 0.106540754 0.13666329 0.1268836
0.10825621 0.13147108 0.13595727 0.123495705 0.11995224 0.14052555 0.14290442 0.13074365
0.13925104 0.16042596 0.116972096 0.11459401 0.12491414 0.1283785 0.10139539 0.13365859
0.12168114 0.12821904 0.116597176 0.104973994 0.106777705 0.13916175 0.1065092 0.12921906
0.145002 0.14007081 0.13422762 0.13002603 0.13001351 0.09986506 0.115017295 0.12511335
0.11588837 0.12961581 0.13088052 0.116779864 0.11197933 0.1472641 0.11745846 0.10706376
0.11938995 0.124890864 0.1147849 0.13766052 0.09415629 0.10520383 0.11777882 0.160301
0.11741397 0.108042434 0.12336928 0.11430536 0.12398219 0.11512141 0.13188602 0.123431884
0.12671298 0.10842543 0.119982414 0.11653233 0.14282349 0.11313407 0.103026345 0.10908992
0.11834599 0.099130854 0.14613964 0.11151013 0.113876075 0.1197413 0.113097034 0.10514412
0.12193977 0.10565533 0.11506338 0.10518663 0.13000707 0.12274197 0.09782711 0.102371946
0.12677614 0.12300624 0.15475842 0.1306588 0.11933607 0.11346396 0.13627352 0.135529
0.15207255 0.11930289 0.13850379 0.08960432 0.10826248 0.12640423 0.11437779 0.11649177
0.12575945 0.106633045 0.12161957 0.13577725 0.10886716 0.11327022 0.11281687 0.10843111
00000000: e34c e03d 2361 dd3d b3d0 033e 7e47 ea3d
00000010: 989e 033e 1d2e e33d 26e2 0a3e e786 093e
00000020: 9ba7 ec3d d05e b13d 7db4 d13d 918d 043e
00000030: 2e08 1b3e e996 063e 5aa2 1c3e dcd0 ed3d
00000040: f03c f93d dbd5 033e a3b7 083e d77d c73d
00000050: 7a76 e53d 7982 ed3d 39df 0d3e 9d15 003e
00000060: b24a ff3d 049c ea3d ad41 043e 0953 fd3d
00000070: f7f3 003e 7e57 fb3d 6b68 da3d c37b 023e
00000080: 3802 ec3d 344c 0c3e 8fe4 093e 0f9f 0c3e
00000090: ed78 fc3d 80f6 083e 2f0b 0c3e bc06 0f3e
000000a0: 3817 003e 0020 c33d 4950 d63d 2b0d cc3d
000000b0: 70df f33d 868a 0c3e ec54 193e 886c f03d
000000c0: f200 e63d 5791 e43d 6bb8 e13d 6ee0 083e
000000d0: d72c f43d 5641 f63d 1370 0b3e 2382 ba3d
000000e0: 1357 f03d a7df 0e3e 5591 ef3d efc2 f33d
000000f0: 9532 c13d cebb 013e 5f05 133e 48c9 dc3d
00000100: b17b d63d f260 063e 1b67 d03d 2a50 0d3e
00000110: fb96 eb3d dbeb df3d 5c3c 053e 0f1b dd3d
00000120: e336 0c3e 978b f73d 45d6 f33d 458e e83d
00000130: 95a5 003e 3cc9 1b3e 9b79 f83d 0b82 fb3d
00000140: 3c9d 1c3e 90d6 fc3d 6ecd 0f3e 9d6c 003e
00000150: a01d c83d ade1 db3d f7b9 0a3e d86e 023e
00000160: 4f66 eb3d eeea f23d afd6 ea3d 3d94 f53d
00000170: 9ef1 f13d 2413 ec3d 6e5d 073e 4a43 e53d
00000180: 85a8 ea3d 74b4 d93d 9d3c 023e f522 eb3d
00000190: 03a3 d63d a054 a13d 26ad e63d b3ee dc3d
000001a0: e8e4 ed3d a265 f53d c347 d03d 33cd dc3d
000001b0: 50ca fc3d 768b d23d 0b49 023e 52dc e83d
000001c0: 2b15 da3d c1e5 073e c922 013e 5993 073e
000001d0: 511a d53d 6e1d f83d e848 e23d efcd 073e
000001e0: 3d76 de3d 821b 233e 615e db3d 35c1 083e
000001f0: 1822 ef3d 86b0 ed3d 6442 123e aa37 d43d
00000200: 5371 f13d e725 e83d 842c 073e dd79 ea3d
00000210: 9e1c 0c3e 1bc0 183e b55d 033e f71c e33d
00000220: 99be cf3d 7a0f d43d 95ff f63d c5c4 d13d
00000230: c178 f93d 6040 f63d dcb0 013e df38 073e
00000240: 3ac8 fb3d 7f43 013e ab02 e13d 1ed5 cc3d
00000250: e0cd 043e 0a32 da3d 76f1 0b3e c6ed 013e
00000260: 6fb5 dd3d 5ba0 063e 6238 0b3e 51eb fc3d
00000270: 85a9 f53d eee5 0f3e 8955 123e aae1 053e
00000280: d397 0e3e b446 243e 118f ef3d 44b0 ea3d
00000290: fcd2 ff3d a775 033e 63a8 cf3d ccdd 083e
000002a0: f633 f93d da4b 033e 80ca ee3d 9bfc d63d
000002b0: 45ae da3d 6b80 0e3e 7f21 da3d 0052 043e
000002c0: 677b 143e b96e 0f3e f772 093e 8b25 053e
000002d0: 4322 053e 0d86 cc3d 308e eb3d b71d 003e
000002e0: e256 ed3d 02ba 043e 8b05 063e 482a ef3d
000002f0: 6b55 e53d 66cc 163e 108e f03d 3f44 db3d
00000300: b882 f43d c8c6 ff3d 5814 eb3d e1f6 0c3e
00000310: 03d5 c03d 1b75 d73d 0636 f13d f225 243e
00000320: bc76 f03d 5a45 dd3d 08a9 fc3d ee18 ea3d
00000330: 60ea fd3d c6c4 eb3d 210d 073e dbc9 fc3d
00000340: 0cc1 013e 270e de3d 57b9 f53d 81a8 ee3d
00000350: 5240 123e d6b2 e73d 7aff d23d 896a df3d
00000360: 625f f23d 1e05 cb3d a1a5 153e 6c5f e43d
00000370: dc37 e93d ed3a f53d 6b9f e73d cd55 d73d
00000380: 8fbb f93d d261 d83d 59a6 eb3d 166c d73d
00000390: 9320 053e 2460 fb3d 9459 c83d 62a8 d13d
000003a0: 9bd1 013e b2ea fb3d fe78 1e3e 6ccb 053e
000003b0: 7866 f43d cb5f e83d 498b 0b3e 1dc8 0a3e
000003c0: e8b8 1b3e 1355 f43d f0d3 0d3e 7882 b73d
000003d0: b8b8 dd3d 1c70 013e e73e ea3d 3d93 ee3d
000003e0: 16c7 003e 6d62 da3d ae13 f93d 3109 0b3e
000003f0: bff5 de3d 38fa e73d 880c e73d 2111 de3d

encoder.4.weight f4 [128, 256]
0.030698145 -0.039192043 0.004848394 -0.0643985 -0.07052571 0.013821962 -0.0013051046 -0.0074094553
-0.04851549 0.058508456 -0.01370997 -0.0148972785 -0.10767313 -0.012277568 -0.04398828 0.02684067
0.011649928 -0.04901121 0.061565634 0.0782586 0.030967042 0.029934097 -0.03329713 -0.0044802516
0.022202637 -0.02534487 0.021698171 -0.0133699095 0.048640933 0.037791193 0.065514676 -0.016249761
-0.008589115 0.036481187 0.038313203 -0.12194696 -0.063820794 -0.059420332 0.04070045 0.020879798
0.05627664 -0.015855482 0.0052010273 -0.08739853 -0.0036873585 0.024673956 0.017454654 0.01669052
0.009403448 0.037543043 -0.014141801 0.050203525 0.017809492 0.084038556 -0.0009013263 0.041253038
0.06328031 0.024986774 0.061231025 -0.007015988 0.051550943 0.011775147 -0.02013462 -0.090314634
-0.0072215544 -0.04808308 0.05160888 -0.057357214 0.027624968 0.022697082 0.05093382 -0.0864304
-0.0049806363 -0.037123457 0.059926495 -0.0055079465 -0.032429036 0.00972083 0.06880905 0.011678154
0.048430484 0.0029892428 -0.03207316 -0.037521906 -0.000829134 -0.013006463 -0.03873799 -0.015252007
0.022752533 -0.017370038 0.06844938 0.0007869131 -0.012516228 0.045450464 0.012768069 0.012374874
-0.05158685 0.078283735 -0.008662306 0.011410933 0.05787468 -0.009238068 -0.005294011 -0.012423291
-0.012722461 -0.052417114 -0.0050333235 0.020543477 0.05004368 -0.028302971 0.03553787 0.0045609972
-0.091630265 -0.032029267 3.1577336e-05 -0.07168255 -0.04934221 -0.10879088 0.0015282591 0.03256849
0.041954882 0.037607633 0.039739463 0.008186451 0.01928826 0.052889865 0.014327773 0.06823226
0.06033045 0.016402043 -0.08540884 -0.022581883 -0.043567177 0.023344249 0.06214196 0.046033744
-0.005346372 0.033595093 0.039171368 -0.04572849 0.07058986 0.06691326 0.031195305 0.013624184
-0.056059707 -0.13971345 0.010533241 0.040414453 0.0046193707 -0.0263126 -0.047727987 -0.06674201
0.04145066 0.03348809 -0.06166905 -0.01741175 0.03995003 0.046003386 -0.004883825 0.03736834
-0.027767885 0.05345348 0.045600712 0.045759663 0.03071806 -0.016599827 -0.06428512 0.022744097
-0.023739045 -0.015921239 -0.029449895 -0.021931889 -0.020831322 0.040767126 -0.018897966 -0.003712795
0.024813669 0.0390233 0.029263696 -0.019584939 -0.03308981 0.05275214 0.03181365 0.011672526
0.06394649 0.021541601 0.030656118 0.01343108 0.022927783 -0.0009761793 -0.06400374 0.054546844
-0.02545392 -0.00031384005 -0.037567418 -0.009139971 0.058865845 0.032979622 -0.030683648 0.03456315
-0.004286231 -0.043247785 0.043465562 0.02312142 -0.033475492 0.015426785 -0.045519046 -0.026817288
0.012337796 0.019785546 0.038998228 -0.02495632 0.0062066102 0.016795885 -0.026117625 0.044555817
0.022853006 -0.016345419 -0.023121985 -0.11335976 -0.087472424 -0.020971622 0.012658931 0.029170794
0.04708633 -0.04891063 -0.0097516645 -0.020621128 0.058032602 0.015807603 -0.08853803 -0.032013033
-0.018834235 0.067904025 0.021375475 0.08074326 -0.00096559443 0.03678514 0.01919206 0.041356277
0.030631322 -0.013537493 -0.049088646 -0.0060624974 -0.10582613 0.002273113 -0.14432494 0.03555485
0.0007311213 -0.041908443 -0.032969564 0.0076885563 -0.017536784 0.011250576 -0.05682789 -0.036086164
00000000: ad7a fb3c d687 20bd 47df 9e3b 5ce3 83bd
00000010: c96f 90bd 8375 623c 0b10 abba 04cb f2bb
00000020: 2eb8 46bd 90a6 6f3d c89f 60bc b713 74bc
00000030: bb83 dcbd da27 49bc 0e2d 34bd f7e0 db3c
00000040: 57df 3e3c fbbf 48bd 3f2c 7c3d 0b46 a03d
00000050: 98ae fd3c 5a38 f53c 9262 08bd 13cf 92bb
00000060: 4ee2 b53c 0ba0 cfbc 5dc0 b13c 770d 5bbc
00000070: b73b 473d f0ca 1a3d 8f2c 863d 381e 85bc
00000080: 5cb9 0cbc 4c6d 153d 4eee 1c3d 54bf f9bd
00000090: 7ab4 82bd bc62 73bd 84b5 263d 1c0c ab3c
000000a0: 5682 663d 5be3 81bc 616d aa3b 00fe b2bd
000000b0: 9ca7 71bb 0921 ca3c 10fd 8e3c 8fba 883c
000000c0: eb10 1a3c bcc6 193d 03b3 67bc 36a2 4d3d
000000d0: 36e5 913c 681c ac3d fc46 6cba f2f8 283d
000000e0: 1b99 813d 10b1 cc3c 62cd 7a3d 60e6 e5bb
000000f0: 1527 533d 8cec 403c 5cf1 a4bc e1f6 b8bd
00000100: caa2 ecbb c4f2 44bd d563 533d 66ef 6abd
00000110: c24d e23c 3bef b93c fb9f 503d 6c02 b1bd
00000120: 9b34 a3bb c40e 18bd 7c75 753d 017c b4bb
00000130: 4fd4 04bd 1e44 1f3c c2eb 8c3d ba55 3f3c
00000140: 0b5f 463d 2ce7 433b 255f 03bd 92b0 19bd
00000150: 3e5a 59ba 0f19 55bc baab 1ebd 8ee3 79bc
00000160: 8563 ba3c 9c4b 8ebc 302f 8c3d d848 4e3a
00000170: dd10 4dbc 442a 3a3d 2a31 513c fcbf 4a3c
00000180: bc4c 53bd 3953 a03d 58ec 0dbc ecf4 3a3c
00000190: 000e 6d3d 445b 17bc 6279 adbb 0f8b 4bbc
000001a0: de71 50bc 54b3 56bd 94ee a4bb cb4a a83c
000001b0: 9afa 4c3d a2db e7bc 2890 113d 6b74 953b
000001c0: a6a8 bbbd 1f31 03bd e871 0438 4dce 92bd
000001d0: 0f1b 4abd c1cd debd de4f c83a 8966 053d
000001e0: e2d8 2b3d 760a 1a3d d9c5 223d 7720 063c
000001f0: 6a02 9e3c 0ba3 583d 09bf 6a3c 5bbd 8b3d
00000200: 101d 773d 945d 863c d4ea aebd a4fd b8bc
00000210: 7f73 32bd 703c bf3c 9188 7e3d e18d 3c3d
00000220: 9e30 afbb 029b 093d 2872 203d cc4d 3bbd
00000230: 6b91 903d d209 893d 4c8d ff3c f837 5f3c
00000240: dd9e 65bd 0b11 0fbe 9d93 2c3c a089 253d
00000250: 175e 973b 868d d7bc 6c7e 43bd 09b0 88bd
00000260: 2bc8 293d cf2a 093d b098 7cbd 16a3 8ebc
00000270: a5a2 233d 0c6e 3c3d 7e08 a0bb 8b0f 193d
00000280: 7a79 e3bc 09f2 5a3d d0c7 3a3d 7c6e 3b3d
00000290: 71a4 fb3c 5cfc 87bc eba7 83bd d451 ba3c
000002a0: 6378 c2bc 426d 82bc e840 f1bc 81aa b3bc
000002b0: 73a6 aabc 6efb 263d e8cf 9abc 5d52 73bb
000002c0: 0946 cb3c e5d6 1f3d 6bba ef3c 9870 a0bc
000002d0: 2e89 07bd a112 583d 084f 023d 1f3e 3f3c
000002e0: 61f6 823d 0378 b03c 8a22 fb3c 080e 5c3c
000002f0: 0cd3 bb3c 49e6 7fba 6514 83bd 836c 5f3d
00000300: bd84 d0bc e68a a4b9 4be0 19bd d1bf 15bc
00000310: 501d 713d a415 073d 465c fbbc 1792 0d3d
00000320: 8373 8cbb 9724 31bd f208 323d 2269 bd3c
00000330: 991d 09bd a0c0 7c3c 2e72 3abd eeaf dbbc
00000340: 7824 4a3c 4c15 a23c 9bbc 1f3d 3271 ccbc
00000350: d260 cb3b 8697 893c a1f4 d5bc 2980 363d
00000360: 3a36 bb3c d4e6 85bc 516a bdbc 2929 e8bd
00000370: be24 b3bd aecc abbc 6867 4f3c 97f7 ee3c
00000380: 98dd 403d 8356 48bd 72c5 1fbc a4ed a8bc
00000390: 98b3 6d3d f27e 813c 6d53 b5bd 1920 03bd
000003a0: 414a 9abc 4411 8b3d 9f1b af3c b95c a53d
000003b0: f21f 7dba 04ac 163d ab38 9d3c 3365 293d
000003c0: 8aee fa3c 5ccc 5dbc 2d11 49bd eaa7 c6bb
000003d0: 5fbb d8bd 82f8 143b ebc9 13be f6a1 113d
000003e0: b8a8 3f3a 30a8 2bbd 180b 07bd 49f0 fb3b
000003f0: 4da9 8fbc 5654 383c 5dc4 68bd 16cf 13bd

encoder.4.bias f4 [128]
0.02509216 -0.022858733 -0.00681031 -0.014965744 0.038017392 -0.02578374 -0.054711223 -0.03328986
-0.060952477 -0.050751723 -0.045469765 -0.05105801 0.06001411 0.05839381 0.044151187 0.05767602
0.051597934 0.056675464 0.0569903 -0.05952184 -0.0135558145 0.015418325 0.0152456155 0.044397384
0.04262097 0.011230446 -0.040063377 0.028596735 -0.05411893 -0.008806421 -0.0047834096 -0.05765378
-0.051733185 -0.043156963 -0.059108954 -0.016861282 -0.021968376 -0.0205836 -0.04772318 0.05610609
0.0056916857 -0.005778913 -0.021008627 -0.048670776 -0.006229637 -0.02438742 0.060975596 -0.061102036
-0.022149937 0.019611435 0.0032478427 0.00074311334 -0.047512457 0.010553196 0.0041808207 0.034458302
0.035691593 0.044929046 0.055494383 -0.042344265 0.028945522 0.025556613 -0.037643824 -0.02597545
-0.02881192 0.03183678 -0.018106965 -0.01778489 -0.025214639 -0.026007649 -0.012459951 -0.0037961677
-0.024598308 0.015098263 -0.02927961 0.050838783 0.056049507 -0.023017118 -0.027548986 0.035844702
0.05476772 -0.048453387 -0.050779667 -0.04400785 0.05796259 -0.04621299 0.045055505 0.03106832
-0.043210473 0.04737384 -0.01696366 0.04786426 -0.039757475 -0.053181104 -0.048318207 0.059411164
-0.0012283677 -0.00018348581 -0.026213778 -0.025847485 0.05071024 -0.05925018 -0.04077347 0.017905261
0.0113923885 -0.057108015 0.0115387635 0.038250115 -0.034950696 0.024961708 -0.045073237 0.010339212
0.018142223 -0.006652843 0.031153025 -0.042168483 -0.05080496 -0.06243942 -0.049709268 0.009527742
-0.052964676 0.026556458 0.011904431 0.022125943 0.023321548 0.05954906 -0.048402634 0.026129335
00000000: 138e cd3c 3d42 bbbc 0529 dfbb e132 75bc
00000010: 20b8 1b3d 6c38 d3bc e018 60bd f35a 08bd
00000020: 4ea9 79bd 0ae1 4fbd 813e 3abd 3422 51bd
00000030: 5bd1 753d 592e 6f3d e0d7 343d b13d 6c3d
00000040: 5b58 533d 8824 683d a96e 693d 2ccd 73bd
00000050: 3519 5ebc 249d 7c3c bfc8 793c 08da 353d
00000060: 5493 2e3d e8ff 373c 7f19 24bd b343 ea3c
00000070: d0ab 5dbd cf48 10bc 26be 9cbb 5f26 6cbd
00000080: 2de6 53bd 5bc5 30bd 3b1c 72bd ac20 8abc
00000090: 06f7 b3bc f09e a8bc 6279 43bd 80cf 653d
000000a0: 5281 ba3b 095d bdbb 491a acbc 025b 47bd
000000b0: fc21 ccbb 20c8 c7bc 8cc1 793d 2146 7abd
000000c0: c973 b5bc 29a8 a03c c2d9 543b 7ecd 423a
000000d0: 6c9c 42bd 50e7 2c3c 44ff 883b 2624 0d3d
000000e0: 5931 123d 8507 383d 144e 633d 2e71 2dbd
000000f0: 291f ed3c 1a5c d13c 6930 1abd 78ca d4bc
00000100: fa06 ecbc 4967 023d 0f55 94bc 9eb1 91bc
00000110: ee8e cebc fe0d d5bc d324 4cbc 20c9 78bb
00000120: 6482 c9bc b45e 773c cbdb efbc 543c 503d
00000130: 2b94 653d 658e bcbc 69ae e1bc e5d1 123d
00000140: 1e54 603d 0f77 46bd 57fe 4fbd 9341 34bd
00000150: 2e6a 6d3d d549 3dbd 1f8c 383d fd82 fe3c
00000160: 77fd 30bd 120b 423d 60f7 8abc 500d 443d
00000170: bcd8 22bd 6ed4 59bd 50e9 45bd 1f59 733d
00000180: 2e01 a1ba 1966 40b9 47be d6bc 1bbe d3bc
00000190: 8ab5 4f3d 51b0 72bd 1502 27bd 0eae 923c
000001a0: 24a7 3a3c 18ea 69bd 150d 3d3c 27ac 1c3d
000001b0: 7628 0fbd 7f7c cc3c b79e 38bd cc65 293c
000001c0: 009f 943c 1800 dabb a134 ff3c dcb8 2cbd
000001d0: dd18 50bd 7ac0 7fbd f29b 4bbd 3f1a 1c3c
000001e0: 7df1 58bd ee8c d93c cd0a 433c 7741 b53c
000001f0: d50c bf3c b7e9 733d d741 46bd 300d d63c

encoder.5.weight f4 [128]
0.9698536 1.0166751 0.9867358 0.9301202 1.0102937 0.98409057 0.98807395 0.9991948
1.0512344 1.0249287 0.97113496 1.0337969 0.976695 0.9873101 0.98795974 0.96707267
0.98082495 1.0169728 0.97294194 0.96579945 0.9617812 1.0096741 0.99268323 0.9904616
0.94862074 0.9937464 0.9555238 0.9889964 0.96258634 0.97841436 1.0019661 0.97870684
1.0441064 0.97869664 0.9812617 0.98018235 1.0233972 0.9538481 0.996865 0.94796944
0.993549 0.98403007 0.98106056 0.9565204 0.97416914 0.99126387 0.99121493 0.9969969
0.9743429 0.9771223 0.96282923 1.0455247 0.9920094 1.0397338 1.0034605 1.0129031
0.9852219 0.96546656 1.0035629 0.9765719 1.0071639 0.9833623 0.97032756 0.9507869
0.9919992 1.007123 0.9761487 0.97056794 0.979221 0.99452364 0.99655306 1.0186838
1.0154667 0.9987007 1.0291739 1.0251237 1.0248495 0.96685755 0.95451343 0.9780213
0.99272835 0.9888496 0.9710673 0.9580393 0.9787166 0.9965941 0.97693163 0.96388096
0.98907536 1.0050086 0.98479646 0.97720635 0.996474 1.0006384 1.0219005 0.9868492
0.99187243 0.956458 0.984554 0.9541944 0.9751371 1.0013897 0.9790883 1.0181866
0.9484444 0.9768035 0.95490074 0.9845896 1.0122054 0.95720696 0.9651138 0.9673004
0.96840227 0.9978196 1.0000719 0.9841014 1.0160465 0.94408035 1.0209911 0.97172
0.9724911 1.0208226 0.9737375 0.97461224 0.97302794 0.97179145 1.0317458 0.9501307
00000000: 5348 783f 6922 823f b89a 7c3f 5c1c 6e3f
00000010: 4e51 813f 5ced 7b3f 6af2 7c3f 3bcb 7f3f
00000020: d98e 863f dd30 833f 4d9c 783f 7553 843f
00000030: af08 7a3f 5bc0 7c3f eeea 7c3f 1392 773f
00000040: 5817 7b3f 2a2c 823f b912 793f a23e 773f
00000050: 4b37 763f 003d 813f 7d20 7e3f e48e 7d3f
00000060: cfd8 723f 2a66 7e3f 359d 743f de2e 7d3f
00000070: 0f6c 763f 5d79 7a3f 6d40 803f 888c 7a3f
00000080: 47a5 853f dd8b 7a3f f733 7b3f 3bed 7a3f
00000090: aefe 823f 642f 743f 8b32 7f3f 20ae 723f
000000a0: 3a59 7e3f 65e9 7b3f c926 7b3f 85de 743f
000000b0: 2663 793f 78c3 7d3f 43c0 7d3f 303b 7f3f
000000c0: 896e 793f b024 7a3f fa7b 763f c1d3 853f
000000d0: 54f4 7d3f ff15 853f 6571 803f cfa6 813f
000000e0: 8137 7c3f d128 773f c074 803f 9e00 7a3f
000000f0: bfea 803f a2bd 7b3f 6367 783f c566 733f
00000100: a9f3 7d3f 68e9 803f e2e4 793f 2477 783f
00000110: 3aae 7a3f 1a99 7e3f 1a1e 7f3f 3b64 823f
00000120: d0fa 813f d9aa 7f3f f8bb 833f 4137 833f
00000130: 452e 833f fa83 773f fe5a 743f 9b5f 7a3f
00000140: 7223 7e3f 3f25 7d3f de97 783f 1042 753f
00000150: 2c8d 7a3f ca20 7f3f 3118 7a3f e7c0 763f
00000160: 0b34 7d3f 1fa4 803f 9f1b 7c3f 322a 7a3f
00000170: ec18 7f3f eb14 803f a3cd 823f 26a2 7c3f
00000180: 5aeb 7d3f 6eda 743f bb0b 7c3f 1646 743f
00000190: 96a2 793f 8a2d 803f 88a5 7a3f f053 823f
000001a0: 41cd 723f cb0f 7a3f 6074 743f 100e 7c3f
000001b0: f28f 813f 840b 753f b311 773f 00a1 773f
000001c0: 36e9 773f 1b71 7f3f 5b02 803f 12ee 7b3f
000001d0: d00d 823f 40af 713f d6af 823f a4c2 783f
000001e0: 2df5 783f 51aa 823f dc46 793f 3080 793f
000001f0: 5c18 793f 53c7 783f 3f10 843f c43b 733f
