Trained Models/surrogate_model_website_phishing.pth (torch, 53608 bytes, 6 tensors)

net.0.weight f4 [128, 32]
00000000: 5e4e 673d f3a0 f03c 9594 afbc 6ddf 5fbd
00000010: d573 e43c 17e1 e23d 6d9f 50be 5319 1dbe
00000020: edab 133e 901b 6f3e 7f50 07bc 1063 e3bd
00000030: 1f03 51bd 2981 bb3d fae4 b33d ca79 b5bd
00000040: 1939 633e 0acb fe3d 1a3a 9c3d 1c53 d4bc
00000050: 1067 bbbd 9f0f 4bbe 12fa 9c3d ad9f 453e
00000060: a820 2d3e 4456 d73d 80c9 823c da7c ecba
00000070: e2c2 dabd 0e26 4b3e 39ad 1e3e 021a 143e
00000080: 786a 803d d8e7 f538 62e8 223e 5867 30bd
00000090: 984b d3bd 421a 7ebd 005c f3bd 01d5 af3c
000000a0: 2454 4cbe e138 cb3c 2514 26bd 2111 1a3d
000000b0: b6bf 113e d7af a43d 35a3 2dbe 0bba 9c3d
000000c0: 2dc6 e6bc 44a1 16be 82c7 4b3e 23d7 453d
000000d0: fb25 39bc 2619 f5bd 00aa 5f3e f8e6 503e
000000e0: 4444 5b3e d0e0 67be 4f82 2f3e c635 52bc
000000f0: aefe 123e 1082 0e3e 6c46 433e df96 873e
00000100: 9b69 31be c7e0 a6bd 2399 fbbc 3958 003e
00000110: b56e bb3d 0f2e 0c3e 4316 10bc 6109 f7bd
00000120: 1906 f3bc 9432 e93d 61ae a03c 257c 75bd
00000130: 97d7 3c3d 2ffd 07be 695c 53bc f498 d93c
00000140: d0e6 1abe daf9 383e eefe 25bd 83a5 06be
00000150: e774 a03d 6fc8 c7bd 3f16 4c3e 23c6 cdbd
00000160: 9e6b 313c 5e0f e0bc 3c7f e5bd cf2b 06bd
00000170: 26f8 933d 16f0 ea3d 7004 b5bd 547c 2b3d
00000180: c0a0 283e dfab df3c 7e33 1c3e cefb bc3d
00000190: 33c0 1e3e 2b4b e83d dfe6 693e c377 a93d
000001a0: 43f9 59bd 36c4 153c d116 30be 57e1 093e
000001b0: 2560 febd e74f 353d fe90 8e3d e7c1 fbbd
000001c0: f9cb 9a3d ded5 56bd b476 c13d a0ab 1cbe
000001d0: 23db 95bd 527f 763e 502f ce3d 4506 493d
000001e0: 7dc8 d23d 4677 1bbe 6a16 6cbe bc4b e83d
000001f0: f271 1f3e b2eb cfbc 3dc5 16be c208 0c3e
00000200: a757 76bd 5aab 48bd d79c 42bd b2e7 39bd
00000210: ae95 0f3e ed15 67bd 5e15 8f3c dd3d 55bd
00000220: 3bd8 223e a21d 483e dd7e fe3c ab66 afbd
00000230: 6bc6 553e 0af3 3dbe 7f16 51be 234e ed3d
00000240: 8e70 693e a811 093e c6b0 2e3e fbef 793c
00000250: f1eb 14bd 12ee c23d 4df9 323c f822 a3bc
00000260: 3ca5 893c d7d0 af3c a1e7 a2bd 747e 7ebd
00000270: 1ffc 0dbe 5b4a 8c3b 427f 1d3e a62d 233e
00000280: 22ca 2cbe 9231 bf3d 2892 2d3e 86d7 9dbd
00000290: 3c8b 413e 72c1 21be a6ab 16bd 8c8e 7dbd
000002a0: c22f d43d 6b00 f13d a554 233e 5e63 1dbe
000002b0: 5911 003e bcd0 443a fa63 2c3d 923f edbc
000002c0: 3cdc 12be 5c32 0dbe f8aa 4ebd 459a de3b
000002d0: 7672 82bb aead db3d 3b3a b93d e230 ddbc
000002e0: b833 3c3e c925 69be 01b3 343e fc8f 153d
000002f0: 0285 20bd 53f6 093d c633 62bd 7315 59bd
00000300: f0ee d5bd 58d9 7d3d 4d36 173e 0b45 10be
00000310: f090 103e 0f6f 213e ef5b 20be b4cd dbbd
00000320: d353 c2bc 5133 993d a032 993d 22b7 91bd
00000330: c1cf 3e3e 7012 473e a6be 0e3e 0c0c 16be
00000340: 8cdd c6bd 2eae 9c3c 232e b63d 177f 4dbe
00000350: 205c 25be 3e36 06be 0d2c 12be ac99 bd3b
00000360: e50b 0f3e fd28 a2bd 882d 05be 0b5d 1a3e
00000370: be8f 93bd 6d3a 08bc e110 893d b0da 363e
00000380: a1b7 76bd 928d 12be 53ac 2c3d c9ce f73d
00000390: 68b6 56bd caa8 f63d d6e3 b23d f410 21be
000003a0: a830 b73d 1003 dd3c 8434 f6bc 1110 9e3d
000003b0: f07f ea3d fb28 2cbc 7632 7ebc b6ed 313d
000003c0: df88 38bd 9b70 473c 00ff eabc ef97 11be
000003d0: edf3 bdbb 1eaf 2f3c 308c 06be 2ca2 e1bd
000003e0: 9894 003e 387e afbd d3ea 993d 1ad2 973d
000003f0: cb4b 5d3e 6848 1f3d 8b79 2abe 3852 e3bd
0.05647122 0.029373622 -0.021433154 -0.054656435 0.027887264 0.11078089 -0.20373316 -0.15341692
0.14421053 0.23350358 -0.008258938 -0.11102879 -0.051028367 0.09155495 0.08783908 -0.0886112
0.2218975 0.124410704 0.076282695 -0.025918536 -0.09150517 -0.19830178 0.076648846 0.19299193
0.16906989 0.10514501 0.015965223 -0.001804258 -0.10681702 0.19838735 0.15495767 0.14463046
0.06270307 0.00011725695 0.1590896 -0.043067306 -0.10317153 -0.06203676 -0.11882782 0.021463873
-0.19953972 0.024807395 -0.040546555 0.03761399 0.14233288 0.08041351 -0.1695679 0.076526724
-0.02817067 -0.14709955 0.19900325 0.048300873 -0.011300559 -0.11967687 0.21842194 0.20400608
0.2141276 -0.22644353 0.17139553 -0.012830203 0.14354965 0.13916802 0.19069833 0.26482293
-0.17325442 -0.081483416 -0.03071267 0.12533654 0.09151975 0.13689445 -0.00879437 -0.12062336
-0.029665994 0.113866 0.0196144 -0.059932847 0.04610404 -0.13280176 -0.01290045 0.026562192
-0.1512711 0.18064061 -0.040526323 -0.13149075 0.07834797 -0.097550265 0.19930361 -0.10047557
0.010828881 -0.027351078 -0.11205909 -0.032756623 0.07225065 0.11471574 -0.08838737 0.041866615
0.16467571 0.027303634 0.15254018 0.092277154 0.15503006 0.11342462 0.22841977 0.08274796
-0.05321623 0.009141019 -0.17196204 0.13464867 -0.12420682 0.044265654 0.06961249 -0.12292843
0.07558436 -0.052450053 0.09446469 -0.15299845 -0.07317188 0.24072006 0.10067618 0.049078245
0.10292146 -0.15182218 -0.23055425 0.1134257 0.1557081 -0.025380943 -0.14723678 0.13675216
-0.060142186 -0.04899154 -0.047512855 -0.045386977 0.14021942 -0.056417394 0.017466243 -0.05206095
0.15902798 0.19542554 0.031066353 -0.08564504 0.20876472 -0.18549743 -0.20418738 0.11587169
0.22796842 0.13385642 0.17059621 0.01525497 -0.036357824 0.095180646 0.010923696 -0.019914135
0.016802423 0.021461887 -0.07954336 -0.062132314 -0.13865708 0.004281325 0.15380576 0.15935382
-0.16873983 0.09335627 0.16950285 -0.077071235 0.1890077 -0.1579645 -0.03678479 -0.06190352
0.103606716 0.11767658 0.15950258 -0.15369937 0.12506618 0.00075079105 0.042087533 -0.028960977
-0.14341825 -0.13788742 -0.050456017 0.0067932927 -0.00398093 0.10726486 0.0904431 -0.027000848
0.18379104 -0.2276832 0.1764641 0.036514267 -0.039189346 0.03368218 -0.055225156 -0.05299897
-0.10445964 0.061974853 0.14766808 -0.14088838 0.1411779 0.15765022 -0.1566007 -0.10732594
-0.023721611 0.07480491 0.07480359 -0.07115008 0.1863394 0.19440627 0.13939914 -0.14653033
-0.097102255 0.019126024 0.08895519 -0.20068012 -0.16148424 -0.13106629 -0.14274617 0.0057861414
0.13969381 -0.07917974 -0.1300565 0.15074556 -0.07205151 -0.008314711 0.066926725 0.1785686
-0.060233716 -0.14311817 0.04215653 0.12099988 -0.05242005 0.12043913 0.087348625 -0.15729123
0.08944827 0.026979 -0.030054338 0.07717908 0.114501834 -0.010507817 -0.0155149605 0.04343959
-0.045052405 0.012172843 -0.028686047 -0.14218114 -0.0057969005 0.010722904 -0.13139415 -0.1101726
0.12556684 -0.08568996 0.07515492 0.074131206 0.21610944 0.03888741 -0.16647927 -0.11099666

net.0.bias f4 [128]
00000000: e463 063e 4e15 f3bd a6ed 813d c631 b2bd
00000010: b7b5 b33d 63fe ea3d e1b8 d0bb 35ed d3bd
00000020: 36b7 ed3d cfc3 2d3d 15a3 82bd 04c6 d23d
00000030: 4dd4 453d cc23 443e 7a12 b53c 8f43 ba3d
00000040: bfc9 003e 19b5 e6bd 6579 173e 92a6 2a3d
00000050: 4d8f fabc 2e26 b33b ce80 85bd 06bc 34be
00000060: 39e6 dbbd 521c 77bd c09f a0bd 728d cdbc
00000070: 9a2e 1c3e 067d 3a3e 91b1 b33d 1515 06be
00000080: 8c0a f5bd 079a 383d f162 9dbd c9e7 e3bd
00000090: aa28 2d3c c66f 203e 6c39 f9bd 3cdb 103d
000000a0: 7bc4 9dbd 6fde b43d ed67 f03d c7db c7bd
000000b0: 314b 143e 9575 3a3e d43f 143e 7af3 41bc
000000c0: 77f0 a5bd 0812 203e 470a b6bd 04aa abbd
000000d0: d478 1a3e b628 a6bd 6a6b 343e 4f82 523d
000000e0: a69e 913d 8670 923d 0b87 a43d a54b 4d3d
000000f0: 5cd5 3c3e 1aa0 533d 15b8 293e a42c 7fbd
00000100: aa75 4ebd 513d c8bd 42d5 15bc 894d 013e
00000110: 28de 5dbb 2dcc 85bd 838a 213c dbb4 6b3d
00000120: b6ed d8bd c4b7 813d a4eb a93d 32d4 d53d
00000130: 989d 5e3d 87e5 36bd fbd4 81bd 777a 6cbd
00000140: 23f5 ac3d fcfa fc3d 4fc0 0e3d bdca 12be
00000150: 9f95 87bd fbcb 213e 5dd4 00bd 410c 053e
00000160: ba4b 2f3e 0717 8c3d bf39 b6bd 150d b1bd
00000170: fdf2 adbc fac0 3c3d 690d 083e f7b6 6c3d
00000180: dea6 2bbd 2ac6 c53d b0b6 44bd e967 373b
00000190: 0b29 743c 21d0 57bd f788 1a3e 44d7 e53d
000001a0: 5e63 df3d 1134 003e 2e81 383e 1774 b4bd
000001b0: 0727 843d 1a73 853d 3020 8ebb 1329 b0bd
000001c0: 4f8f 323e f528 393e b6f9 71bc 184e d73d
000001d0: aaf0 db3d 1db6 be3d dfec 483e 755d 603d
000001e0: 15e0 de3d d9ad 3a3e 264b 9a3d 117b bb3d
000001f0: 4d68 83bd 310f d43c d23a 48bd 212f 373e
0.13124043 -0.11869298 0.06344156 -0.087009 0.08774894 0.11474302 -0.0063696955 -0.10347978
0.1160721 0.042423066 -0.06378762 0.10291675 0.04829817 0.1915428 0.022103537 0.09094917
0.1257696 -0.112650104 0.14792402 0.04166276 -0.03058591 0.005467198 -0.06518708 -0.1764985
-0.10737271 -0.060329743 -0.0784297 -0.02509186 0.15252152 0.18211755 0.087741025 -0.1309398
-0.11964902 0.045068767 -0.07684887 -0.11128194 0.010568777 0.15667638 -0.121691555 0.03536533
-0.07703491 0.08831488 0.11738572 -0.09758716 0.14481808 0.18208916 0.14477473 -0.0118378345
-0.08102506 0.15631878 -0.08888679 -0.08382037 0.15085155 -0.08113234 0.176191 0.051393803
0.07110338 0.071503684 0.0803357 0.05012097 0.18440765 0.051666357 0.16574128 -0.062298432
-0.050405182 -0.0977732 -0.009145083 0.12627234 -0.003385434 -0.06533084 0.009859684 0.057545524
-0.10592215 0.06333879 0.08296898 0.10440864 0.05434951 -0.044652488 -0.06339451 -0.05773398
0.084451936 0.12352559 0.03485137 -0.14335151 -0.06620335 0.15800469 -0.031452525 0.12992956
0.17118731 0.068403296 -0.08897733 -0.08645073 -0.02123403 0.046082474 0.13286366 0.057791676
-0.041907184 0.096569374 -0.048025787 0.002798552 0.0149023635 -0.05268872 0.1509131 0.11222699
0.10907625 0.12519862 0.18018028 -0.08811205 0.064527564 0.065160945 -0.004337333 -0.08601584
0.1743748 0.1808203 -0.014769008 0.10512942 0.107392624 0.09312079 0.19621609 0.054776628
0.10882584 0.1823038 0.07533865 0.091543324 -0.06416378 0.02588615 -0.04888422 0.17889072

net.3.weight f4 [64, 128]
00000000: 01df 473d c7d3 533d bcc9 0ebd 4e2d aebd
00000010: 00ca 693d c86c 88bd 7501 7cbd 5149 89bd
00000020: 8a74 5ebd 2628 c63c f792 d6bb e8e3 1e3d
00000030: 65a9 45bd 3a79 d3bc 85b4 74bc 3c4b 073d
00000040: 1e86 dd3c ec8d 2b3d 5dbb 403d 311d 8e3c
00000050: f082 863b 3256 373d 6cb4 78bd 2dbd 493c
00000060: 2db1 2cbb 5dcd 4ebd fb93 07bc 2300 b9bd
00000070: 378f a9bd 3288 38bd 0766 af3c 521d 73bd
00000080: 0cc8 273c a4c9 fb3c c3ba a03d a89f 2bbd
00000090: e9b0 1cbc 64c0 6bbd 85a4 8e3d 1275 a2bd
000000a0: da3b c3bd 2d0c 483d bfc9 c03b ae13 9dbd
000000b0: c849 c7bc e339 afbd c0f0 b2bd acee a43d
000000c0: e5ce cabc 2099 e43c 7871 003a 84ae ac3c
000000d0: 212b 9fbb 4347 12bb c7ca d8bd 048d 443d
000000e0: a40a 8bbc b77d c53b d767 a8bc 31f6 66bc
000000f0: d4f0 80bc 1da0 97bd c1f7 bcbd 7f09 073d
00000100: 7d12 60bc 9185 98bd 48cf a2bd 86f2 36bd
00000110: 9b0b 9bbd fc58 c93b 2b1e 20bd 6736 cebd
00000120: 5973 26bd 1d74 3e3d bd24 8fbd f254 cbbd
00000130: 9d33 cebd b7ca c1bc f565 7b3c 3ed9 b9bd
00000140: e4d1 613d 979c 663d 01bd 0abd bc0b e9bc
00000150: db69 4dbd e47d f83c fb35 c8bb 2a0a 6abc
00000160: 6453 273d 9791 21bc fe7f 343d b705 01bd
00000170: a604 adbd f2f4 1dba eadb cbbc eea1 503c
00000180: c763 2abc d548 d53c f2db 53bc 3189 9ebd
00000190: 2078 e6bc 84e9 02bd 2a0a 0fbd 4649 7cbd
000001a0: 23e8 763d 7701 0f3a 947c b8bd 323f 90bd
000001b0: 2c74 4c39 d7f7 8c3c 7dc9 36bd 830f 57bd
000001c0: 736e 7ebd 40e1 84bd efd1 c1bd 97de 1dbd
000001d0: f722 5f3d 7f70 69bd 5f7c 89b9 567a 78bd
000001e0: 0cbe dfbc 362c a8bd a7e9 aabd d83e 8e3c
000001f0: 506c 9a3c c58b 903c e3b9 973d f1c4 0d3d
00000200: c4e4 7b3c fcdd a83d ebff 9a3d d3c0 2f3d
00000210: 3cc4 ce3d 7c66 2f3d 22ed 5c39 9b52 60bd
00000220: a10d ba3b dfbe 063d 3281 163c b93b 34bc
00000230: 0eda 103e e20b 88bd 3bbc 00bc 2cd5 173d
00000240: 1d31 aabc ac1c ec3c 35f3 2b3d 443d 373d
00000250: 9242 e53c 7597 db3d a515 ff3d bf45 fbbc
00000260: 7278 c73d 5bd4 bdbd f96d e6bb 623c b93d
00000270: b6cf 853d 857a 73bd f525 c9bd 73dc be3d
00000280: 7b3a b03d b96f ce3d 5c35 11be 22ba eabd
00000290: 23f4 b23d d829 a6bc 2595 76bd 0530 4cbc
000002a0: b6ba f33d e679 053e f212 a8bc c56d f9bd
000002b0: 85ae 263d 90a0 543d 5dac b7bb 28d4 e5bd
000002c0: c011 023e 6908 dc3c d396 e33d 0441 8c3d
000002d0: 9ca6 e9bc b77f bcbc de3f b73c 62c4 06bd
000002e0: 5b47 12bd e3f6 173d a005 233e 001d f93d
000002f0: cb4a cd3d f9db 533d 028e e03d 7ba0 66bd
00000300: d9fd c9bc 29f5 d93d fafb 773d a0c1 193d
00000310: 490d da3b 8fcf 2ebd b370 48bc 15e0 e4bd
00000320: c473 123d 5c52 8abc 761d d93d 5166 f5bb
00000330: 50a8 c03d 9f9d 0c3e 32df e13d 0ba4 0f3e
00000340: 1324 003e 0fd7 803d 6879 5bbd e1c0 063e
00000350: a8c8 03be 2b6c c3bc 284e 74bd 4025 ee3d
00000360: 3cc9 ea3d 30b2 3dbd f4cb e23d 34d9 0e3e
00000370: a899 89bc 928b 0cbd d86d cdbd 1251 febd
00000380: 9471 d93d 9950 0fbd 056d 603d 6c8d 8ebb
00000390: 313a 64bd 4838 80bd c95e bcbd 8f96 803d
000003a0: 1b53 aa3d a14c d4bc ee49 0d3e cea0 afbd
000003b0: 20fc db3d e4cb eb3d a5b0 143c 4a51 0e3e
000003c0: a79a 873d d3cb b4bc 80a4 cebb 3789 243c
000003d0: 3bae 9d3d 8cf4 a5bd ec35 da3d ba83 32bd
000003e0: 8813 c9bc 6b8b d33c 0833 b73d 3462 e4bc
000003f0: 04a9 4cbb b819 53bc e22e c63c 2dab b6bd
0.048796657 0.05171564 -0.034860358 -0.08504735 0.057077408 -0.066613734 -0.061524827 -0.06703437
-0.05431036 0.024189066 -0.0065482813 0.038791567 -0.04825725 -0.025814641 -0.014935617 0.033030733
0.027041491 0.041883394 0.047053684 0.017347904 0.0041049644 0.044759937 -0.06071894 0.012313169
-0.0026350722 -0.05048882 -0.008275027 -0.09033229 -0.08279269 -0.04505176 0.021410955 -0.059354134
0.010240566 0.030735798 0.07848122 -0.041900307 -0.009563663 -0.057556525 0.06964973 -0.07932486
-0.095329 0.048839737 0.005883425 -0.07669769 -0.024327174 -0.08555963 -0.08737326 0.080533355
-0.024756858 0.027905047 0.00048997207 0.02107931 -0.0048574363 -0.0022320307 -0.10585552 0.047986045
-0.016972847 0.0060269493 -0.020557327 -0.014096783 -0.015739836 -0.07403586 -0.09226943 0.03296804
-0.013676283 -0.07447351 -0.07949692 -0.044664882 -0.07570573 0.006144641 -0.03909127 -0.1006897
-0.040637348 0.046497453 -0.06989429 -0.099283114 -0.10068438 -0.023656232 0.015344133 -0.09074639
0.055131808 0.05630168 -0.033871654 -0.028447978 -0.05014978 0.030333467 -0.0061099506 -0.01428465
0.040851012 -0.0098613715 0.044067375 -0.03149959 -0.08448152 -0.00060255744 -0.024885137 0.01273392
-0.010399765 0.026035706 -0.012930857 -0.07741011 -0.028133452 -0.03196098 -0.034921803 -0.061593316
0.060279977 0.00054552354 -0.090081364 -0.070433035 0.00019498233 0.017208023 -0.044625748 -0.052505028
-0.06211705 -0.064882755 -0.0946387 -0.038542356 0.054476704 -0.05699205 -0.0002622334 -0.060663544
-0.027312301 -0.082115576 -0.08345347 0.01736395 0.018850476 0.017644772 0.07408502 0.034611646
0.015374366 0.08245465 0.07568344 0.0429085 0.100960225 0.042822346 0.00021069174 -0.05476628
0.005677894 0.032896873 0.009186076 -0.011000567 0.14145681 -0.066428915 -0.007857378 0.03706853
-0.020775372 0.028822266 0.041979987 0.04473616 0.027985845 0.107222475 0.124553 -0.030672906
0.0973977 -0.09269019 -0.0070321527 0.0904472 0.06533758 -0.059443016 -0.09821693 0.09319391
0.08604904 0.10079903 -0.14180511 -0.11461283 0.08737972 -0.020283625 -0.06020083 -0.012462621
0.11900847 0.13034782 -0.020516846 -0.1217914 0.04069378 0.051910937 -0.005605264 -0.11222106
0.12702084 0.026859479 0.11112752 0.06848338 -0.028521828 -0.023010118 0.022369321 -0.03290213
-0.03571258 0.037100684 0.15920115 0.121637344 0.10024031 0.051723454 0.10964586 -0.05630539
-0.024657177 0.10642464 0.060543038 0.03753817 0.0066544157 -0.042678412 -0.012233901 -0.11175553
0.035754934 -0.016884975 0.10601322 -0.0074890037 0.09407103 0.13732003 0.11028899 0.14027421
0.12513761 0.06291019 -0.05358258 0.13159515 -0.12869513 -0.02385529 -0.059644848 0.116281986
0.11464164 -0.04631251 0.11074057 0.13950044 -0.016796902 -0.034312792 -0.10030717 -0.12417807
0.106173664 -0.034988973 0.05479147 -0.004350355 -0.05571956 -0.06260735 -0.09197766 0.06278717
0.08316632 -0.025915446 0.13797733 -0.08575593 0.107414484 0.115134984 0.009075318 0.13898197
0.066212945 -0.022069847 -0.006306231 0.01004248 0.076992474 -0.08103284 0.10654816 -0.043582655
-0.024545446 0.025823316 0.0894528 -0.027878858 -0.003122867 -0.01288455 0.024192277 -0.08919368

net.3.bias f4 [64]
00000000: 5153 303c b8ed 5e3d f57d 6a3c 1ef9 44bd
00000010: dfbf e0bb e313 5b3c 5790 893d bc25 70ba
00000020: d2b6 d3bc 6f9d c1bc d774 1a3b fa7a 69bc
00000030: 0d96 913d ed84 bfbc 3048 253d 8bae 2cbd
00000040: 69b3 c63c 3bfb 3dbd 0c66 c93c 57ea 363d
00000050: eadc 9bbc 87d2 a5bc 6c02 1f3d 304d a5ba
00000060: 6358 e73d 2c80 55bc 8dbb 623d ac5c a73c
00000070: 169e 19bd e7f9 e13c 2749 b23c 9071 ae3b
00000080: a6b9 ed3c 832f 733d c200 39bc 2cb3 7c3d
00000090: e326 c0bd c6a5 863d fbec de3c 5826 2c3d
000000a0: 8f25 dc3c 5dd7 713d b928 d93c 2c5b b6bd
000000b0: f884 c93b bb8d c13b 3cf6 62bd f66d fbbb
000000c0: e6c5 03bd 66bf b33d d02d 1e3d a933 a13b
000000d0: 5261 96bc c252 a63d 4f7c a53d f4b6 803d
000000e0: b0dd 86bd da0a c7bd 9a34 b03c 33b4 773c
000000f0: faf6 653c 8066 c3bc 4885 323d b4de b1bd
0.010762052 0.054425925 0.014312257 -0.04808914 -0.0068588103 0.013371441 0.06716984 -0.00091608963
-0.025844011 -0.02363464 0.0023568177 -0.014250511 0.07108698 -0.023378814 0.040352046 -0.042158645
0.024255471 -0.04638217 0.024584793 0.044657078 -0.019026238 -0.020241989 0.03882067 -0.0012611505
0.11296155 -0.013031047 0.055354644 0.020429932 -0.037504278 0.027584983 0.021763397 0.0053235963
0.029019188 0.059371483 -0.011291685 0.06169431 -0.09382417 0.065745875 0.02721261 0.042028755
0.026873378 0.059043277 0.026508676 -0.089041084 0.0061498843 0.005906788 -0.05541061 -0.0076730205
-0.032171153 0.08776741 0.03861791 0.0049194884 -0.018356953 0.081212536 0.080803506 0.062848955
-0.06585252 -0.09718867 0.021509457 0.015118646 0.014035935 -0.023852587 0.04358414 -0.086850554

net.6.weight f4 [3, 64]
00000000: ce0e 273d 5f89 15be a462 803d 99bb a63d
00000010: f242 c9bd f79c de3d 8cf7 aa3d ebbc c63d
00000020: e1ba c6bd 8222 043d 9662 993d bc47 22be
00000030: 332f 3fbd 6bdb 8ebc 2af0 3a3c c6c3 21be
00000040: ab43 99bb a5d8 023d 4023 04be b24a 163d
00000050: 743b 24bc edc5 3fbe e3e1 97bd d33c 17be
00000060: e601 08be b3ea e93d 0086 6b3c 8565 c93d
00000070: c2ad 5e3d 4023 e4ba 8c20 223d 475f be3d
00000080: 6058 1c3d fc4e 863d f956 c73c aba0 12be
00000090: 66ba c83d f15b 0dbe 370c 01be bc5d 743d
000000a0: 9e17 b73d 1779 acbd 5ae3 023c 3318 fd3c
000000b0: dee9 cf3d cd03 debc 8af2 85bd 9ab4 a93d
000000c0: e311 07be 0d99 813d bbdd 9dbd 96c8 1ebe
000000d0: a793 243d caf8 f1bd b0e1 d9bd c2a3 743d
000000e0: 4596 e33d 9b47 823d d608 08be 90dc 663d
000000f0: 95eb e1bd 6248 b5bd 10ef 1dbe 7446 b33d
00000100: d668 d6bd 17ea cc3d d8d9 1dbd c43e 8abd
00000110: f4c2 2e3d 5e6d 2d3e 28bf d1bd 64a8 253e
00000120: 50fd 6d3d 185d 2d3e 4009 fbbd fb25 3ebe
00000130: 4bb0 033e 2884 96bd af01 44bd 125a f83d
00000140: e72f 1dbe 2187 14be 2432 4fbe 6dbf d2bd
00000150: b960 d23d 4edf 0b3c 8e77 15be f2ce 92bd
00000160: e56e 3dbe e7c3 21bd 2e7e babd 0e97 1a3e
00000170: 12d7 3ebe 2394 15be d95d 16be 6056 9ebd
00000180: 6fa7 933b a114 af3c 4927 61bc 2800 693b
00000190: bcf3 b53a 3479 1d3d 8c90 0e3e d631 a6bd
000001a0: 2bf0 74bc 8f10 b8bb 17c4 3abd 0c7a f4bc
000001b0: 8026 3f3d eba4 d7bd b5f8 1a3e 645b b5bd
000001c0: 1a1d 783d a709 fb3d 1246 433e 8f1a 1b3e
000001d0: ddff 29be 2b24 b6bd 3865 193e 0911 ae3d
000001e0: a0ae ffbd ce86 6abd 0e9b 25be 49cd 95bd
000001f0: d63a 4c3d d5cc b0bd ccb4 e03d 2d4e 203d
00000200: 1a1d 00bd 83f3 7abd a59a f1bd 5b19 6f3c
00000210: 4bbd 1dbd 1098 05be e1c0 113e 20c4 22bd
00000220: 6b2b 83bc 8c16 6a3d b515 2a3e 8b22 413d
00000230: bc31 e3bd e283 98bd c0d6 46bd 214f 703c
00000240: 939e 0b3e b0f1 2e3e b4d3 77bc 6084 eabc
00000250: 3945 283e dd65 673d f748 033c 7d22 b73d
00000260: 1365 0bbc 084c 283e 92fd 333d e6fe 35be
00000270: c49f e23d 3a0b 6d3d 0c37 2d3e 1d33 483e
00000280: 036d b4bb f2f9 4d3d 44ce 113c fe40 1abe
00000290: 9851 35bc bf0b df3d 985b 4f3d 78df c9bc
000002a0: f0ce 6fbd 3b9b a33d c40b f03d 318b d0bd
000002b0: 1e3b 24bd c3ae a73d 3568 873d 8c07 fabb
000002c0: eb0b 873d bacf 31be 4615 79bd d69a a3bc
000002d0: 9a39 8b3d 1d50 203e d0ac ed3d 85e1 d3bd
000002e0: c265 febd 5863 7e3c 43d3 593d 707d 393e
000002f0: 3f68 343c 09c6 9b3d b2d2 18bd 647a 733d
0.040785603 -0.14603184 0.06268814 0.0814125 -0.09827222 0.108697824 0.08347997 0.09704002
-0.09703613 0.03225947 0.07489507 -0.15847677 -0.046675872 -0.017438611 0.011409799 -0.15797338
-0.004677256 0.03194489 -0.12904072 0.03669233 -0.01002394 -0.18727846 -0.07416131 -0.14769296
-0.13281974 0.114217184 0.01437521 0.098338164 0.054364927 -0.0017405525 0.03958182 0.092955165
0.03817022 0.06558034 0.024333464 -0.14319102 0.09801178 -0.13804604 -0.12602316 0.059659705
0.089400515 -0.084215336 0.007988775 0.030895328 0.101520285 -0.027101422 -0.06540401 0.082864
-0.13190417 0.0632802 -0.07708307 -0.15506205 0.040179875 -0.11815031 -0.106387496 0.059726484
0.11112646 0.06361314 -0.1328462 0.05636269 -0.11031262 -0.088516966 -0.15423226 0.08753672
-0.104692146 0.100055866 -0.03853783 -0.06750253 0.04266639 0.16936252 -0.10241538 0.16177517
0.058102906 0.16930044 -0.12257624 -0.18569176 0.12860219 -0.073494256 -0.047853168 0.121265545
-0.15350305 -0.14504673 -0.20233971 -0.10290418 0.10272355 0.008537127 -0.14596388 -0.07168378
-0.18499334 -0.039493468 -0.09106098 0.15096685 -0.1863673 -0.14607291 -0.14684238 -0.077313185
0.0045060436 0.021372141 -0.0137422765 0.0035553072 0.0013881843 0.038445666 0.13922328 -0.08114974
-0.014949839 -0.0056172083 -0.045597162 -0.029843353 0.046667576 -0.105295025 0.15133937 -0.08855322
0.06057463 0.122577004 0.19069698 0.1514685 -0.1660151 -0.08893617 0.14980018 0.08499343
-0.12484479 -0.057257466 -0.1617243 -0.07314546 0.049860798 -0.086328186 0.10971984 0.039137054
-0.031277753 -0.061267387 -0.11797074 0.014593448 -0.038510602 -0.13046288 0.14233734 -0.03973782
-0.016011914 0.05715041 0.16609843 0.047152083 -0.110934705 -0.0744703 -0.048544645 0.014667303
0.1363471 0.17084384 -0.015126158 -0.028627574 0.16432656 0.05649363 0.008013002 0.08942125
-0.008507985 0.16435254 0.043942995 -0.17773017 0.11065629 0.057872035 0.1691553 0.19550748
-0.0055061593 0.050287195 0.008899275 -0.15063855 -0.011066817 0.10890912 0.05062446 -0.024642691
-0.05854696 0.07988592 0.11720994 -0.10182799 -0.04009544 0.0818763 0.06611673 -0.007630294
0.0659407 -0.17364398 -0.060811304 -0.019971292 0.06798096 0.15655561 0.11605227 -0.10345749
-0.124217525 0.015526615 0.05317999 0.18114257 0.011011182 0.076061316 -0.03731031 0.059442893

net.6.bias f4 [3]
00000000: c007 7d3d cac3 94bd 9f19 a63d
0.06177497 -0.07263906 0.081103556
