Trained Models/surrogate_model_bank_churn_data.pth (torch, 45066 bytes, 6 tensors)

net.0.weight f4 [128, 16]
0	0xbea406ff	-0.32036588
1	0x3e03dbcf	0.12876819
2	0x3e1e0950	0.1543324
3	0x3e88b288	0.2669871
4	0xbdc084e2	-0.094003454
5	0x3e388b4b	0.18021886
6	0x3e0ab3a5	0.13545091
7	0x3d9ea6db	0.07746669
8	0x3cdb7841	0.02679074
9	0xbe8f3a05	-0.27973953
10	0xbdb6d59a	-0.0892746
11	0xbe3eebc9	-0.18644632
12	0xbe4652e6	-0.1936756
13	0x3dd70cb1	0.105004676
14	0xbe62244f	-0.22084163
15	0x3e6d2830	0.23159862
16	0x3dcf2eb9	0.101163335
17	0x3de86ebb	0.11349245
18	0xbdf9cbd5	-0.12197081
19	0x3c420791	0.011842624
20	0x3d9d44df	0.07679152
21	0xbcc4f007	-0.024040235
22	0x3e59d712	0.21273449
23	0xbe762cd1	-0.24040534
24	0x3d7195ef	0.05898088
25	0x3dfcfd15	0.12352959
26	0x3e77f03f	0.2421274
27	0xbcae60b7	-0.021286352
28	0xbc28dc30	-0.010306403
29	0x3d9709ef	0.073749416
30	0xbdfb8ed0	-0.12283099
31	0x3dc7cd57	0.09755962
32	0x3c2cb4b2	0.010541128
33	0x3cb28eb5	0.021796564
34	0x3dd2d652	0.102947846
35	0xbe68d9bb	-0.22739308
36	0x3e8643bb	0.2622355
37	0x3e723750	0.23653913
38	0xbce1d8d1	-0.027569206
39	0x3d73715f	0.05943429
40	0x3e14fa11	0.14548518
41	0xbdab369e	-0.08360027
42	0xbe94524c	-0.28969038
43	0x3e43fd5f	0.19139622
44	0x3e102d3d	0.14079757
45	0x3e7249f5	0.23661025
46	0x3d22e1f3	0.039766263
47	0xbd74fd2a	-0.05981175
48	0x3e91259b	0.28349003
49	0x3e0d9d3a	0.13829508
50	0xbe5a72a5	-0.21332796
51	0xbd1e6357	-0.038668957
52	0xbd382f49	-0.04496697
53	0xbe6d4c68	-0.23173678
54	0x3e21ca60	0.15799856
55	0x3e990c3a	0.2989214
56	0xbd730ff1	-0.059341375
57	0x3e109cf2	0.1412237
58	0x3e56e3da	0.20985356
59	0x3dd89f10	0.10577214
60	0x3c0d127f	0.008610367
61	0xbe70db30	-0.23521113
62	0xbe59049b	-0.21193163
63	0x3da301dc	0.07959339
64	0xbc996f0b	-0.018729707
65	0xbe72aac1	-0.2369795
66	0x3e8e8521	0.27835944
67	0x3e4639b4	0.1935795
68	0x3db6ba9f	0.08922314
69	0x3e923816	0.28558415
70	0xbe02bb3a	-0.12766734
71	0xbd3754fd	-0.044758786
72	0x3e1f5b8a	0.15562263
73	0x3e1e3f64	0.15453869
74	0xbc30245e	-0.010750858
75	0x3d70d261	0.058794383
76	0xbbefaf55	-0.0073146024
77	0xbca59f9a	-0.020217706
78	0x3e0d9f56	0.13830313
79	0xbe39a95f	-0.18131016
80	0x3da23c50	0.0792166
81	0xbd6ce240	-0.057832956
82	0xbd380922	-0.044930585
83	0xbe7f9ca4	-0.24962097
84	0x3e54174f	0.20712017
85	0x3d840449	0.0644613
86	0xbe1d951b	-0.1538891
87	0x3ceb65a3	0.028734988
88	0x3d56e9e3	0.052469146
89	0x3e29f39c	0.16596836
90	0x3e0d98d8	0.13827837
91	0x3e27df0e	0.16393682
92	0x3df4e601	0.11957932
93	0x3e37dcf5	0.17955382
94	0x3d6d9b7a	0.058009602
95	0xbe67771a	-0.22604027
96	0x3e4d5c48	0.20054734
97	0x3e8fc824	0.28082383
98	0xbe29d754	-0.16586047
99	0x3e233658	0.15938699
100	0x3d861600	0.06547165
101	0xbd3ebc8a	-0.046566524
102	0xbda70a4f	-0.08156263
103	0x3ccb5a30	0.024823278
104	0xbe85a1db	-0.26100048
105	0x3e8d742d	0.27627698
106	0x3e6e5fb7	0.232787
107	0xbe1400ad	-0.14453383
108	0xbe1a7966	-0.15085372
109	0xbe21fe75	-0.15819724
110	0x3dbdd43c	0.09268996
111	0x3c1660bf	0.0091783395
112	0xbd869356	-0.06571071
113	0xbdcef9b6	-0.10106222
114	0x3e279425	0.16365106
115	0xbdff36a4	-0.12461594
116	0xbe87b526	-0.26505393
117	0x3e610970	0.21976256
118	0x3e9430d3	0.289435
119	0x3e80e765	0.2517654
120	0x3e8670e9	0.2625802
121	0x3e1ee240	0.15515995
122	0x3e6bb7c5	0.23019321
123	0x3e8eaf3d	0.2786807
124	0x3d4e2e31	0.05033702
125	0x3e02d841	0.12777807
126	0x3d2e185f	0.04250371
127	0x3d74e755	0.059790928
128	0xbe65641e	-0.22401473
129	0xbd8cf341	-0.068823345
130	0xbe034b9e	-0.12821814
131	0xbe0276b7	-0.12740599
132	0x3e16ca7a	0.14725676
133	0x3e4870c1	0.19574262
134	0x3e82e9d8	0.25569034
135	0xbe64c98e	-0.22342512
136	0xbbc70ff7	-0.006074901
137	0xbe921880	-0.28534317
138	0x3d350f95	0.044204313
139	0x3e8424ea	0.25809413
140	0xbe57c2d4	-0.21070415
141	0x3e20b022	0.1569219
142	0x3e149b9e	0.14512488
143	0x3bf8eb84	0.007596435
144	0xbe8e8db8	-0.27842498
145	0x394db22e	0.000196167
146	0x3c11e8ee	0.008905632
147	0xbdc4562d	-0.09586749
148	0x3e8d704f	0.27624747
149	0x3d2611b0	0.040544212
150	0x3de67450	0.112526536
151	0x3e16d750	0.14730573
152	0xbdfd1b47	-0.12358718
153	0xbe1f597b	-0.15561478
154	0x3d68a6ea	0.056799807
155	0xbe574bf8	-0.21025074
156	0xbde58a97	-0.112080745
157	0x3e4f6fdd	0.20257516
158	0xbe6babc7	-0.23014747
159	0xbe38e385	-0.18055542
160	0x3ea3e285	0.32008758
161	0xbe0680e9	-0.13135113
162	0x3c4732d2	0.012158113
163	0x3e2b7920	0.16745424
164	0xbe6a6641	-0.2289057
165	0xbe2fb3da	-0.17158452
166	0xbd2c435f	-0.042056438
167	0x3e4d393c	0.20041364
168	0x3dd5f9af	0.10448014
169	0x3deab281	0.11459828
170	0x3dfb0a21	0.12257791
171	0xbe1f4370	-0.15553069
172	0x3e537916	0.2065166
173	0x3d94c723	0.07264545
174	0xbd597128	-0.05308643
175	0xbe858adf	-0.26082513
176	0x3dbbcacc	0.0916954
177	0xbb018d0a	-0.0019767904
178	0xbc9c5597	-0.019083781
179	0xbd8f298d	-0.06990347
180	0xbe74b2d3	-0.23896341
181	0xbe89e5b1	-0.26933053
182	0xbe50fe5e	-0.20409533
183	0x3e4dd907	0.2010232
184	0x3ce2052c	0.027590357
185	0x3e5cd66c	0.2156617
186	0x3b37cf42	0.002804712
187	0xbdc5cdd4	-0.09658399
188	0x3c273fd1	0.010208086
189	0x3d91ac95	0.071129955
190	0xbe0e650b	-0.13905732
191	0xbe9d03de	-0.30667013
192	0x3dad65d6	0.08466689
193	0x3e1f57b1	0.15560795
194	0xbc08aa31	-0.008341358
195	0xbe517775	-0.20455725
196	0xbe208c31	-0.15678479
197	0xbe67dbd0	-0.22642446
198	0x3db9884f	0.09059202
199	0x3e647e71	0.22313859
200	0xbdfadea0	-0.122494936
201	0x3d488ec4	0.048964277
202	0x3e985784	0.2975427
203	0x3e313850	0.17306638
204	0xbd509b33	-0.05092926
205	0x3ca8ee35	0.020621398
206	0xbe495c54	-0.19664127
207	0x3dcc433e	0.09973763
208	0xbe94c8ed	-0.29059544
209	0x3df7552e	0.120767936
210	0xbe149ce3	-0.14512973
211	0xbe2ca1fb	-0.16858666
212	0x3ce2f284	0.027703531
213	0x3da5cd69	0.080958195
214	0x3e90572b	0.28191504
215	0xbd5ffc04	-0.0546837
216	0x3e819447	0.2530844
217	0xbe7c8bb3	-0.24662666
218	0xbe84a87a	-0.25909787
219	0x3e4584c1	0.19288923
220	0x3db2460b	0.08704766
221	0x3e3629e7	0.17789422
222	0x3d8b1096	0.06790273
223	0x3cb4d3d8	0.022073671
224	0xbe948e33	-0.2901474
225	0x3deafff7	0.11474603
226	0x3d5ad65f	0.053427096
227	0x3e0271c6	0.12738714
228	0xbda04448	-0.078255236
229	0xbd8853ef	-0.06656634
230	0x3e81e4ce	0.25369877
231	0xbbd2e9d0	-0.006436564
232	0x3e309cc4	0.17247301
233	0xbd8e46eb	-0.0694712
234	0xbe951acc	-0.29122007
235	0x3e131eec	0.14367265
236	0xbe6336ff	-0.22188948
237	0x3e870713	0.26372585
238	0x3da91f18	0.08257884
239	0x3ca84a91	0.020543369
240	0xbe73de83	-0.2381535
241	0xbd87caf3	-0.06630506
242	0x3e0ef65c	0.13961166
243	0x3e6113dd	0.21980233
244	0x3c23c352	0.009995298
245	0x3db77ea2	0.089597
246	0x3e4e14fc	0.20125192
247	0x3d9be0e9	0.076112576
248	0xbda17b67	-0.07884865
249	0xbdaa1d1d	-0.08306334
250	0xbe91cda4	-0.28477204
251	0xbe153d72	-0.14574221
252	0x3e2fe0e5	0.17175634
253	0x3e832dbd	0.25620833
254	0x3dea6ee7	0.11446934
255	0x3e8f64a5	0.28006473

net.0.bias f4 [128]
0	0x3e14c412	0.1452792
1	0x3e7607a7	0.24026357
2	0x3e977cb1	0.2958732
3	0xbe37b413	-0.17939787
4	0x3e7640f4	0.24048215
5	0x3ce14eba	0.02750336
6	0x3e4bafb6	0.19891247
7	0x3c67f30b	0.014157067
8	0x3cd41ce2	0.025892679
9	0x3d8ed928	0.06975013
10	0xbd50b5c3	-0.05095459
11	0xbdcb6e5f	-0.09933161
12	0xbe275f59	-0.16344966
13	0x3de22d94	0.110438496
14	0x3debff30	0.115232825
15	0xbd867360	-0.06564975
16	0xbe524c26	-0.20536861
17	0x3e9681cb	0.293959
18	0x3e68a2e4	0.22718388
19	0x3cabd4bf	0.020975469
20	0x3e8490cb	0.25891718
21	0xbd683f0a	-0.056700744
22	0xbe24d092	-0.16095188
23	0x3e218473	0.15773182
24	0x3c69a136	0.014259627
25	0xbceae5e9	-0.028674083
26	0x3d539298	0.051653475
27	0x3d3730d1	0.04472429
28	0xbdb23979	-0.08702368
29	0x3e83d47d	0.25748053
30	0xbe450002	-0.19238284
31	0xbd9ba9dc	-0.076007575
32	0x3eac0f8d	0.33605614
33	0x3e90b32d	0.282617
34	0x3da002a2	0.07813002
35	0x3df71515	0.12064568
36	0x3e131eff	0.14367293
37	0x3e2b2c68	0.16716158
38	0x3e60d097	0.2195457
39	0xbd9372dd	-0.07199643
40	0xbd62d3c7	-0.055377748
41	0x3e04993b	0.12949078
42	0xbd82fea9	-0.06396229
43	0xbdb8c1f8	-0.090213716
44	0x3db488db	0.088151656
45	0xbe2c6729	-0.16836227
46	0x3dc3ba36	0.09557001
47	0x3e82f563	0.2557784
48	0x3e1935cd	0.1496193
49	0x3e2bbaeb	0.16770522
50	0x3dd579d6	0.10423629
51	0xbe05022a	-0.12989107
52	0x3d321547	0.043477323
53	0xbe2bd3db	-0.16780035
54	0xbd1b696d	-0.03794234
55	0x3e8ebb6b	0.27877364
56	0x3da02263	0.07819059
57	0xbe50a17d	-0.20374103
58	0x3e9ed855	0.31024423
59	0xbb7ddbf1	-0.0038735832
60	0x3c5c868d	0.013459814
61	0x3dc5148d	0.096230604
62	0x3e4e6221	0.2015462
63	0x3c42c444	0.011887614
64	0x3e8361b4	0.2566048
65	0x3c7513f1	0.014958368
66	0x3eb330ea	0.34998256
67	0x3e9c5ea3	0.30540952
68	0xbe0334d6	-0.12813124
69	0x3e8784ca	0.26468498
70	0xbe488c21	-0.19584705
71	0x3ec918c7	0.39276716
72	0x3e7a63f7	0.24452196
73	0x3eafa97a	0.34308988
74	0x3e91cf84	0.28478634
75	0x3d9a5932	0.07536544
76	0x3d6006fc	0.05469416
77	0xbd6fd057	-0.058548298
78	0xbc3349ef	-0.01094292
79	0x3ead6701	0.33867648
80	0x3d9c69d4	0.076373726
81	0x3e6baced	0.23015185
82	0x3e1489fb	0.1450576
83	0x3e7c8bf5	0.24662764
84	0xbddae3e2	-0.106879964
85	0xb9873833	-0.00025791078
86	0x3e2354fa	0.15950385
87	0xbcf2b1c8	-0.029625788
88	0x3eb8fe32	0.36131436
89	0xbdd5279a	-0.10407944
90	0xbcafc7b6	-0.021457534
91	0x3e638715	0.22219498
92	0x3df4f48f	0.11960708
93	0xbde81a64	-0.113331586
94	0xbd308afb	-0.043101292
95	0x3e323333	0.17402343
96	0x3cffa6ae	0.031207409
97	0xbdbf14ca	-0.09330137
98	0x3e8176f1	0.25286058
99	0xbd90ea78	-0.07075971
100	0x3de29985	0.11064438
101	0x3e9ea0da	0.30982095
102	0xbde145ef	-0.10999667
103	0xbe3a0d4f	-0.1816914
104	0xbe03185c	-0.12802261
105	0xbdd06e4b	-0.10177287
106	0x3e7d441f	0.24733017
107	0x3d9e8ea1	0.07742048
108	0x3c91de7a	0.01780628
109	0x3e31265f	0.17299794
110	0x3dfe549e	0.12418483
111	0xbd912550	-0.07087195
112	0xbe2c8579	-0.16847791
113	0xbe1ef60c	-0.15523547
114	0x3e93de86	0.2888071
115	0xbe3a403f	-0.1818857
116	0x3e814d21	0.25254157
117	0x3ea7b1bc	0.32752788
118	0xbde6fc54	-0.112785965
119	0xbd4c4723	-0.04987253
120	0xbd9e43fb	-0.0772781
121	0xbe536ee1	-0.20647766
122	0xbde7fb69	-0.113272496
123	0x3e40b283	0.18818097
124	0x3e65bf01	0.22436143
125	0xbda98d9b	-0.08278962
126	0x3dcdf879	0.10057158
127	0x3d2649b6	0.04059764

net.3.weight f4 [64, 128]
0	0x3d627dec	0.05529587
1	0x3d93c484	0.07215217
2	0x3dcf2398	0.10114211
3	0xbdb8c331	-0.09021605
4	0x3e07372a	0.13204637
5	0x3d31dc1d	0.043422807
6	0xbbe9ad44	-0.0071312506
7	0x3e33d09f	0.17560051
8	0x3da19394	0.078894764
9	0x3e06805f	0.13134907
10	0xbda4c7e2	-0.08045937
11	0xbd6fec05	-0.058574695
12	0xbcbb8695	-0.022891322
13	0x3cc3ecd1	0.023916634
14	0x3de3c008	0.111206114
15	0x3e05fe9b	0.13085406
16	0xbcfc2208	-0.030777946
17	0x3db70efb	0.08938404
18	0x3d13c691	0.03607804
19	0xbc588eb5	-0.013217618
20	0x3da8e7df	0.08247351
21	0xbe3afda5	-0.1826082
22	0xbdb4706c	-0.08810505
23	0xbbfd7ce6	-0.0077358363
24	0x3c80e26d	0.015732968
25	0x3d9a0e0d	0.07522211
26	0x3d80d14a	0.06289919
27	0xbc07cceb	-0.008288602
28	0x3d93f91b	0.072252475
29	0x3e091e6e	0.13390514
30	0xbdb7f535	-0.089823164
31	0xbda46e40	-0.08028841
32	0x3d94c137	0.07263415
33	0x3dfe4f44	0.124174625
34	0x3c90fd7e	0.017699
35	0x3e089865	0.13339384
36	0x3e2b0718	0.16701925
37	0x3dc60c99	0.096703716
38	0x3c9ba1cf	0.018998055
39	0x3d0d58f8	0.034508675
40	0x3e02567b	0.12728302
41	0x3d73385c	0.05937992
42	0x3b0114e5	0.0019696292
43	0x3de9e662	0.11420895
44	0x3d1f439a	0.03888283
45	0x3bbb1f0c	0.005710488
46	0x3d6928d1	0.05692369
47	0x3dd50383	0.104010604
48	0x3c27bc25	0.010237728
49	0xbce22057	-0.027603311
50	0x3e0d37da	0.13790837
51	0xbb2d6062	-0.0026455154
52	0x3c01656d	0.007897717
53	0x3c1d5f20	0.009605199
54	0x3d8a394c	0.0674921
55	0x3c96b707	0.018397821
56	0x3cddaf9f	0.027061282
57	0x3d96aa86	0.073567435
58	0x3c4d93b5	0.012547423
59	0xbe166420	-0.14686632
60	0x3e250783	0.16116147
61	0x3d321ab8	0.043482512
62	0x3dbf7727	0.093488984
63	0x3c863fff	0.016387938
64	0x3e0b6a4e	0.13614771
65	0x3de7c1c9	0.113162585
66	0x3d18c31e	0.037295453
67	0x3da76334	0.08173218
68	0xbb59022a	-0.0033112862
69	0x3de6a374	0.11261645
70	0xbd339e2f	-0.043852028
71	0x3de7505c	0.11294624
72	0x3e059f2e	0.13049003
73	0x3ce60179	0.028076874
74	0x3c8c7601	0.017146112
75	0xbdb303a1	-0.087409265
76	0xbd268c87	-0.04066136
77	0xbcfc3d50	-0.030790955
78	0xbd72da28	-0.05929008
79	0x3e1b25e9	0.1515118
80	0x3e048e0d	0.12944813
81	0x3e03503f	0.1282358
82	0x3db3a3c6	0.08771472
83	0x3d4ce5a3	0.050023686
84	0x3dd598a0	0.104295015
85	0x3baca314	0.005268464
86	0x3df8f57b	0.12156197
87	0x3db3b8b6	0.08775465
88	0x3d07a75d	0.033118594
89	0x3dfb21bc	0.12262294
90	0x3d39fc20	0.04540646
91	0x3e01d0d0	0.12677312
92	0x3d171c23	0.036892068
93	0xbc93aa78	-0.018025622
94	0x3e11a68f	0.14223693
95	0x3cbfa8ee	0.023395982
96	0x3de11553	0.109903954
97	0x3ae622c1	0.0017557965
98	0x3d7557d8	0.059898227
99	0xbe130f12	-0.14361218
100	0xbe052e6c	-0.1300599
101	0x3e14ffd8	0.14550722
102	0xbd59f773	-0.0532145
103	0xbe35e248	-0.177621
104	0x3d418665	0.04724731
105	0xbd17f660	-0.037100196
106	0x3db387af	0.08766114
107	0x3e2dd6ae	0.16976425
108	0x3d17d529	0.03706852
109	0x3c98a797	0.0186346
110	0x3c5a6a09	0.013330945
111	0x3cb62fed	0.02223965
112	0x3df5d8fb	0.12004276
113	0x3d11e036	0.035614215
114	0x3cb9e736	0.022693258
115	0xbb03c917	-0.0020108873
116	0x3cf5c715	0.030002156
117	0x3ce399db	0.027783325
118	0xbcf56c29	-0.029958801
119	0xbd169482	-0.03676272
120	0x3c9029e9	0.01759811
121	0xbe002799	-0.12515105
122	0x3cd7d6d4	0.026347555
123	0xbd791596	-0.0608116
124	0x3d8c1b34	0.06841126
125	0xbdc7a0b7	-0.09747451
126	0x3d124ec4	0.035719648
127	0xbcccd692	-0.025004659
128	0x3dd0f07d	0.102021195
129	0x3d92ac33	0.07161751
130	0x3dd44014	0.103637844
131	0xbc8d8bde	-0.017278608
132	0x3d60312b	0.05473439
133	0x3c2de0d9	0.01061269
134	0x3bfa36cb	0.0076359264
135	0x3d6d4376	0.057925664
136	0x3d3ff5ef	0.0468654
137	0x3cae28d9	0.021259712
138	0xbc03137a	-0.008000249
139	0xbc63a855	-0.013895114
140	0xbd8e4bd8	-0.0694806
141	0x3d7bf4c7	0.061512735
142	0x3dd81cd4	0.105523735
143	0x3d9997d8	0.07499665
144	0xbd0d09c0	-0.034433126
145	0xbd32cbf1	-0.043651525
146	0x3d774288	0.060366184
147	0xbd7c4add	-0.061594833
148	0xbbcf0efd	-0.0063189254
149	0xbd2cb0c3	-0.04216076
150	0xbc7b44d9	-0.015336239
151	0xbcdca78b	-0.02693536
152	0xbcb5fa01	-0.022213938
153	0x3df83f6d	0.121214725
154	0x3b8be574	0.0042692963
155	0x3dd1c9fd	0.10243604
156	0x3c39c5f2	0.011338698
157	0x3db310d1	0.08743442
158	0x3c946ce8	0.018118337
159	0xbdb5a7e1	-0.08869911
160	0x3d7ab212	0.061204977
161	0x3d24137a	0.040057637
162	0xbbd02edc	-0.0063532423
163	0x3dc2dc0e	0.09514628
164	0x3da15d4b	0.07879122
165	0xbbe59086	-0.007005754
166	0x3dc31e2e	0.09527241
167	0x3d96e3db	0.07367679
168	0x3cf33777	0.029689534
169	0xbc6dd1e9	-0.0145153785
170	0x3cd5dc7f	0.026106117
171	0x3ce02b50	0.027364403
172	0x3dc264f3	0.09491911
173	0xbd7102a0	-0.058840394
174	0x3d56ac4f	0.05241042
175	0x3d943ed6	0.072385475
176	0xbdfdd04c	-0.12393245
177	0xbc55dea9	-0.013053575
178	0x3dc0614c	0.09393558
179	0xbc892dc2	-0.016745452
180	0x3d12f708	0.03588012
181	0x3e04e2d2	0.1297715
182	0xbba96ee1	-0.0051706885
183	0x3cd34e23	0.025794094
184	0x3db8cdb7	0.09023612
185	0xb82824bd	-4.0088536e-05
186	0x3d8da357	0.0691592
187	0xbcf79767	-0.030223561
188	0xbcf2e894	-0.029651918
189	0x3d41f16f	0.04734939
190	0xbd487a2d	-0.04894464
191	0x3d4cc555	0.049992878
192	0xbc67fbdc	-0.014159169
193	0x3d75a9d0	0.0599764
194	0x3d8aa16a	0.067690685
195	0x3dd37a77	0.10326093
196	0x3d117403	0.035511028
197	0x3def8cbe	0.11696766
198	0x3c7e8f62	0.015537115
199	0x3dedd334	0.116125494
200	0xbbe9e41e	-0.0071377894
201	0x3d806b3f	0.062704556
202	0x3ca5d794	0.020244397
203	0xbd6b50d9	-0.05745015
204	0x3b07b752	0.0020708633
205	0x3c8dec40	0.017324567
206	0xbca9d013	-0.0207291
207	0xbcb463e9	-0.022020297
208	0x3d50d90a	0.050988235
209	0x3d5c7272	0.05382008
210	0x3def33df	0.116798155
211	0x3d807672	0.06272592
212	0x3daaf78e	0.083479986
213	0x3d84dc84	0.064873725
214	0x3d00a596	0.031407915
215	0x3d62d2a7	0.055376675
216	0xbc82027c	-0.015870325
217	0xbc28afbb	-0.010295804
218	0xbcb570c3	-0.022148496
219	0x3dd4e9c4	0.1039615
220	0x3cabe6a4	0.020984001
221	0x3da6cc6b	0.081444584
222	0x396b7e42	0.00022458381
223	0x3af44555	0.0018636385
224	0x3da0f24e	0.07858716
225	0x3d9d0511	0.07666982
226	0xbd0a5360	-0.03377092
227	0xbc8570b4	-0.016289093
228	0xbe0438e9	-0.12912335
229	0x3d998edd	0.07497952
230	0xbcd78d56	-0.026312511
231	0xbe061248	-0.13092911
232	0x3da25886	0.07927041
233	0x3df6bd18	0.120477855
234	0x3d25f96c	0.04052107
235	0x3cdbc08e	0.026825216
236	0x3ac974a6	0.0015369847
237	0x3bc64e77	0.006051834
238	0xbdb92f20	-0.090421915
239	0x3dc50e11	0.096218236
240	0x3dba98b8	0.0911116
241	0x3d427e29	0.047483597
242	0x3d219e23	0.03945745
243	0x3cb5a2d4	0.022172369
244	0x3d43959f	0.04775011
245	0x3c00c136	0.007858565
246	0xbd914739	-0.07093663
247	0xbdadae18	-0.084804714
248	0xbc7c770a	-0.0154092405
249	0x3d448195	0.04797514
250	0x3d679dfd	0.056547154
251	0xbd4ca5ee	-0.04996293
252	0xbb7a06ed	-0.00381511
253	0xbd186dab	-0.037213963
254	0x3e0edb97	0.13950954
255	0xbd1cd8c9	-0.03829268

net.3.bias f4 [64]
0	0x3ddcdd94	0.1078445
1	0x3e0c6cca	0.13713375
2	0x3d40d16c	0.04707472
3	0x3c258b6e	0.010104043
4	0xbbb2a2f3	-0.005451554
5	0x3daf9a74	0.085743815
6	0xbd5051cc	-0.050859258
7	0xbd307209	-0.043077502
8	0xbd821f55	-0.06353632
9	0xbd8aa11d	-0.06769011
10	0xbd3f4a2f	-0.046701606
11	0x39414ded	0.00018434944
12	0xbd621349	-0.055194173
13	0xbcab3507	-0.020899309
14	0xbb11a207	-0.002222182
15	0x3cc5e841	0.024158599
16	0x3c26f8ad	0.010191125
17	0x3d956a9e	0.07295726
18	0x3d80180b	0.06254586
19	0x3e36eae1	0.17863037
20	0xbd8a36dd	-0.067487456
21	0x3dba1fde	0.090881094
22	0x3d17209a	0.036896326
23	0x3dab7f92	0.083739415
24	0x3de80a35	0.11330072
25	0x3db1044e	0.08643399
26	0x3dfa1eb8	0.122128904
27	0x3de2ab90	0.11067879
28	0xbd843374	-0.064551264
29	0x3da7128c	0.081578344
30	0x3df152ec	0.11783394
31	0x3c8df133	0.017326927
32	0xbc864bae	-0.016393509
33	0x3d1c0e8d	0.038099814
34	0x3d3a3096	0.04545649
35	0x3bc415fe	0.005984067
36	0x3dd108d6	0.102067634
37	0xbc178c38	-0.009249739
38	0x3d95b910	0.073106885
39	0x3ded3b05	0.11583523
40	0x3d8aa9df	0.067706816
41	0x3cc82f3c	0.024436586
42	0x3db9345e	0.090431914
43	0x3c74b14f	0.014934852
44	0xbb13f5c8	-0.0022576917
45	0xbcf5ded1	-0.030013474
46	0x3ddf28c7	0.108964495
47	0x3d890998	0.06691283
48	0xbc03ee77	-0.00805246
49	0x3cc50792	0.024051461
50	0x3dcaf7cd	0.099105455
51	0x3e235001	0.15948488
52	0x3dfcf491	0.12351335
53	0x3e09f93d	0.13473983
54	0xba3c0ca5	-0.0007173515
55	0x3d41dff7	0.04733273
56	0x3c9dcf95	0.019264022
57	0xb9d2473c	-0.00040107395
58	0x3d83972c	0.06425318
59	0x3a4bca28	0.0007773959
60	0x3d81ef87	0.06344514
61	0xbc95891c	-0.018253855
62	0xbd11f13b	-0.035630446
63	0x3d55ff2c	0.052245304

net.6.weight f4 [2, 64]
0	0x3dc72dfa	0.09725566
1	0x3e35727c	0.17719454
2	0x3e2b7f3f	0.1674776
3	0x3c598efd	0.01327872
4	0xbd24c186	-0.04022362
5	0xbdc94cef	-0.09829127
6	0x3de4b4bd	0.111672856
7	0xbe93c35b	-0.28859982
8	0xbdc21a2c	-0.09477648
9	0xbe174283	-0.14771466
10	0xbe617334	-0.22016603
11	0x3df5284c	0.11970577
12	0xbe0551d8	-0.13019502
13	0xbe43aad4	-0.19108135
14	0x3e28a1a6	0.16467914
15	0x3e2ec414	0.17066985
16	0xbd89223a	-0.06695981
17	0x3ddc6490	0.10761368
18	0xbc57c51c	-0.013169553
19	0x3de7db31	0.11321104
20	0xbdc3755a	-0.095438674
21	0x3d042a14	0.03226669
22	0x3ddefcb9	0.10888047
23	0xbdfcede3	-0.12350061
24	0x3e3b58a9	0.1829554
25	0x3dabf582	0.08396436
26	0x3e133686	0.14376268
27	0x3e36fb2c	0.17869252
28	0xbc9c3d28	-0.01907213
29	0x3d6a8b3f	0.0572617
30	0x3d207ce8	0.03918162
31	0x3e1bc09c	0.15210193
32	0xbdf14075	-0.11779872
33	0x3e379ad5	0.17930157
34	0xbdb86a61	-0.09004665
35	0xbda9c10c	-0.08288774
36	0x3e1969ed	0.14981814
37	0x3dbaa43f	0.09113359
38	0x3e0d2500	0.13783646
39	0x3cb1c002	0.021698002
40	0xbe325e6d	-0.17418833
41	0xbe23129c	-0.15925068
42	0x3dff3a43	0.124622844
43	0x3e414ab4	0.18876153
44	0x3d425843	0.047447454
45	0xbc3e7457	-0.011624417
46	0x3d4650bf	0.04841685
47	0x3d8ce716	0.06880014
48	0x3e2a47d7	0.16628967
49	0x3d5a6efa	0.05332849
50	0x3ded99b3	0.116015814
51	0xbd46c426	-0.048526905
52	0x3e6d9817	0.23202549
53	0x3e23a392	0.15980366
54	0x3dddab41	0.1082368
55	0x3e34ca8c	0.1765539
56	0xbe2a66dd	-0.16640802
57	0x3deddf73	0.11614885
58	0xbd6b6443	-0.057468664
59	0xbc93f555	-0.01806132
60	0x3e2b734c	0.16743201
61	0xbe0e88ef	-0.13919424
62	0xbdc9c060	-0.09851146
63	0x3d972bfd	0.07381437
64	0xbe378db4	-0.17925149
65	0xbe3326ee	-0.17495319
66	0xbe278cd6	-0.16362318
67	0xbe090b89	-0.13383307
68	0x3e1e66f4	0.15468961
69	0x3e07604b	0.13220327
70	0x3dc1fb1f	0.09471726
71	0x3e4d93a0	0.20075846
72	0xbde522e7	-0.11188298
73	0x3d1fa221	0.038972978
74	0x3dbc274d	0.091871835
75	0xbe1ceb58	-0.15324152
76	0x3e7c6c91	0.2465079
77	0x3cedb1b5	0.029015401
78	0xbe0051d0	-0.12531209
79	0xbcfc0e8f	-0.03076866
80	0xbd89845c	-0.06714699
81	0xbc99f029	-0.018791275
82	0x3e4dd74c	0.2010166
83	0xbdbb1f4a	-0.09136827
84	0x3db433b0	0.08798921
85	0xbe142985	-0.14468963
86	0xbda808d0	-0.08204806
87	0x3e2e170a	0.17000976
88	0xbc7729ce	-0.015085651
89	0xbe01a525	-0.12660654
90	0xbe4199a9	-0.18906273
91	0x3cfe54e6	0.031046342
92	0xbc45cb88	-0.012072451
93	0xbe096a3c	-0.13419431
94	0xbe402224	-0.18763024
95	0xbe312fd7	-0.17303406
96	0x3c5f0249	0.013611385
97	0xbd86348c	-0.06552991
98	0x3e655411	0.2239535
99	0x3e262181	0.16223718
100	0xbca5247f	-0.020159004
101	0x3d9294d4	0.07157293
102	0xbdb18f59	-0.086699195
103	0xbdf95d27	-0.121759705
104	0x3bc9da3f	0.00616005
105	0x3ddcc601	0.10779954
106	0xbe2380d9	-0.1596712
107	0xbe14107f	-0.14459418
108	0xbdf6a14b	-0.12042483
109	0x3e689355	0.22712453
110	0xbe157ac8	-0.14597619
111	0x3d855173	0.06509676
112	0xbdd293ba	-0.10282083
113	0xbe54b092	-0.20770481
114	0xbdbe865e	-0.09302972
115	0xbe3def3c	-0.18548292
116	0xbe19407e	-0.14966008
117	0x3b6f2eaa	0.003649632
118	0x3d31de2c	0.04342477
119	0xbd09a2a2	-0.033602364
120	0x3d2f332c	0.04277341
121	0xbe3a9c8f	-0.18223785
122	0x3d0d4b61	0.034495715
123	0x3e43a71a	0.19106713
124	0xbca76cd0	-0.020437628
125	0x3e394b9d	0.1809525
126	0x3c863226	0.016381335
127	0xbd8212c5	-0.06351236

net.6.bias f4 [2]
0	0xbcfc5e6e	-0.030806746
1	0x3d207d87	0.039182212
