Trained Models/surrogate_models_default_of_credit_card_clients.pth (torch, 53228 bytes, 6 tensors)

net.0.weight f4 [128, 32]
00000000: 98d5 f13d 567b 26be f6cd 2c3e 671b 3c3e
00000010: 0b11 993d 18ee 98bd 0eb8 af3d 8971 83bd
00000020: 37a4 0bbe 0047 853d 0cc2 7fbd 8d75 08be
00000030: 65b4 bd3d 2af9 bbbd 0cd2 e9bc 5038 b9bd
00000040: 18e3 973c c0be 603c 361d eabd fdf6 a8bd
00000050: e0c8 05be 7f46 73bb 814b 7abd 377e 07be
00000060: c1e0 fe3c 7a60 dfbb 7dda 5c3d f55b 263c
00000070: 1050 15be a582 85bd 5b4e b93b b5c6 dcbd
00000080: 3f41 08be a914 443b a303 8fbd ac0d d83d
00000090: 8bf2 213e 01c9 d4bd c664 1dbd 26fe 89bd
000000a0: 1f6f 9cbd 3ceb e93d 686d 9c3d bcee 1ebe
000000b0: 156d 4c3d 8fd3 bbbd 69ce 44bd fcb6 43bd
000000c0: dc43 603d d7ef 0ebe 1b97 6dbd 3e32 39bc
000000d0: c1ed 06bd 2778 df3b b09a a33d bbe3 d53d
000000e0: 6f04 82bd d8fd 0b3e 0f8f d9bd 736f 0f3b
000000f0: fb38 3ebd dbea 15be 9e19 183e 4235 efbd
00000100: 6639 a23d 9418 a2bc 407f 783d e71e fdbb
00000110: 4243 a9bd f4f7 d93d e3cf 80be 50ea f43d
00000120: f340 6fbd 09b1 553d 6078 d2bc e2f3 d6bd
00000130: e2aa dc39 f877 fe3d d27c af3c b846 35be
00000140: c5db 21be 5fc3 b3bd bb1b 15bd 3d61 7b3d
00000150: 5b18 03bd 2c35 80be f505 8ebd 4f09 1ebe
00000160: ff20 1e3e 5417 40bd 3c6f 0c3c e0a9 bb3d
00000170: 5586 19be a391 62bd 37ea 9dbd 3890 833d
00000180: 2927 0fbe 84c0 e43d 5591 ce3d ca11 6c3e
00000190: 910b 663d 4260 96bb 4183 9e3d 02dd 5e3e
000001a0: d01a 6e3d ee6e 393e 12bf 903c 83f1 2fbd
000001b0: 0cca 64bd abb3 f03d d536 88bb 3a4d 2cbe
000001c0: 87a8 82bd e122 95bd cfd3 613e 5d57 0b3e
000001d0: 36f4 ea3d ea8d 0dbd 8047 5fbc 1b09 6e3d
000001e0: 513a f4bd 643d 67be d0d6 0cbe 83ea ab3d
000001f0: 79b1 2b3e 98a1 1d3c f474 5ebd 384d b1bd
00000200: be46 babd d43b b9bd 0864 febd d150 4cbe
00000210: 59ad 853c 715f e03c a30e 7abd aa3c 2c3d
00000220: bfc6 2dbc 697f 663d fc70 cebd 0f10 0abd
00000230: 226b ed3d a91e f93c ff86 cdbd d38e ffbd
00000240: f8e5 c7bc dc03 9fbc ba22 1b3d 14b3 e6bd
00000250: e452 2a3e 72fa 103e 91a1 acbc dba9 1e3e
00000260: 42f2 a73b 7495 38bd 4486 fbbc c80b aa3d
00000270: 04c8 573e 652b b93d 67e7 97bd 6c46 67bd
00000280: ecdb 623d 18de 543c 5159 07be a7ab f23d
00000290: e5ba 103e a549 49bc 6717 56bd 2914 c1bb
000002a0: ef55 8dbd aa74 223e bf0e 8a3d 6850 cebc
000002b0: 662c 2e3e f508 5c3d 2f63 29bd d850 123e
000002c0: f00d 29be 1bd3 753d b283 c43d 89ea b0bc
000002d0: f954 023e c00d 7d3d 8c9c 4f3e 50ab f8bd
000002e0: 8389 14be ee98 ce3d 1801 18be 393e d2bd
000002f0: 7649 bebd b9f0 abbd 8c1d 0cbe 23c3 80b9
00000300: ba8e 0fbe b496 02be da4b ef3b f779 ef3d
00000310: be0e 0dbe 81d5 e6bd 9a0a 073e 38c4 2bbd
00000320: 55e2 d4bd 6887 0d3e eb43 96bd eed0 78bd
00000330: f6ff 363e 20df 14be 8468 093e d12b e53b
00000340: ff86 e1bd 6819 e4bd 8075 85bd df9c a9bc
00000350: 56bf cf3d 87b3 c93d c78c 10be b5af 18be
00000360: cf57 b2bd 0f67 123e 40c3 503d ad72 45bd
00000370: 977f fdbd 2616 043e 585e 94bd 9ffd de3d
00000380: 44a0 15b9 ebb1 e13d 371b f8bd 6da7 723d
00000390: 50dc cb3c 71dc baba f71a 193e 1516 2c3e
000003a0: da04 b6bd 8ffd 24bd 134f 66bc c930 f33b
000003b0: 5d24 e8bd 3165 323e 121a 46bb b425 bd3d
000003c0: 3a1c 2a3d e082 8cbc 2644 8e3d 9ab4 293e
000003d0: cf32 edbb c0e6 a5bd 2c9d 9bbd 3f0e d2bd
000003e0: 7168 8d3d 2ad1 19be 152c 69bd 6f78 1e3e
000003f0: 8a66 31be 2687 853d 38a3 87bd 04e8 023e
0.11808318 -0.16257986 0.16875443 0.18369828 0.07473954 -0.07467288 0.085800275 -0.064181395
-0.13636862 0.06507683 -0.062440917 -0.13326092 0.09262923 -0.09178384 -0.028542541 -0.09043944
0.018540904 0.013717353 -0.11431353 -0.08250234 -0.13064909 -0.0037120876 -0.061107162 -0.13231741
0.03111303 -0.006816921 0.053919304 0.01015376 -0.14581323 -0.06519059 0.0056550927 -0.10780088
-0.1330614 0.002991954 -0.069831155 0.10549483 0.15815179 -0.10389901 -0.038426183 -0.06737928
-0.07638382 0.114218205 0.07638055 -0.15520757 0.049908716 -0.09171211 -0.04804841 -0.04778193
0.054752216 -0.13958679 -0.058005434 -0.011303483 -0.032941584 0.006819743 0.07988489 0.10443827
-0.06348502 0.13671052 -0.106229894 0.0021886497 -0.04644106 -0.14640372 0.14853522 -0.1168008
0.07921104 -0.01978711 0.06066823 -0.007724631 -0.082647815 0.106429964 -0.25158605 0.11958754
-0.05841155 0.052170787 -0.025692165 -0.10495736 0.00042088988 0.12425226 0.021421824 -0.17702758
-0.15806492 -0.087774985 -0.0364034 0.06137203 -0.03200565 -0.25040567 -0.0693473 -0.15433238
0.15442275 -0.046897247 0.008571442 0.091632605 -0.1499265 -0.05531467 -0.077106886 0.06423992
-0.13979782 0.11169532 0.10086314 0.23053661 0.056163374 -0.0045891115 0.077398784 0.21763995
0.05813104 0.18108723 0.017669234 -0.042954933 -0.05585675 0.11753019 -0.004156927 -0.16826335
-0.063798 -0.07282043 0.22053455 0.13607545 0.11472361 -0.034559168 -0.013627887 0.058114152
-0.119251855 -0.22582012 -0.1375382 0.08394339 0.16766919 0.0096210465 -0.054310754 -0.086573064
-0.09095524 -0.090446144 -0.12421423 -0.19952704 0.01631801 0.02738926 -0.061049115 0.04205004
-0.010606467 0.05627385 -0.10080144 -0.03370672 0.115926996 0.030410128 -0.10035514 -0.124784134
-0.02440165 -0.01941102 0.037874915 -0.11264625 0.16633183 0.14158037 -0.021073135 0.15494482
0.005125315 -0.045064405 -0.030703671 0.08303028 0.21072394 0.0904148 -0.07417183 -0.056463644
0.055385515 0.012992404 -0.13217665 0.11849146 0.14133795 -0.012285625 -0.052268412 -0.005892296
-0.06901156 0.15864816 0.06741094 -0.025184825 0.17009124 0.05371948 -0.041354354 0.14288652
-0.16509223 0.06001578 0.095954314 -0.02159621 0.12727727 0.06178069 0.20274562 -0.1214205
-0.14505582 0.10087763 -0.14844167 -0.10265774 -0.09291355 -0.083955236 -0.13683146 -0.0002455945
-0.1401929 -0.12752801 0.0073027434 0.11693185 -0.13775155 -0.112711914 0.13187638 -0.041935176
-0.10394732 0.13821185 -0.07337173 -0.060746126 0.17871079 -0.1453824 0.13418776 0.0069937487
-0.110120766 -0.11137658 -0.06516552 -0.020704685 0.10143916 0.09848695 -0.14116202 -0.14910777
-0.087081544 0.14297126 0.050967455 -0.048205066 -0.123778515 0.12899074 -0.07244557 0.10888218
-0.00014269451 0.11020263 -0.12114566 0.0592417 0.024885327 -0.001425637 0.14951693 0.16805299
-0.08887644 -0.040280875 -0.014056939 0.007421587 -0.11335061 0.17421414 -0.0030227941 0.09235707
0.041530825 -0.01715225 0.06946592 0.165728 -0.007238723 -0.08100653 -0.075983375 -0.102566235
0.06904686 -0.15021196 -0.056926806 0.1547563 -0.17324272 0.06519918 -0.066229284 0.1278382

net.0.bias f4 [128]
00000000: 467f 1b3e cf70 6abb ed70 94bd 6fe0 10be
00000010: 096e 003e 9f71 343e 4e4c ccbd 97e1 1b3e
00000020: 7279 bd3d cfac 2d3d 8e9f 853d 430d a23d
00000030: 49eb cf3d a1bc 70bd 9635 51be 65c6 42be
00000040: 64d5 683c 0c39 ee3d 90be 103d d249 d5bd
00000050: 1af9 d2bd 91bf 14be 5254 0cbe 71f1 e43d
00000060: bf01 b6bd 7020 8dbe b006 1cbe b00c 9abd
00000070: 323c 6c3b 9717 b93c 9305 a4bd 2e5b e0bd
00000080: 06f7 63be 362a c63d 6981 be3d 33b5 a03d
00000090: b778 4d3d 9217 0bbe 3624 6e3c 7792 8fbc
000000a0: 9847 e1bd 3cdb 04be 86a1 863d d424 90bd
000000b0: 74cb 0fbe 27a5 963d 637d 943d 511c 3e3d
000000c0: fa88 983d a673 dfbc bdcb 383d c1be 0f3e
000000d0: 058e 1c3d ffdb e9bb 7319 1cbe 4830 19bc
000000e0: 6b70 97bd 28b6 993d b1c4 c4bc 4d93 21be
000000f0: b824 dd3d a598 3e3e 5e20 53be 942d 0c3e
00000100: 51bb 023e a0e0 f6bd 6b32 68be bea6 e7bd
00000110: 83f8 74be 4944 e83c c156 0dbd f134 263e
00000120: 204e 913d 7056 573e a247 0e3e 4805 193d
00000130: 28e7 0dbd ae5d 42be 4a36 8dbd 9458 81bd
00000140: 3533 9abd bad9 833c 8e7f 90bd 84fd b23b
00000150: f2c5 16be 556b 333e 4190 893c aa72 0e3e
00000160: 5caa a73d b5c5 16bc f787 1a3e ff12 c1bd
00000170: 0269 1c3e 8737 ecbc 8fd6 dbbc fe0f 25be
00000180: 6c02 c93d 56bf 21be 12b7 da3d 6a06 df3d
00000190: bffb 993d 70fc e6bb 24da e2bd 9519 523d
000001a0: e0c4 833d 3fac cabd cf4d 883d 8987 2fbd
000001b0: d7ed 89ba 6c91 213d e4e1 35be b8f8 e73d
000001c0: dd0f 13be 67fb 083e 524f 1b3c 2ca7 a83d
000001d0: 25f9 20be a43c bfbd 316b e93b fc5d 0dbe
000001e0: c9a0 87be b7e2 f53d 406b fe3d 6948 ee3d
000001f0: c48b 8ebd a382 8f3d 2264 c7bc 879e a2bd
0.1518527 -0.0035772806 -0.072481014 -0.14148115 0.12541975 0.17621468 -0.099754915 0.15222774
0.092516795 0.04240113 0.06524573 0.07912686 0.10152299 -0.05877364 -0.20430598 -0.19020994
0.014211033 0.116319746 0.035337985 -0.10414471 -0.103014186 -0.14526202 -0.1370404 0.11178864
-0.08887052 -0.2756381 -0.15236926 -0.07521951 0.0036046621 0.022594256 -0.08008876 -0.10954891
-0.222622 0.0967602 0.09302027 0.07847061 0.05016395 -0.1358321 0.014535001 -0.017525895
-0.109999835 -0.12974256 0.06573777 -0.070382744 -0.14042455 0.07355719 0.07250478 0.046413723
0.07448001 -0.027276825 0.045116175 0.1403761 0.038221378 -0.0071368213 -0.15244083 -0.00934989
-0.07394489 0.07505447 -0.024019571 -0.15778847 0.10798019 0.18612917 -0.20617816 0.13689262
0.12766768 -0.120545626 -0.22675483 -0.113111004 -0.23922925 0.028352873 -0.034506563 0.16231133
0.07094979 0.21029067 0.13894513 0.037358552 -0.034644276 -0.18981048 -0.068951204 -0.06315723
-0.07529298 0.016095031 -0.07055579 0.0054623503 -0.14723948 0.17521413 0.016792418 0.13910928
0.0818679 -0.0092024105 0.15090929 -0.09427451 0.15274432 -0.028835071 -0.026835708 -0.16119382
0.09814915 -0.15795645 0.10679449 0.10889895 0.0751872 -0.007049136 -0.11076763 0.05129393
0.06434035 -0.098961346 0.06655466 -0.042853866 -0.0010523152 0.039445326 -0.17761952 0.11326736
-0.1436152 0.13377152 0.009479361 0.082350105 -0.15720041 -0.09337738 0.007123374 -0.13805383
-0.26489857 0.12006133 0.124228 0.11634905 -0.06960252 0.07007339 -0.02433974 -0.07940393

net.3.weight f4 [64, 128]
00000000: cf23 8abd 8bb0 5c3c 5c4c bd3d 2ed2 89bd
00000010: 013b 2abd 4a7b 853d dd16 2ebd 7d7a f6bc
00000020: 27ee b33d 4104 95bc 5713 e8bc f593 4b3d
00000030: 540d b03d 675d 0d3d 304f 62bd 7937 123e
00000040: 65fd 3bbc 9c3d 8bbd 0538 b23d 4cb8 e13d
00000050: 5a63 b53b c4b9 833d d7e2 013b fb79 b73d
00000060: b7da 893d 28c9 b2bd 0368 243d 6418 2e3d
00000070: b097 7c3d d02f b53d 4722 cdbc 490e 51bd
00000080: d088 a23d 8e59 d83d 0e8d 3f3d b06d c4bc
00000090: ad41 e83c 2a4a 7c3c dd20 b43d 6cae 87bd
000000a0: ddae 7e3d 518c 663d 4807 8cbd b65d 3c3d
000000b0: 60c6 0c3e b821 19bc 0b35 d33c f58b 9b3c
000000c0: 46f9 9fbc cf39 c73d 14f5 7a3b 378f 2c3d
000000d0: d401 1a3d 73d1 4f3d 9754 9fbd 31d2 673c
000000e0: d80a 843b 52fe 91bc 40b8 7cbd 9fd7 a93b
000000f0: ebaa c53c c5bb 5f3c ebc5 06bd dbf0 b53d
00000100: 246d 193d a03f 413d 5c42 28be c72f 1fbd
00000110: 58b2 8c3d ae26 0ebd ba88 2f3c 2442 6a3d
00000120: ec5b 843c 8579 1bbc cfd1 38bd ee41 a4bc
00000130: 46c8 8b3d 8622 15bd 22f5 9f3d 9f0d 913d
00000140: e7dd 9cbd cf33 a4bd 80e0 febc 1a0e 0d3d
00000150: d3ef 82bc 48f0 f83b fba4 73bd bb98 a93c
00000160: 2059 533c 7930 a8bc 0184 f7bc 0f18 9dbd
00000170: bb02 b43d c34a 733d aea2 77bd 8089 9abc
00000180: 44b2 b4bc d62b d0bd 732f 8a3b 24cc a63d
00000190: d05c 8dbd be7f 573d cb3f d6bc 018b be3d
000001a0: f576 613d 5ed0 09be 04fd e33c cbf6 1bbc
000001b0: 74be e63b e700 6c3d 26a1 dabc 2bfd 8b3c
000001c0: bfff cfbc fbec 2c3c d717 f13d dcc4 023c
000001d0: 79f6 fe3c 2f50 c93d 9437 52bd 144d d93d
000001e0: ab32 c83c a90c 9b3d 3d46 6f3d e96b 23bd
000001f0: d986 40bd 7795 533d 62ad d6bc eeb0 623d
00000200: 4f5e e0bc c207 903b 5533 e93c 52a8 69bd
00000210: c1de 793d c3ab 443d 67ee c23b 8688 b93c
00000220: d2e5 79bc 69bc a3bc 96cc 8abd 58a6 603d
00000230: 7637 f9ba 85a8 e4bd 2e24 a6bc a8ec 55bb
00000240: e8d8 853d e8ce 183d 656a babc f0db 523d
00000250: 52fe d1bd 9d6b 0f3e 40b1 05bd 8116 6e3d
00000260: 0803 92bc 9184 8bbd 9e3c 35bd c790 513d
00000270: c6dd 23bd 964e 0cbd 4efa 5d3d 35e6 3dbd
00000280: 91e4 d9bb 0794 293b faee 853d 31dc 073e
00000290: 8db2 fc3c 9cfc a43c 4d98 013c 51bb 53bd
000002a0: 85e0 913c ca2c 753d 3a02 89bd 83c9 00be
000002b0: e935 313d 610b 4ebd b96b c6bc aaab c13b
000002c0: f53a c73d 19ef ccbc 05f7 4b3c e96d a53d
000002d0: 4810 573d 4d21 05bd 0c89 82bd 2f58 573d
000002e0: 131c e83d 35d0 b1bd 87fd ed3c 8dcc 0b3b
000002f0: f631 363c 2ca9 983c 3d2a e7bd d12d 12bc
00000300: 2767 4bbc ed1e 603d 1703 f13a c523 823d
00000310: d8e9 d33d e20a d1bc a8a4 983d ff45 293c
00000320: 4e73 70bd 0add 99bd c8ee 873c fd19 c43d
00000330: 4d60 933b 4505 833d 5f32 9f3d 59d9 c33d
00000340: 1398 c43c 941c c1bd 5892 ebbb 6b5d 41bd
00000350: 6edf d63c 77f4 03bd 2d47 52bd 195d 573d
00000360: 24c8 673c 9114 86bd 8585 d93d 1d13 8dbd
00000370: 0943 e73c f42e dc3d 7164 eebc 0e2a 54bd
00000380: a319 00bd 5495 17bd 2ad3 07bb d6c5 613d
00000390: ed80 833d c7da 48bd 19f7 dc3c f715 813b
000003a0: a56f 62bd ff99 85be 463d e23c df1b 53bd
000003b0: 9ca9 7e3d 6f5c 13bc b2d2 033e bbf1 b23d
000003c0: 3441 3abc 6f72 ad3d d5b7 b63d 8252 06bd
000003d0: 8b07 eb3d b7b5 de3d 41e3 bc3d eadf 773c
000003e0: 9b0a 143e 8dab 5dbd 511a b53d 0d57 ba3d
000003f0: 0479 263d bd30 903c 7d25 a73d 1830 6dbd
-0.06745111 0.0134698255 0.0924308 -0.06729542 -0.041560177 0.06517656 -0.042502273 -0.030087704
0.08785658 -0.018190505 -0.028329534 0.04970165 0.08596292 0.034512904 -0.0552513 0.14278974
-0.011473988 -0.067988604 0.08702091 0.1102148 0.0055355253 0.06431916 0.0019819045 0.08958813
0.0673117 -0.08729774 0.040138256 0.04250373 0.061668098 0.0884701 -0.025040759 -0.051039014
0.07936251 0.10563956 0.04676538 -0.023978084 0.02835163 0.015398541 0.08795331 -0.06625065
0.06217848 0.05628616 -0.06837326 0.045987807 0.13747549 -0.009346418 0.025782129 0.018987635
-0.019528043 0.09727823 0.003829305 0.042128768 0.0375994 0.050736856 -0.07779806 0.014149235
0.004029613 -0.017821465 -0.061699152 0.0051831747 0.024129352 0.013655608 -0.032903593 0.0888383
0.0374576 0.04717982 -0.16431564 -0.038863923 0.06869954 -0.034704857 0.0107137505 0.057191983
0.016157113 -0.009489422 -0.045121964 -0.020050969 0.068253085 -0.036409877 0.07810427 0.07082676
-0.07659512 -0.08017694 -0.03111291 0.034437276 -0.015983498 0.007597003 -0.05948351 0.02070271
0.012899667 -0.020530926 -0.030214312 -0.076706044 0.08789583 0.05939747 -0.060457878 -0.018864393
-0.02205766 -0.10164611 0.004217082 0.081444055 -0.06902468 0.05261206 -0.026153466 0.09303857
0.055045087 -0.13458392 0.027830608 -0.009519289 0.0070417468 0.057618048 -0.02668817 0.017088493
-0.025390504 0.010554547 0.11772125 0.007981505 0.031123387 0.09829747 -0.051322535 0.106104046
0.024438223 0.07570774 0.058416594 -0.039897833 -0.0470036 0.051656213 -0.026205722 0.055344515
-0.02738872 0.004395456 0.02846686 -0.05704529 0.06100345 0.048015367 0.00594883 0.022648107
-0.015252547 -0.019987302 -0.06777303 0.054846138 -0.0019013721 -0.11164955 -0.020280924 -0.0032642279
0.06535512 0.037306696 -0.022755811 0.05147928 -0.10253586 0.14005895 -0.032639742 0.05812693
-0.017823711 -0.068123944 -0.044247262 0.05116346 -0.04000642 -0.034254633 0.054193787 -0.04636212
-0.0066495617 0.0025875585 0.06539722 0.1326759 0.030846858 0.020139985 0.0079098465 -0.05169231
0.017807255 0.059857167 -0.06689878 -0.1257687 0.043264303 -0.05030382 -0.024221288 0.0059103565
0.09728042 -0.025016354 0.012449031 0.08077604 0.05250576 -0.03250246 -0.06373796 0.052574333
0.1133348 -0.086822905 0.029051555 0.0021331639 0.01112031 0.018635355 -0.11287353 -0.008922056
-0.01241473 0.054716993 0.0018387762 0.06354479 0.103473365 -0.025517885 0.07453281 0.01033163
-0.058703713 -0.07512863 0.016593352 0.09575269 0.004497564 0.063974895 0.077732794 0.0956294
0.023998296 -0.09429279 -0.0071890764 -0.04720823 0.026229586 -0.03221556 -0.05133741 0.05257902
0.014146838 -0.065468915 0.1062117 -0.06888411 0.028230207 0.10751143 -0.029100629 -0.05179792
-0.03127445 -0.037007645 -0.0020725229 0.05512031 0.06421075 -0.049036767 0.026973294 0.003939386
-0.055282254 -0.26094052 0.027617108 -0.05154025 0.06217347 -0.008994206 0.12873343 0.08737513
-0.011368085 0.08469092 0.08921782 -0.03279353 0.11476048 0.10874503 0.09223033 0.015129069
0.1445717 -0.05411868 0.0884291 0.09098635 0.040642753 0.017601365 0.08161447 -0.057907194

net.3.bias f4 [64]
00000000: e2ae c63c 1fb8 77bb f4b0 14bd e50f 833d
00000010: ac2e f3bd 0090 0a3e 489a 083c 46be e93d
00000020: 7bac b4bd 0db4 bfbc 5043 f83d 0ffd 183d
00000030: e6da 7e3d 0c20 833d cf3e ea3d 96a2 223d
00000040: ec03 313d 71d4 8dbb 4cbc e53d e411 babd
00000050: 0f22 ed3d 1d3b 143d 8870 733d b018 a0bc
00000060: bcde b1bb bcfa 3ebd fc42 023d ce50 bb3b
00000070: 2ea8 e93d 898e 8b3d 6c1c 0b3e 4846 16bd
00000080: 4008 27bc 9b5f 763d f8ad 59bc 1efd 2b3d
00000090: 0f9a 013e b53f 03bd e4f7 2a3d 8640 45bd
000000a0: 13bd e63d 00eb aabb 1157 debc 336a 98bd
000000b0: bfac f3bc 9d9e bc3d 6017 87bc 7a9a 223d
000000c0: 6ed3 053d b5f9 1c3d 4cab 993d 0924 c5bd
000000d0: abb3 083d 38dc 933d d8a4 50bc 5257 babc
000000e0: 6f5a db3d a1b1 893d 421b f93d 9d7c cd3d
000000f0: 36fc 8c3d ef51 8b3c 894e 0ebd b8c3 a73d
0.024253312 -0.0037798954 -0.03630157 0.06399516 -0.11874136 0.13531494 0.008337565 0.11413245
-0.088219605 -0.023401285 0.12122214 0.03735071 0.062220477 0.06402597 0.11437761 0.039705835
0.04321663 -0.0043283035 0.112175554 -0.090854436 0.11578762 0.036189187 0.05943349 -0.019543022
-0.0054281633 -0.046625838 0.031802163 0.00571642 0.11409031 0.06814296 0.13585061 -0.03668812
-0.010194838 0.06014977 -0.013286106 0.04198944 0.12656425 -0.032043178 0.041740313 -0.048157237
0.11266532 -0.0052160025 -0.027141126 -0.07442131 -0.029745458 0.092099406 -0.016490638 0.0396981
0.03267234 0.038324077 0.075033754 -0.09626014 0.03337447 0.07219738 -0.012734614 -0.022746716
0.10710608 0.06723333 0.12163402 0.10033534 0.06884043 0.017006842 -0.034742866 0.08191627

net.6.weight f4 [2, 64]
00000000: 16ce 203d 6266 7e3c 22ba 7a3d 6842 a53c
00000010: 5a8f 60be 5be7 043e 80e0 713d fd06 ae3c
00000020: 3a18 08be 484a d13d c8a8 7a3d c2db 053e
00000030: 76a3 fe3b f9b1 143c 6abf a23d ce72 b1bd
00000040: 998f b4bb a564 babd ba69 53bb 51c4 1fbe
00000050: 4d7a 043e d0aa e43a 82fc e73d d7ee d83d
00000060: bb07 61bd d82e 13be b5c4 98bd 7322 383d
00000070: 459f 173e 1254 bc3c e743 0e3e ec59 3a3d
00000080: ffb6 9e3d dc2f 14be 9d37 09be 91f1 e03c
00000090: 6e3f 853d e077 09be 324c b2bb 922f 88bd
000000a0: 8337 f73c 1999 483b 39bd 9dbd 6e60 cbbd
000000b0: d60c 17be 4455 a8bd 920c f93d 85ec 883c
000000c0: 84ec c7bd ff85 623d 7ad0 683d bb3b a73d
000000d0: 79a2 89bd d099 563d caba 573e 35ad c93d
000000e0: db2f 073e 1e97 13bd 6f6e 0e3e 3af0 4fbd
000000f0: e05e e73d ed6d 113a f7ae c0bd 7436 29bd
00000100: bf42 d8bd bbf1 aebc 1256 cdbd 2103 efbd
00000110: 6b71 ff3d 6fa8 8f3d 3948 233e 4c9e c7bd
00000120: 7d67 7d3d 0d53 9ebc 3246 6abd 8aed 46bd
00000130: 0d8c cebd 8657 0dbe 0582 c5bd 235a 293e
00000140: 2651 01be eec5 afbd c1cd 06be 5f08 983d
00000150: e8c6 bcbd f084 663d f183 80bc 27a9 cabd
00000160: 430a 0fbe e62a 493d fc2b 563d 8f34 77bd
00000170: d3da 08bc 984a dcbd ce24 0d3d 906d 58bd
00000180: dabc f5bd 4ac8 0c3d fcc0 043e 5a1e afbd
00000190: e50a 86bc 364c 123e d281 ba3d b151 5e3e
000001a0: 05e4 c7bc 7918 9ebd 7953 2f3e 00bd 723d
000001b0: 34fa e23d 0c21 0d3e 0f10 6cbd ea80 dbbd
000001c0: 492f fe3c ca00 8b3d 5f16 cebd 8630 d93d
000001d0: 9330 e63d 2f2b 0fbe 738d ec3c 1f83 ca3d
000001e0: ac6a b7bc 10e8 1f3e 8cab 8bbd 0db4 1cbe
000001f0: a0a5 233c 5053 303d 07d1 9a3c f7d5 d0bd
0.03925904 0.01552734 0.061212666 0.020173267 -0.21929684 0.1297888 0.05905199 0.021243567
-0.13290492 0.10219246 0.06119612 0.13072112 0.007770951 0.009075635 0.079466656 -0.086644754
-0.0055102822 -0.09101228 -0.0032259063 -0.15602233 0.12937279 0.0017445926 0.11327459 0.1059243
-0.054939013 -0.14373338 -0.07459394 0.04495473 0.1480685 0.022989307 0.1389309 0.045495912
0.077497475 -0.14471382 -0.13400121 0.027458938 0.06506239 -0.13424635 -0.005441212 -0.06649698
0.030177837 0.0030608831 -0.07702107 -0.09930502 -0.1475099 -0.08219388 0.12160601 0.016714344
-0.09761909 0.05530357 0.056839444 0.081656896 -0.06720442 0.05239278 0.21067348 0.0984749
0.13201849 -0.03603279 0.13909315 -0.050766207 0.11297393 0.0005547691 -0.09408372 -0.041311696
-0.10559606 -0.0213555 -0.10026182 -0.11670519 0.12472805 0.07014548 0.1594552 -0.097469896
0.061866272 -0.019326711 -0.05719585 -0.04856638 -0.10085306 -0.13802919 -0.0964394 0.1653829
-0.12628612 -0.08582674 -0.13164426 0.07423472 -0.09217626 0.056279123 -0.015687915 -0.098955445
-0.13968758 0.049113177 0.05228804 -0.06035286 -0.008352953 -0.10756415 0.034458928 -0.052838862
-0.11998911 0.034370698 0.12964243 -0.08550711 -0.016362617 0.14286885 0.091067925 0.2171085
-0.02440072 -0.077195115 0.17121686 0.059262276 0.11082879 0.13782138 -0.057632502 -0.10717948
0.031028407 0.0678726 -0.10062861 0.10604958 0.112397335 -0.13981317 0.028876042 0.098882906
-0.022389732 0.15615869 -0.06819829 -0.15303059 0.009988219 0.043048203 0.0188985 -0.101970606

net.6.bias f4 [2]
00000000: f910 32bd dbd7 c6bd
-0.043473218 -0.0970914
